04/code/task1/model.tfliteOLD/pca/model.int8.tflite (tflite, 787704 bytes, 40 tensors)

model/tf.linalg.matmul/MatMul/b i1 [136, 344] scale=0.006605931 zero_point=0
0	0xde	-0.22460166
1	0xdc	-0.23781352
2	0x3b	0.38974994
3	0xcd	-0.3369025
4	0x27	0.2576313
5	0x27	0.2576313
6	0xd2	-0.30387282
7	0xdf	-0.21799573
8	0x38	0.36993214
9	0x35	0.35011435
10	0xe0	-0.2113898
11	0x2a	0.2774491
12	0xcb	-0.35011435
13	0xe0	-0.2113898
14	0xc0	-0.4227796
15	0xc2	-0.4095677
16	0x32	0.33029655
17	0x3f	0.41617367
18	0xe5	-0.17836013
19	0xe1	-0.20478386
20	0xd3	-0.2972669
21	0xe6	-0.17175421
22	0x33	0.3369025
23	0x32	0.33029655
24	0xc7	-0.37653807
25	0xce	-0.33029655
26	0xe5	-0.17836013
27	0xc8	-0.36993214
28	0xc0	-0.4227796
29	0x3c	0.39635587
30	0xd2	-0.30387282
31	0xe2	-0.19817793
32	0xe3	-0.191572
33	0xcf	-0.32369062
34	0x20	0.2113898
35	0xc3	-0.4029618
36	0x2f	0.31047875
37	0xc2	-0.4095677
38	0x08	0.05284745
39	0xd1	-0.31047875
40	0x2c	0.29066098
41	0x26	0.25102538
42	0xca	-0.35672027
43	0xd6	-0.2774491
44	0x2e	0.30387282
45	0x2e	0.30387282
46	0x23	0.2312076
47	0x23	0.2312076
48	0x26	0.25102538
49	0xd0	-0.3170847
50	0x3a	0.383144
51	0xcf	-0.32369062
52	0x2a	0.2774491
53	0x23	0.2312076
54	0xd3	-0.2972669
55	0xd8	-0.26423725
56	0x3a	0.383144
57	0xc4	-0.39635587
58	0x30	0.3170847
59	0xd4	-0.29066098
60	0x32	0.33029655
61	0xca	-0.35672027
62	0xc4	-0.39635587
63	0x26	0.25102538
64	0x31	0.32369062
65	0xcf	-0.32369062
66	0x0e	0.092483036
67	0xbf	-0.4293855
68	0x3a	0.383144
69	0xe2	-0.19817793
70	0x3c	0.39635587
71	0x33	0.3369025
72	0x3d	0.4029618
73	0xc7	-0.37653807
74	0x2f	0.31047875
75	0xda	-0.25102538
76	0x36	0.35672027
77	0xc3	-0.4029618
78	0x2d	0.2972669
79	0xd1	-0.31047875
80	0x0b	0.072665244
81	0x13	0.12551269
82	0x3f	0.41617367
83	0xd6	-0.2774491
84	0xd6	-0.2774491
85	0xd4	-0.29066098
86	0x34	0.34350842
87	0xc9	-0.36332622
88	0x23	0.2312076
89	0x37	0.36332622
90	0xcb	-0.35011435
91	0xc5	-0.38974994
92	0x22	0.22460166
93	0xc4	-0.39635587
94	0x23	0.2312076
95	0xeb	-0.13872455
96	0xcb	-0.35011435
97	0xdc	-0.23781352
98	0x40	0.4227796
99	0x24	0.23781352
100	0x32	0.33029655
101	0xdd	-0.2312076
102	0x3b	0.38974994
103	0x37	0.36332622
104	0xd0	-0.3170847
105	0xd4	-0.29066098
106	0x2b	0.28405502
107	0xcc	-0.34350842
108	0x36	0.35672027
109	0xcd	-0.3369025
110	0xd8	-0.26423725
111	0xcc	-0.34350842
112	0xd9	-0.2576313
113	0x30	0.3170847
114	0x28	0.26423725
115	0x33	0.3369025
116	0x2a	0.2774491
117	0xe8	-0.15854235
118	0xd3	-0.2972669
119	0xc8	-0.36993214
120	0xd6	-0.2774491
121	0xd9	-0.2576313
122	0x41	0.4293855
123	0x27	0.2576313
124	0xdf	-0.21799573
125	0xc9	-0.36332622
126	0xd3	-0.2972669
127	0xc1	-0.41617367
128	0x2d	0.2972669
129	0x1f	0.20478386
130	0x08	0.05284745
131	0xd4	-0.29066098
132	0xcf	-0.32369062
133	0xe5	-0.17836013
134	0x31	0.32369062
135	0x25	0.24441946
136	0xda	-0.25102538
137	0x33	0.3369025
138	0x39	0.37653807
139	0x18	0.15854235
140	0x38	0.36993214
141	0x25	0.24441946
142	0xd4	-0.29066098
143	0xe3	-0.191572
144	0x24	0.23781352
145	0xd0	-0.3170847
146	0x1f	0.20478386
147	0xc5	-0.38974994
148	0xbf	-0.4293855
149	0xd5	-0.28405502
150	0xe4	-0.18496607
151	0x25	0.24441946
152	0x3a	0.383144
153	0xd0	-0.3170847
154	0xd5	-0.28405502
155	0xd0	-0.3170847
156	0xe1	-0.20478386
157	0xda	-0.25102538
158	0xd3	-0.2972669
159	0xd0	-0.3170847
160	0x13	0.12551269
161	0x36	0.35672027
162	0xcf	-0.32369062
163	0x06	0.039635587
164	0x38	0.36993214
165	0xce	-0.33029655
166	0xd6	-0.2774491
167	0x31	0.32369062
168	0xec	-0.13211863
169	0xbf	-0.4293855
170	0x28	0.26423725
171	0xda	-0.25102538
172	0xd1	-0.31047875
173	0xce	-0.33029655
174	0x24	0.23781352
175	0xd4	-0.29066098
176	0x1f	0.20478386
177	0xd2	-0.30387282
178	0x35	0.35011435
179	0xe2	-0.19817793
180	0x38	0.36993214
181	0xd4	-0.29066098
182	0x3b	0.38974994
183	0x03	0.019817794
184	0xcf	-0.32369062
185	0xc6	-0.383144
186	0x35	0.35011435
187	0xd5	-0.28405502
188	0x37	0.36332622
189	0x1a	0.17175421
190	0x30	0.3170847
191	0x2d	0.2972669
192	0xdf	-0.21799573
193	0xe6	-0.17175421
194	0x35	0.35011435
195	0x1e	0.19817793
196	0x0f	0.09908897
197	0xe8	-0.15854235
198	0x2a	0.2774491
199	0xd2	-0.30387282
200	0xc5	-0.38974994
201	0x22	0.22460166
202	0x38	0.36993214
203	0x3a	0.383144
204	0x35	0.35011435
205	0xd8	-0.26423725
206	0x2e	0.30387282
207	0xfb	-0.033029657
208	0x43	0.4425974
209	0x27	0.2576313
210	0x1d	0.191572
211	0xc2	-0.4095677
212	0xdd	-0.2312076
213	0xc9	-0.36332622
214	0xd2	-0.30387282
215	0xea	-0.14533049
216	0xca	-0.35672027
217	0x27	0.2576313
218	0x35	0.35011435
219	0xc9	-0.36332622
220	0x2c	0.29066098
221	0xc4	-0.39635587
222	0xdb	-0.24441946
223	0x3f	0.41617367
224	0x00	0.0
225	0xd9	-0.2576313
226	0x28	0.26423725
227	0xe9	-0.15193641
228	0x21	0.21799573
229	0x26	0.25102538
230	0x3d	0.4029618
231	0x28	0.26423725
232	0x2c	0.29066098
233	0x38	0.36993214
234	0xda	-0.25102538
235	0x3b	0.38974994
236	0xec	-0.13211863
237	0x32	0.33029655
238	0xd5	-0.28405502
239	0x2f	0.31047875
240	0x30	0.3170847
241	0xd1	-0.31047875
242	0x30	0.3170847
243	0x15	0.13872455
244	0xf1	-0.09908897
245	0x03	0.019817794
246	0xd7	-0.27084318
247	0x19	0.16514827
248	0xfe	-0.013211862
249	0x33	0.3369025
250	0x38	0.36993214
251	0x22	0.22460166
252	0x2d	0.2972669
253	0xc1	-0.41617367
254	0x36	0.35672027
255	0x40	0.4227796

model/conv2d_29/Conv2D i1 [344, 1, 1, 352]
0	0x11	17
1	0xfa	-6
2	0xfa	-6
3	0xf8	-8
4	0x18	24
5	0x17	23
6	0x00	0
7	0xf8	-8
8	0x1b	27
9	0x05	5
10	0xeb	-21
11	0xf7	-9
12	0xee	-18
13	0xde	-34
14	0x0a	10
15	0x01	1
16	0xf3	-13
17	0xfd	-3
18	0xc3	-61
19	0x15	21
20	0xfc	-4
21	0x08	8
22	0xe6	-26
23	0xf3	-13
24	0xd8	-40
25	0x06	6
26	0x09	9
27	0x13	19
28	0xe2	-30
29	0x13	19
30	0x02	2
31	0x08	8
32	0xfa	-6
33	0x03	3
34	0x15	21
35	0xf4	-12
36	0x11	17
37	0xf4	-12
38	0x09	9
39	0x10	16
40	0xff	-1
41	0x0f	15
42	0xfc	-4
43	0x22	34
44	0x1d	29
45	0xfc	-4
46	0x04	4
47	0x04	4
48	0x10	16
49	0xf5	-11
50	0x10	16
51	0x09	9
52	0xf7	-9
53	0xed	-19
54	0x03	3
55	0xea	-22
56	0x13	19
57	0x0e	14
58	0x03	3
59	0xe1	-31
60	0xbe	-66
61	0x02	2
62	0xf0	-16
63	0xef	-17
64	0x20	32
65	0x06	6
66	0xee	-18
67	0x1d	29
68	0xfc	-4
69	0xef	-17
70	0xc8	-56
71	0xf8	-8
72	0x06	6
73	0x16	22
74	0x13	19
75	0xc4	-60
76	0xec	-20
77	0x12	18
78	0x0f	15
79	0x04	4
80	0x17	23
81	0xfb	-5
82	0xf7	-9
83	0xfc	-4
84	0x10	16
85	0x1a	26
86	0xe8	-24
87	0xf3	-13
88	0xec	-20
89	0xf7	-9
90	0xf7	-9
91	0xfb	-5
92	0xec	-20
93	0x03	3
94	0x15	21
95	0xf1	-15
96	0x29	41
97	0x08	8
98	0xe7	-25
99	0x02	2
100	0x00	0
101	0x1c	28
102	0xf8	-8
103	0xdb	-37
104	0x0d	13
105	0x14	20
106	0x1c	28
107	0x05	5
108	0x02	2
109	0xe8	-24
110	0x0a	10
111	0x0d	13
112	0x04	4
113	0xfc	-4
114	0x0b	11
115	0xfa	-6
116	0x0c	12
117	0xec	-20
118	0xec	-20
119	0x03	3
120	0xf5	-11
121	0xff	-1
122	0x0b	11
123	0x30	48
124	0x10	16
125	0xb9	-71
126	0xf8	-8
127	0x01	1
128	0x18	24
129	0xf9	-7
130	0x07	7
131	0xf9	-7
132	0x13	19
133	0xe9	-23
134	0x08	8
135	0xbf	-65
136	0xc2	-62
137	0x01	1
138	0x12	18
139	0x3c	60
140	0x17	23
141	0x32	50
142	0xdc	-36
143	0x00	0
144	0x18	24
145	0x16	22
146	0x0f	15
147	0xfd	-3
148	0x09	9
149	0xf6	-10
150	0x09	9
151	0x00	0
152	0xf9	-7
153	0xfe	-2
154	0x0f	15
155	0xfb	-5
156	0xf6	-10
157	0xef	-17
158	0xb6	-74
159	0xf0	-16
160	0xfb	-5
161	0x22	34
162	0xef	-17
163	0xee	-18
164	0xf4	-12
165	0x0a	10
166	0x14	20
167	0x95	-107
168	0xfd	-3
169	0x1a	26
170	0x1e	30
171	0xfa	-6
172	0x00	0
173	0xa2	-94
174	0x0b	11
175	0x0f	15
176	0xe1	-31
177	0xf8	-8
178	0x0c	12
179	0x02	2
180	0xfa	-6
181	0x09	9
182	0xf0	-16
183	0x0b	11
184	0x00	0
185	0x11	17
186	0x05	5
187	0xfa	-6
188	0x05	5
189	0x1b	27
190	0x1d	29
191	0xfb	-5
192	0x04	4
193	0x0a	10
194	0x1c	28
195	0xb6	-74
196	0x0b	11
197	0xe8	-24
198	0xb0	-80
199	0x05	5
200	0x09	9
201	0x11	17
202	0x01	1
203	0x15	21
204	0x02	2
205	0xe9	-23
206	0xef	-17
207	0x05	5
208	0x1f	31
209	0x23	35
210	0x00	0
211	0xfe	-2
212	0xef	-17
213	0x0f	15
214	0x1c	28
215	0x14	20
216	0x09	9
217	0x14	20
218	0x1b	27
219	0xe6	-26
220	0xd4	-44
221	0xe9	-23
222	0x12	18
223	0xec	-20
224	0x05	5
225	0x06	6
226	0x04	4
227	0x05	5
228	0x0b	11
229	0x99	-103
230	0x09	9
231	0xe6	-26
232	0xec	-20
233	0x12	18
234	0xc8	-56
235	0xe2	-30
236	0xf2	-14
237	0x00	0
238	0x12	18
239	0x0b	11
240	0xf4	-12
241	0xe9	-23
242	0xec	-20
243	0xc0	-64
244	0x16	22
245	0x06	6
246	0x05	5
247	0xee	-18
248	0x0d	13
249	0x1c	28
250	0x05	5
251	0xfd	-3
252	0x02	2
253	0x0d	13
254	0xed	-19
255	0xe8	-24

model/conv2d_28/Conv2D1 i1 [352, 1, 1, 56]
0	0xec	-20
1	0xeb	-21
2	0xff	-1
3	0x10	16
4	0xd1	-47
5	0x14	20
6	0xfc	-4
7	0x14	20
8	0x04	4
9	0xf1	-15
10	0xe8	-24
11	0x29	41
12	0xf9	-7
13	0x1d	29
14	0x23	35
15	0xf7	-9
16	0xc7	-57
17	0xe1	-31
18	0xdf	-33
19	0x2c	44
20	0x04	4
21	0xdf	-33
22	0x12	18
23	0x13	19
24	0xea	-22
25	0x17	23
26	0xd1	-47
27	0x81	-127
28	0xf3	-13
29	0xd3	-45
30	0x06	6
31	0x19	25
32	0xe0	-32
33	0x2e	46
34	0xcf	-49
35	0xfa	-6
36	0x05	5
37	0xfa	-6
38	0x10	16
39	0x01	1
40	0x25	37
41	0xe9	-23
42	0xea	-22
43	0xfa	-6
44	0xed	-19
45	0xf9	-7
46	0x0d	13
47	0x15	21
48	0xc6	-58
49	0xe5	-27
50	0xdd	-35
51	0xf9	-7
52	0xe7	-25
53	0xef	-17
54	0xd3	-45
55	0xe3	-29
56	0xa7	-89
57	0x55	85
58	0xad	-83
59	0x9b	-101
60	0x02	2
61	0xe0	-32
62	0xe6	-26
63	0x1d	29
64	0x14	20
65	0x08	8
66	0xf3	-13
67	0xc1	-63
68	0x17	23
69	0x19	25
70	0xe0	-32
71	0xc4	-60
72	0xa2	-94
73	0xf3	-13
74	0x81	-127
75	0xe9	-23
76	0xda	-38
77	0xa5	-91
78	0x0a	10
79	0x1d	29
80	0xbe	-66
81	0xdf	-33
82	0xef	-17
83	0x4e	78
84	0xf7	-9
85	0xc3	-61
86	0xed	-19
87	0xce	-50
88	0xc8	-56
89	0x6a	106
90	0x8f	-113
91	0xee	-18
92	0xea	-22
93	0xec	-20
94	0x1d	29
95	0xf1	-15
96	0x32	50
97	0xc5	-59
98	0x10	16
99	0xe4	-28
100	0xe5	-27
101	0x04	4
102	0xec	-20
103	0xfa	-6
104	0x10	16
105	0x31	49
106	0xcc	-52
107	0xc5	-59
108	0xbe	-66
109	0xb2	-78
110	0x3d	61
111	0x2e	46
112	0x8f	-113
113	0xd6	-42
114	0xff	-1
115	0xdd	-35
116	0x17	23
117	0xe3	-29
118	0x10	16
119	0xfe	-2
120	0xe7	-25
121	0x81	-127
122	0x02	2
123	0xb6	-74
124	0x0c	12
125	0xcd	-51
126	0xab	-85
127	0xc4	-60
128	0xca	-54
129	0xf3	-13
130	0x2d	45
131	0x05	5
132	0xff	-1
133	0xb0	-80
134	0xe1	-31
135	0xfb	-5
136	0x32	50
137	0xe0	-32
138	0x92	-110
139	0x14	20
140	0xbe	-66
141	0x08	8
142	0xeb	-21
143	0xde	-34
144	0x89	-119
145	0xa8	-88
146	0xab	-85
147	0x0f	15
148	0xc6	-58
149	0xee	-18
150	0xbe	-66
151	0xdb	-37
152	0x01	1
153	0x31	49
154	0xc1	-63
155	0xf1	-15
156	0xbc	-68
157	0xe5	-27
158	0xc4	-60
159	0xe3	-29
160	0xcb	-53
161	0xf2	-14
162	0xca	-54
163	0xcb	-53
164	0xb4	-76
165	0xe8	-24
166	0xe7	-25
167	0x01	1
168	0xb7	-73
169	0x3d	61
170	0xe4	-28
171	0x44	68
172	0xee	-18
173	0x08	8
174	0x22	34
175	0xc5	-59
176	0xfb	-5
177	0xb0	-80
178	0xc4	-60
179	0x14	20
180	0x30	48
181	0xe7	-25
182	0xe2	-30
183	0x81	-127
184	0xb0	-80
185	0xf5	-11
186	0x0d	13
187	0xe9	-23
188	0xd7	-41
189	0xdd	-35
190	0xe5	-27
191	0xfd	-3
192	0xbf	-65
193	0xc1	-63
194	0x22	34
195	0xda	-38
196	0xf1	-15
197	0x03	3
198	0xf0	-16
199	0xae	-82
200	0xf6	-10
201	0x3f	63
202	0xde	-34
203	0xe6	-26
204	0x09	9
205	0xb9	-71
206	0x20	32
207	0xdd	-35
208	0x1e	30
209	0xd7	-41
210	0x03	3
211	0xda	-38
212	0xf3	-13
213	0xdc	-36
214	0xe2	-30
215	0x7f	127
216	0xbf	-65
217	0x2e	46
218	0xfa	-6
219	0x26	38
220	0xc9	-55
221	0x92	-110
222	0x4b	75
223	0xf5	-11
224	0xdf	-33
225	0xf3	-13
226	0xcd	-51
227	0xea	-22
228	0xfa	-6
229	0xcc	-52
230	0xd4	-44
231	0x9a	-102
232	0xa0	-96
233	0x00	0
234	0xc7	-57
235	0x00	0
236	0xe3	-29
237	0xd1	-47
238	0xf0	-16
239	0xae	-82
240	0xdd	-35
241	0x01	1
242	0xa2	-94
243	0xab	-85
244	0xdc	-36
245	0xb2	-78
246	0xf6	-10
247	0xd6	-42
248	0x02	2
249	0xf2	-14
250	0x9e	-98
251	0xbd	-67
252	0xb9	-71
253	0xc7	-57
254	0x0c	12
255	0x1e	30

model/conv2d_27/Conv2D1 i1 [56, 1, 1, 352]
0	0xf7	-9
1	0x13	19
2	0x0c	12
3	0x33	51
4	0x14	20
5	0x1e	30
6	0x18	24
7	0x39	57
8	0x14	20
9	0x0b	11
10	0x11	17
11	0x12	18
12	0x18	24
13	0x03	3
14	0xfb	-5
15	0xf2	-14
16	0x15	21
17	0x0f	15
18	0x02	2
19	0xf2	-14
20	0x0b	11
21	0xdc	-36
22	0xdc	-36
23	0x30	48
24	0x01	1
25	0x06	6
26	0x37	55
27	0x06	6
28	0x36	54
29	0x21	33
30	0xed	-19
31	0x27	39
32	0x18	24
33	0xfe	-2
34	0xca	-54
35	0x15	21
36	0x0e	14
37	0x02	2
38	0x00	0
39	0x0f	15
40	0xc1	-63
41	0x14	20
42	0xeb	-21
43	0x1a	26
44	0x2c	44
45	0x3d	61
46	0xfe	-2
47	0x04	4
48	0x14	20
49	0x29	41
50	0x3b	59
51	0xde	-34
52	0xf2	-14
53	0x0b	11
54	0x0f	15
55	0xb0	-80
56	0xf0	-16
57	0x1d	29
58	0x2d	45
59	0xf7	-9
60	0x0d	13
61	0x09	9
62	0xf0	-16
63	0xf9	-7
64	0xf2	-14
65	0x03	3
66	0x0b	11
67	0x13	19
68	0x32	50
69	0xdb	-37
70	0x2a	42
71	0xfe	-2
72	0xe9	-23
73	0x11	17
74	0xde	-34
75	0x19	25
76	0xfb	-5
77	0x07	7
78	0xf9	-7
79	0x0a	10
80	0x30	48
81	0xf9	-7
82	0x03	3
83	0xc6	-58
84	0x1d	29
85	0x0f	15
86	0x0d	13
87	0xce	-50
88	0x05	5
89	0xef	-17
90	0x13	19
91	0x2c	44
92	0x00	0
93	0xe7	-25
94	0xea	-22
95	0xdd	-35
96	0x08	8
97	0x20	32
98	0xee	-18
99	0xd3	-45
100	0xce	-50
101	0xe7	-25
102	0xcd	-51
103	0x12	18
104	0xfb	-5
105	0x19	25
106	0xd8	-40
107	0x2c	44
108	0xf8	-8
109	0x02	2
110	0xfc	-4
111	0x0f	15
112	0xf1	-15
113	0x23	35
114	0x1a	26
115	0x00	0
116	0xf3	-13
117	0xfd	-3
118	0xfc	-4
119	0x1c	28
120	0x09	9
121	0xfa	-6
122	0xf0	-16
123	0x01	1
124	0x05	5
125	0xfd	-3
126	0x05	5
127	0xe3	-29
128	0x0d	13
129	0x04	4
130	0xd0	-48
131	0x19	25
132	0x05	5
133	0xf9	-7
134	0x10	16
135	0xf6	-10
136	0xfa	-6
137	0xe1	-31
138	0x18	24
139	0x17	23
140	0xf9	-7
141	0x20	32
142	0x0c	12
143	0x15	21
144	0xda	-38
145	0xf8	-8
146	0x1a	26
147	0xe7	-25
148	0xd5	-43
149	0x4f	79
150	0x1a	26
151	0x00	0
152	0x21	33
153	0xf5	-11
154	0xfd	-3
155	0x1d	29
156	0x30	48
157	0xfe	-2
158	0x10	16
159	0xd6	-42
160	0xee	-18
161	0xd4	-44
162	0x0e	14
163	0x24	36
164	0x06	6
165	0xe8	-24
166	0x05	5
167	0x24	36
168	0xed	-19
169	0x1c	28
170	0xeb	-21
171	0xc6	-58
172	0x1e	30
173	0x09	9
174	0xf1	-15
175	0x10	16
176	0x22	34
177	0xde	-34
178	0x0d	13
179	0x08	8
180	0xfc	-4
181	0x09	9
182	0x06	6
183	0x09	9
184	0xfc	-4
185	0x01	1
186	0xed	-19
187	0xfb	-5
188	0xf2	-14
189	0x08	8
190	0x10	16
191	0x15	21
192	0x0e	14
193	0x27	39
194	0x05	5
195	0x12	18
196	0xa0	-96
197	0xf8	-8
198	0x41	65
199	0x33	51
200	0x7f	127
201	0xfa	-6
202	0x4c	76
203	0xcb	-53
204	0x43	67
205	0x05	5
206	0x00	0
207	0x1e	30
208	0x09	9
209	0x06	6
210	0x12	18
211	0xe2	-30
212	0x35	53
213	0x0b	11
214	0x23	35
215	0xf7	-9
216	0xe1	-31
217	0x27	39
218	0x1b	27
219	0x1f	31
220	0x1b	27
221	0x0e	14
222	0xfa	-6
223	0x21	33
224	0x25	37
225	0xfd	-3
226	0x0b	11
227	0x3b	59
228	0xe2	-30
229	0x18	24
230	0x2d	45
231	0x02	2
232	0xf5	-11
233	0x36	54
234	0x03	3
235	0x18	24
236	0xf2	-14
237	0xe2	-30
238	0xfe	-2
239	0xf4	-12
240	0x11	17
241	0x25	37
242	0x1e	30
243	0x11	17
244	0xdf	-33
245	0xec	-20
246	0x13	19
247	0x02	2
248	0x3a	58
249	0x14	20
250	0x01	1
251	0x06	6
252	0x31	49
253	0x2d	45
254	0x16	22
255	0x16	22

model/depthwise_conv2d_8/depthwise i1 [1, 3, 3, 352]
0	0xe7	-25
1	0x41	65
2	0x03	3
3	0xf7	-9
4	0x0d	13
5	0x2e	46
6	0x02	2
7	0xf2	-14
8	0x00	0
9	0x16	22
10	0xf3	-13
11	0xb4	-76
12	0x23	35
13	0xec	-20
14	0x76	118
15	0x4f	79
16	0xfb	-5
17	0xfe	-2
18	0xa4	-92
19	0x10	16
20	0x77	119
21	0xdd	-35
22	0x08	8
23	0x02	2
24	0xd6	-42
25	0xd2	-46
26	0x2f	47
27	0xbb	-69
28	0xd9	-39
29	0x3c	60
30	0x5d	93
31	0x00	0
32	0x06	6
33	0x1f	31
34	0xf4	-12
35	0x3d	61
36	0x7f	127
37	0x0b	11
38	0xd1	-47
39	0xee	-18
40	0xcf	-49
41	0x07	7
42	0x45	69
43	0xa9	-87
44	0x65	101
45	0x93	-109
46	0x31	49
47	0xb6	-74
48	0xae	-82
49	0xea	-22
50	0xe6	-26
51	0xfc	-4
52	0xc5	-59
53	0x41	65
54	0xbd	-67
55	0x50	80
56	0x6e	110
57	0x63	99
58	0xd3	-45
59	0x13	19
60	0x18	24
61	0xee	-18
62	0xf5	-11
63	0xde	-34
64	0xde	-34
65	0x6c	108
66	0x86	-122
67	0xa0	-96
68	0x52	82
69	0xb8	-72
70	0xe8	-24
71	0xeb	-21
72	0x1d	29
73	0xa2	-94
74	0xae	-82
75	0x8f	-113
76	0x23	35
77	0x01	1
78	0x34	52
79	0xcb	-53
80	0xed	-19
81	0x4f	79
82	0x00	0
83	0x4b	75
84	0xf5	-11
85	0x4b	75
86	0xb3	-77
87	0x22	34
88	0xc0	-64
89	0xee	-18
90	0x21	33
91	0x52	82
92	0xe2	-30
93	0xb5	-75
94	0xf8	-8
95	0xe1	-31
96	0x21	33
97	0x81	-127
98	0x4d	77
99	0xe6	-26
100	0xe8	-24
101	0x1d	29
102	0x1c	28
103	0x31	49
104	0x1b	27
105	0x7f	127
106	0xc9	-55
107	0xe6	-26
108	0x28	40
109	0xf1	-15
110	0x7e	126
111	0x08	8
112	0xe3	-29
113	0x7f	127
114	0xd0	-48
115	0x7f	127
116	0x53	83
117	0xf0	-16
118	0x20	32
119	0x0a	10
120	0xa3	-93
121	0x81	-127
122	0x33	51
123	0xa2	-94
124	0xdd	-35
125	0x1c	28
126	0x4b	75
127	0xab	-85
128	0xd4	-44
129	0x42	66
130	0x2e	46
131	0x95	-107
132	0xe9	-23
133	0x3a	58
134	0x45	69
135	0x03	3
136	0xd7	-41
137	0x54	84
138	0xc1	-63
139	0xdf	-33
140	0xf0	-16
141	0xf3	-13
142	0x01	1
143	0x4b	75
144	0x81	-127
145	0x7f	127
146	0x3a	58
147	0xe0	-32
148	0x4c	76
149	0x81	-127
150	0x37	55
151	0xa6	-90
152	0x03	3
153	0xef	-17
154	0x0d	13
155	0x1a	26
156	0x54	84
157	0xb3	-77
158	0x24	36
159	0x39	57
160	0x28	40
161	0x41	65
162	0xb7	-73
163	0x8f	-113
164	0xdb	-37
165	0xdc	-36
166	0xed	-19
167	0xb3	-77
168	0x3a	58
169	0x12	18
170	0xf2	-14
171	0x00	0
172	0x19	25
173	0x17	23
174	0x39	57
175	0xe1	-31
176	0x1b	27
177	0xe3	-29
178	0xed	-19
179	0x04	4
180	0xb5	-75
181	0x4c	76
182	0xbd	-67
183	0xef	-17
184	0xd2	-46
185	0x47	71
186	0x6a	106
187	0x28	40
188	0x3f	63
189	0xf9	-7
190	0x7f	127
191	0x81	-127
192	0xe3	-29
193	0x2c	44
194	0xf8	-8
195	0xc3	-61
196	0xe5	-27
197	0xf0	-16
198	0x81	-127
199	0xeb	-21
200	0xea	-22
201	0xfd	-3
202	0x1e	30
203	0x30	48
204	0x6e	110
205	0x7f	127
206	0xe1	-31
207	0x44	68
208	0x32	50
209	0x03	3
210	0x1e	30
211	0x35	53
212	0xec	-20
213	0xf0	-16
214	0x4f	79
215	0x19	25
216	0x60	96
217	0x26	38
218	0x3c	60
219	0xd8	-40
220	0xd3	-45
221	0x07	7
222	0xfc	-4
223	0x75	117
224	0x56	86
225	0x3c	60
226	0xd4	-44
227	0x3e	62
228	0xca	-54
229	0xd2	-46
230	0xdc	-36
231	0xce	-50
232	0x03	3
233	0x0c	12
234	0x0c	12
235	0xe1	-31
236	0xfd	-3
237	0x35	53
238	0x08	8
239	0xe1	-31
240	0xc0	-64
241	0xc9	-55
242	0x01	1
243	0xeb	-21
244	0xff	-1
245	0xf6	-10
246	0xa2	-94
247	0xff	-1
248	0x0d	13
249	0xd7	-41
250	0xe6	-26
251	0x10	16
252	0xcd	-51
253	0xec	-20
254	0xd8	-40
255	0xec	-20

model/conv2d_26/Conv2D i1 [352, 1, 1, 176]
0	0x8c	-116
1	0xe8	-24
2	0x04	4
3	0x1a	26
4	0x7c	124
5	0xe3	-29
6	0xe3	-29
7	0x09	9
8	0x01	1
9	0xee	-18
10	0x26	38
11	0xdd	-35
12	0xd7	-41
13	0x31	49
14	0x5f	95
15	0xaa	-86
16	0xf1	-15
17	0xf6	-10
18	0xde	-34
19	0xd1	-47
20	0x07	7
21	0xe6	-26
22	0xff	-1
23	0x0e	14
24	0xd2	-46
25	0xdd	-35
26	0x15	21
27	0x18	24
28	0x2c	44
29	0xfe	-2
30	0xca	-54
31	0x0a	10
32	0x2b	43
33	0x1a	26
34	0x04	4
35	0x41	65
36	0xf6	-10
37	0x1c	28
38	0xf5	-11
39	0x21	33
40	0x0c	12
41	0x0f	15
42	0xd7	-41
43	0x13	19
44	0xf2	-14
45	0x42	66
46	0x3d	61
47	0x16	22
48	0x06	6
49	0x2c	44
50	0x0f	15
51	0x00	0
52	0x31	49
53	0xb1	-79
54	0xe7	-25
55	0xc8	-56
56	0xbc	-68
57	0xc7	-57
58	0xec	-20
59	0x23	35
60	0x12	18
61	0xaa	-86
62	0xda	-38
63	0xe1	-31
64	0x0e	14
65	0x3f	63
66	0xef	-17
67	0x8b	-117
68	0x7f	127
69	0xf3	-13
70	0x8a	-118
71	0x35	53
72	0xe4	-28
73	0x10	16
74	0x1f	31
75	0xfc	-4
76	0xec	-20
77	0xdd	-35
78	0x52	82
79	0xff	-1
80	0x2b	43
81	0x42	66
82	0xcc	-52
83	0xd9	-39
84	0xc4	-60
85	0x03	3
86	0x17	23
87	0xfd	-3
88	0xaf	-81
89	0x0e	14
90	0xff	-1
91	0xc8	-56
92	0x9d	-99
93	0xce	-50
94	0x1c	28
95	0xef	-17
96	0x3f	63
97	0x19	25
98	0x4b	75
99	0x42	66
100	0xc8	-56
101	0x25	37
102	0x0b	11
103	0x0c	12
104	0xed	-19
105	0xfa	-6
106	0xe6	-26
107	0x02	2
108	0xdf	-33
109	0xf0	-16
110	0x1c	28
111	0x10	16
112	0xed	-19
113	0x3a	58
114	0x1e	30
115	0x37	55
116	0x1f	31
117	0x0b	11
118	0x10	16
119	0x10	16
120	0x68	104
121	0xfb	-5
122	0x07	7
123	0x17	23
124	0xdf	-33
125	0x19	25
126	0x4e	78
127	0xe4	-28
128	0xa1	-95
129	0x19	25
130	0xef	-17
131	0x21	33
132	0x39	57
133	0x0a	10
134	0xef	-17
135	0x58	88
136	0x09	9
137	0xd7	-41
138	0xf5	-11
139	0x17	23
140	0xb8	-72
141	0x2f	47
142	0xea	-22
143	0x72	114
144	0x3c	60
145	0xdd	-35
146	0x5a	90
147	0xce	-50
148	0xd6	-42
149	0x2b	43
150	0x02	2
151	0xa9	-87
152	0x0f	15
153	0x43	67
154	0xe4	-28
155	0x20	32
156	0x33	51
157	0x0e	14
158	0x08	8
159	0xdf	-33
160	0xb0	-80
161	0xdc	-36
162	0x30	48
163	0xf0	-16
164	0xda	-38
165	0xff	-1
166	0xe1	-31
167	0xe2	-30
168	0x0a	10
169	0xf8	-8
170	0xe2	-30
171	0xea	-22
172	0x00	0
173	0xe9	-23
174	0xda	-38
175	0x2c	44
176	0x0f	15
177	0x02	2
178	0xe8	-24
179	0x39	57
180	0xde	-34
181	0xf3	-13
182	0x2e	46
183	0x0c	12
184	0x07	7
185	0xbc	-68
186	0xd7	-41
187	0xdf	-33
188	0x27	39
189	0x24	36
190	0x06	6
191	0xf9	-7
192	0xf1	-15
193	0x08	8
194	0x31	49
195	0x5e	94
196	0x0e	14
197	0x04	4
198	0xd4	-44
199	0x3c	60
200	0x0d	13
201	0xe1	-31
202	0xf7	-9
203	0x0c	12
204	0xfa	-6
205	0xe4	-28
206	0xed	-19
207	0x12	18
208	0xa6	-90
209	0x0d	13
210	0xe1	-31
211	0x1f	31
212	0x2f	47
213	0x24	36
214	0xee	-18
215	0x3d	61
216	0x1b	27
217	0x00	0
218	0x16	22
219	0xf7	-9
220	0x00	0
221	0xc9	-55
222	0x23	35
223	0xf7	-9
224	0x6e	110
225	0xee	-18
226	0x1f	31
227	0xea	-22
228	0xee	-18
229	0xdc	-36
230	0x37	55
231	0xd5	-43
232	0xb9	-71
233	0xd0	-48
234	0x0d	13
235	0xe7	-25
236	0xd9	-39
237	0xd4	-44
238	0xaf	-81
239	0xf9	-7
240	0x14	20
241	0xec	-20
242	0xf9	-7
243	0xf9	-7
244	0xc0	-64
245	0x25	37
246	0xe1	-31
247	0xe9	-23
248	0x09	9
249	0xfc	-4
250	0x22	34
251	0xf2	-14
252	0xcd	-51
253	0x13	19
254	0x01	1
255	0xe7	-25

model/conv2d_25/Conv2D i1 [176, 1, 1, 400]
0	0xff	-1
1	0xde	-34
2	0x1e	30
3	0xf1	-15
4	0x0e	14
5	0xf9	-7
6	0x0a	10
7	0xef	-17
8	0xd4	-44
9	0x07	7
10	0xf4	-12
11	0xff	-1
12	0xf5	-11
13	0xdc	-36
14	0x10	16
15	0x06	6
16	0xe1	-31
17	0x0f	15
18	0xe5	-27
19	0x21	33
20	0x01	1
21	0x18	24
22	0xd8	-40
23	0xdc	-36
24	0x28	40
25	0xfb	-5
26	0x33	51
27	0x26	38
28	0xd4	-44
29	0x0c	12
30	0xf5	-11
31	0x19	25
32	0xf8	-8
33	0xf9	-7
34	0xfd	-3
35	0xf6	-10
36	0xc7	-57
37	0xea	-22
38	0xe7	-25
39	0x30	48
40	0x01	1
41	0xc6	-58
42	0xf6	-10
43	0x00	0
44	0x00	0
45	0xfd	-3
46	0x1f	31
47	0xd5	-43
48	0x0d	13
49	0x02	2
50	0xf5	-11
51	0xfe	-2
52	0xc3	-61
53	0x1e	30
54	0xfa	-6
55	0xd4	-44
56	0x00	0
57	0xe8	-24
58	0xf4	-12
59	0xf3	-13
60	0x19	25
61	0xda	-38
62	0x14	20
63	0xd2	-46
64	0xee	-18
65	0xe9	-23
66	0x0f	15
67	0xd1	-47
68	0xfb	-5
69	0x05	5
70	0x1d	29
71	0xff	-1
72	0xe7	-25
73	0x03	3
74	0xf8	-8
75	0xeb	-21
76	0x2c	44
77	0xf8	-8
78	0x19	25
79	0xe8	-24
80	0xc1	-63
81	0xd0	-48
82	0x0c	12
83	0xee	-18
84	0xe4	-28
85	0x19	25
86	0x2e	46
87	0x16	22
88	0x08	8
89	0xe6	-26
90	0x03	3
91	0x17	23
92	0xc5	-59
93	0xe4	-28
94	0x19	25
95	0xc5	-59
96	0xdf	-33
97	0x0c	12
98	0xdc	-36
99	0xf7	-9
100	0xfb	-5
101	0x20	32
102	0xaf	-81
103	0x0d	13
104	0xfa	-6
105	0xec	-20
106	0xfa	-6
107	0xed	-19
108	0xda	-38
109	0xfa	-6
110	0x28	40
111	0xfb	-5
112	0x27	39
113	0x2c	44
114	0xe2	-30
115	0xaa	-86
116	0x05	5
117	0x05	5
118	0xe6	-26
119	0x15	21
120	0x1b	27
121	0xce	-50
122	0x13	19
123	0x16	22
124	0xd3	-45
125	0x04	4
126	0x00	0
127	0xd9	-39
128	0xd3	-45
129	0x08	8
130	0xe7	-25
131	0xdc	-36
132	0x35	53
133	0xf4	-12
134	0xda	-38
135	0x00	0
136	0xf7	-9
137	0xfa	-6
138	0x30	48
139	0x08	8
140	0xf7	-9
141	0x26	38
142	0xe0	-32
143	0xfd	-3
144	0x21	33
145	0xf0	-16
146	0x10	16
147	0xd8	-40
148	0x11	17
149	0x00	0
150	0xfc	-4
151	0xf6	-10
152	0x2e	46
153	0xd1	-47
154	0xf4	-12
155	0x1a	26
156	0xe8	-24
157	0x24	36
158	0x0b	11
159	0x0f	15
160	0xd6	-42
161	0xed	-19
162	0xea	-22
163	0x00	0
164	0xd1	-47
165	0x17	23
166	0xd6	-42
167	0x0c	12
168	0xdc	-36
169	0x08	8
170	0x29	41
171	0xf5	-11
172	0x0a	10
173	0x3f	63
174	0xfe	-2
175	0xfa	-6
176	0x0e	14
177	0xf8	-8
178	0x17	23
179	0x21	33
180	0xf5	-11
181	0xfa	-6
182	0xf4	-12
183	0x26	38
184	0x16	22
185	0xdf	-33
186	0xf5	-11
187	0xff	-1
188	0xf6	-10
189	0x10	16
190	0x02	2
191	0x26	38
192	0x06	6
193	0x03	3
194	0xeb	-21
195	0x0e	14
196	0x10	16
197	0x10	16
198	0xfa	-6
199	0x12	18
200	0xfc	-4
201	0x05	5
202	0xf5	-11
203	0xd8	-40
204	0xcd	-51
205	0xff	-1
206	0x1c	28
207	0xf9	-7
208	0xf7	-9
209	0xea	-22
210	0xfb	-5
211	0x17	23
212	0x0b	11
213	0xf1	-15
214	0x21	33
215	0xf8	-8
216	0xf9	-7
217	0x43	67
218	0x0d	13
219	0x16	22
220	0xd8	-40
221	0xeb	-21
222	0xe4	-28
223	0x07	7
224	0x1e	30
225	0xf9	-7
226	0x03	3
227	0xec	-20
228	0x1e	30
229	0xed	-19
230	0x02	2
231	0xdb	-37
232	0xf9	-7
233	0x0e	14
234	0x23	35
235	0x15	21
236	0xea	-22
237	0xed	-19
238	0xf0	-16
239	0xe1	-31
240	0xe6	-26
241	0x27	39
242	0xdc	-36
243	0x16	22
244	0xde	-34
245	0x02	2
246	0x0e	14
247	0xef	-17
248	0xde	-34
249	0xe5	-27
250	0x21	33
251	0xeb	-21
252	0x20	32
253	0xf2	-14
254	0x14	20
255	0x37	55

model/conv2d_24/Conv2D1 i1 [400, 1, 1, 64]
0	0x35	53
1	0x97	-105
2	0x08	8
3	0x20	32
4	0xfb	-5
5	0xdf	-33
6	0xce	-50
7	0x35	53
8	0xf6	-10
9	0xea	-22
10	0x0b	11
11	0x00	0
12	0x0f	15
13	0xf4	-12
14	0xec	-20
15	0x21	33
16	0xce	-50
17	0xd6	-42
18	0xfb	-5
19	0xf9	-7
20	0xef	-17
21	0xe5	-27
22	0xfa	-6
23	0xfe	-2
24	0x44	68
25	0x1e	30
26	0xfe	-2
27	0x03	3
28	0xd5	-43
29	0xbd	-67
30	0xd2	-46
31	0xbd	-67
32	0xe5	-27
33	0xef	-17
34	0x12	18
35	0x81	-127
36	0xc8	-56
37	0x07	7
38	0xd9	-39
39	0xcc	-52
40	0xfe	-2
41	0xf1	-15
42	0xf0	-16
43	0xda	-38
44	0x24	36
45	0xd9	-39
46	0x12	18
47	0x2a	42
48	0x60	96
49	0x2e	46
50	0xd6	-42
51	0xec	-20
52	0x0f	15
53	0x7c	124
54	0xed	-19
55	0xe7	-25
56	0xe8	-24
57	0xdc	-36
58	0xdd	-35
59	0xf4	-12
60	0x03	3
61	0x75	117
62	0x4b	75
63	0x10	16
64	0x3f	63
65	0x1b	27
66	0x02	2
67	0xf9	-7
68	0x37	55
69	0xee	-18
70	0x2c	44
71	0x10	16
72	0x15	21
73	0x81	-127
74	0x05	5
75	0xdc	-36
76	0x0a	10
77	0x2e	46
78	0x07	7
79	0xf4	-12
80	0x34	52
81	0xc1	-63
82	0x00	0
83	0xf6	-10
84	0xce	-50
85	0xf6	-10
86	0x57	87
87	0xff	-1
88	0xec	-20
89	0x35	53
90	0xbd	-67
91	0x17	23
92	0xd2	-46
93	0xf4	-12
94	0xfd	-3
95	0xfb	-5
96	0xcd	-51
97	0xfa	-6
98	0x1d	29
99	0xf4	-12
100	0xeb	-21
101	0x11	17
102	0xe2	-30
103	0x0d	13
104	0xfd	-3
105	0x19	25
106	0xac	-84
107	0xf3	-13
108	0xec	-20
109	0xfd	-3
110	0xf6	-10
111	0xe2	-30
112	0xf0	-16
113	0xbe	-66
114	0xeb	-21
115	0xe5	-27
116	0x42	66
117	0x2c	44
118	0xbd	-67
119	0xd5	-43
120	0xe3	-29
121	0x0a	10
122	0x59	89
123	0x00	0
124	0x9c	-100
125	0xd3	-45
126	0x1d	29
127	0xeb	-21
128	0xe8	-24
129	0xe2	-30
130	0xf6	-10
131	0xf9	-7
132	0xd8	-40
133	0xfa	-6
134	0xf0	-16
135	0x02	2
136	0x1e	30
137	0x42	66
138	0xe9	-23
139	0xe5	-27
140	0xbf	-65
141	0xef	-17
142	0xfe	-2
143	0xf9	-7
144	0xe5	-27
145	0x05	5
146	0xed	-19
147	0xce	-50
148	0xd6	-42
149	0xf0	-16
150	0xf3	-13
151	0x81	-127
152	0x18	24
153	0xf0	-16
154	0xe8	-24
155	0xfb	-5
156	0xdd	-35
157	0x0a	10
158	0xf7	-9
159	0x98	-104
160	0x0c	12
161	0x15	21
162	0xf0	-16
163	0x2d	45
164	0x4f	79
165	0x0b	11
166	0xcb	-53
167	0xde	-34
168	0xa0	-96
169	0x15	21
170	0xf4	-12
171	0xf7	-9
172	0xe5	-27
173	0xd7	-41
174	0xef	-17
175	0xfc	-4
176	0xe7	-25
177	0x29	41
178	0x01	1
179	0xac	-84
180	0xef	-17
181	0xf4	-12
182	0xd4	-44
183	0xc5	-59
184	0xfd	-3
185	0xea	-22
186	0x11	17
187	0x9c	-100
188	0xd6	-42
189	0xdf	-33
190	0x1d	29
191	0xdc	-36
192	0x25	37
193	0x10	16
194	0xf6	-10
195	0xfb	-5
196	0xef	-17
197	0xc9	-55
198	0x2a	42
199	0xf4	-12
200	0x4b	75
201	0xe3	-29
202	0x17	23
203	0xbf	-65
204	0xc4	-60
205	0xe8	-24
206	0xd4	-44
207	0xfb	-5
208	0xd7	-41
209	0xa0	-96
210	0xf9	-7
211	0xf0	-16
212	0xd5	-43
213	0xf5	-11
214	0x0c	12
215	0xd8	-40
216	0xd6	-42
217	0xc8	-56
218	0x21	33
219	0xf4	-12
220	0xfc	-4
221	0xf1	-15
222	0x32	50
223	0x0c	12
224	0xdf	-33
225	0x11	17
226	0x09	9
227	0x06	6
228	0x00	0
229	0xfa	-6
230	0xf1	-15
231	0xdf	-33
232	0xbe	-66
233	0xf9	-7
234	0xee	-18
235	0x0f	15
236	0xda	-38
237	0xd0	-48
238	0xdc	-36
239	0xeb	-21
240	0xf0	-16
241	0xcd	-51
242	0xf2	-14
243	0x81	-127
244	0xc3	-61
245	0xd3	-45
246	0xca	-54
247	0x03	3
248	0x57	87
249	0xc6	-58
250	0x09	9
251	0xfd	-3
252	0xe3	-29
253	0xc0	-64
254	0xd8	-40
255	0xd2	-46

model/conv2d_23/Conv2D1 i1 [64, 1, 1, 400]
0	0xf7	-9
1	0x1f	31
2	0xe6	-26
3	0xd7	-41
4	0xee	-18
5	0xef	-17
6	0x0f	15
7	0xdf	-33
8	0x04	4
9	0x07	7
10	0xe5	-27
11	0x46	70
12	0xd7	-41
13	0xd5	-43
14	0x03	3
15	0x03	3
16	0x3a	58
17	0xef	-17
18	0xdb	-37
19	0xb1	-79
20	0x15	21
21	0xef	-17
22	0x17	23
23	0xd5	-43
24	0x1a	26
25	0x0e	14
26	0xd5	-43
27	0x10	16
28	0x40	64
29	0x09	9
30	0xf7	-9
31	0xfe	-2
32	0x14	20
33	0xe1	-31
34	0xd7	-41
35	0x11	17
36	0xca	-54
37	0x1f	31
38	0x00	0
39	0x05	5
40	0x23	35
41	0xc9	-55
42	0x07	7
43	0xd6	-42
44	0x2b	43
45	0x07	7
46	0x06	6
47	0xe4	-28
48	0xd9	-39
49	0xcf	-49
50	0x08	8
51	0xe0	-32
52	0x00	0
53	0xe4	-28
54	0x29	41
55	0xeb	-21
56	0xe3	-29
57	0xf9	-7
58	0x0e	14
59	0xe1	-31
60	0x17	23
61	0x0b	11
62	0x33	51
63	0x98	-104
64	0xfc	-4
65	0xda	-38
66	0xef	-17
67	0xd6	-42
68	0xfe	-2
69	0xd8	-40
70	0x11	17
71	0xe9	-23
72	0x38	56
73	0xbe	-66
74	0xeb	-21
75	0x27	39
76	0x13	19
77	0xef	-17
78	0x11	17
79	0x07	7
80	0xf1	-15
81	0xfb	-5
82	0xe5	-27
83	0x2f	47
84	0x09	9
85	0x12	18
86	0x1b	27
87	0xd1	-47
88	0xfd	-3
89	0x19	25
90	0x07	7
91	0x12	18
92	0xed	-19
93	0x08	8
94	0x01	1
95	0x22	34
96	0x0f	15
97	0xfc	-4
98	0x26	38
99	0x25	37
100	0xd9	-39
101	0xf9	-7
102	0xce	-50
103	0x17	23
104	0xf5	-11
105	0xcc	-52
106	0x18	24
107	0x1f	31
108	0xfe	-2
109	0x00	0
110	0xd4	-44
111	0x23	35
112	0x01	1
113	0xfc	-4
114	0x11	17
115	0x0a	10
116	0x29	41
117	0xf0	-16
118	0xf0	-16
119	0x38	56
120	0xf7	-9
121	0x01	1
122	0xf0	-16
123	0xdd	-35
124	0xd4	-44
125	0xe6	-26
126	0x14	20
127	0xf3	-13
128	0x0c	12
129	0x02	2
130	0xeb	-21
131	0x17	23
132	0xdc	-36
133	0x10	16
134	0x02	2
135	0x07	7
136	0xe9	-23
137	0x16	22
138	0xe2	-30
139	0x12	18
140	0xdb	-37
141	0x34	52
142	0x13	19
143	0xee	-18
144	0xdc	-36
145	0x31	49
146	0xcb	-53
147	0x2e	46
148	0x0d	13
149	0xf7	-9
150	0xe5	-27
151	0xf9	-7
152	0xd4	-44
153	0x0d	13
154	0x14	20
155	0x1b	27
156	0x08	8
157	0xe1	-31
158	0xc4	-60
159	0x11	17
160	0xd4	-44
161	0xf1	-15
162	0x19	25
163	0x16	22
164	0x11	17
165	0xf4	-12
166	0x12	18
167	0xd2	-46
168	0x24	36
169	0x32	50
170	0x17	23
171	0x7f	127
172	0xc5	-59
173	0x26	38
174	0x0e	14
175	0x55	85
176	0x1a	26
177	0xef	-17
178	0xf0	-16
179	0x4f	79
180	0x03	3
181	0xfc	-4
182	0xe1	-31
183	0xca	-54
184	0x1b	27
185	0xfc	-4
186	0xd7	-41
187	0xc8	-56
188	0x0f	15
189	0x16	22
190	0xfa	-6
191	0x43	67
192	0xf3	-13
193	0x49	73
194	0x01	1
195	0xe4	-28
196	0xe3	-29
197	0xfb	-5
198	0x3d	61
199	0x02	2
200	0x41	65
201	0xbd	-67
202	0x91	-111
203	0x0c	12
204	0x14	20
205	0xbd	-67
206	0xe0	-32
207	0xbd	-67
208	0xef	-17
209	0x01	1
210	0x10	16
211	0xec	-20
212	0x16	22
213	0xda	-38
214	0xe9	-23
215	0xe1	-31
216	0x07	7
217	0xe6	-26
218	0x0f	15
219	0xeb	-21
220	0xd4	-44
221	0xe6	-26
222	0x02	2
223	0x05	5
224	0xe1	-31
225	0xf3	-13
226	0xfe	-2
227	0x1a	26
228	0x13	19
229	0xef	-17
230	0x04	4
231	0x13	19
232	0xe2	-30
233	0x0f	15
234	0x24	36
235	0x30	48
236	0xe7	-25
237	0x00	0
238	0xe3	-29
239	0xfa	-6
240	0xd2	-46
241	0x12	18
242	0xdb	-37
243	0xd7	-41
244	0xe6	-26
245	0xbb	-69
246	0x03	3
247	0x0e	14
248	0xec	-20
249	0x1b	27
250	0x07	7
251	0x00	0
252	0xf5	-11
253	0xd2	-46
254	0x06	6
255	0x3a	58

model/depthwise_conv2d_7/depthwise i1 [1, 3, 3, 400]
0	0xcd	-51
1	0x5e	94
2	0x07	7
3	0xe8	-24
4	0x06	6
5	0x0d	13
6	0xf5	-11
7	0x09	9
8	0x06	6
9	0x23	35
10	0xf4	-12
11	0xf6	-10
12	0x5e	94
13	0x37	55
14	0xcf	-49
15	0x37	55
16	0x6b	107
17	0xdd	-35
18	0x42	66
19	0x2b	43
20	0x24	36
21	0x14	20
22	0xd4	-44
23	0xe6	-26
24	0x00	0
25	0x14	20
26	0xc6	-58
27	0xc6	-58
28	0xdc	-36
29	0x17	23
30	0xfc	-4
31	0x23	35
32	0xee	-18
33	0x23	35
34	0x0c	12
35	0xd1	-47
36	0x35	53
37	0xf7	-9
38	0xe0	-32
39	0xf0	-16
40	0xe5	-27
41	0xe3	-29
42	0xb6	-74
43	0xdd	-35
44	0x0f	15
45	0x7c	124
46	0x3a	58
47	0x26	38
48	0x02	2
49	0xb9	-71
50	0xdb	-37
51	0xce	-50
52	0x37	55
53	0x13	19
54	0x4f	79
55	0x0e	14
56	0x02	2
57	0xc9	-55
58	0x52	82
59	0xfa	-6
60	0x12	18
61	0xd2	-46
62	0xdc	-36
63	0x1e	30
64	0xd2	-46
65	0xf6	-10
66	0x1e	30
67	0xa7	-89
68	0x02	2
69	0x01	1
70	0xe2	-30
71	0x9b	-101
72	0xfe	-2
73	0xed	-19
74	0xfe	-2
75	0x0d	13
76	0x0a	10
77	0xe7	-25
78	0x00	0
79	0x21	33
80	0x26	38
81	0x25	37
82	0x3a	58
83	0xeb	-21
84	0xf8	-8
85	0x04	4
86	0xed	-19
87	0x2b	43
88	0xd8	-40
89	0xbb	-69
90	0xd5	-43
91	0x12	18
92	0xfc	-4
93	0x4b	75
94	0xd9	-39
95	0xf0	-16
96	0xb0	-80
97	0xeb	-21
98	0xf4	-12
99	0xf4	-12
100	0x2d	45
101	0xd8	-40
102	0x83	-125
103	0xf3	-13
104	0x0d	13
105	0xf7	-9
106	0x0d	13
107	0x14	20
108	0xed	-19
109	0x3a	58
110	0x34	52
111	0xf4	-12
112	0xe3	-29
113	0x31	49
114	0xd4	-44
115	0xa6	-90
116	0x14	20
117	0xfa	-6
118	0x12	18
119	0x00	0
120	0x0c	12
121	0x23	35
122	0xd3	-45
123	0x38	56
124	0xe9	-23
125	0x40	64
126	0x06	6
127	0x03	3
128	0x3e	62
129	0xe5	-27
130	0xc8	-56
131	0xdc	-36
132	0xf2	-14
133	0xff	-1
134	0x58	88
135	0x07	7
136	0x10	16
137	0x89	-119
138	0x28	40
139	0x01	1
140	0x2b	43
141	0x07	7
142	0x45	69
143	0x24	36
144	0x08	8
145	0xe1	-31
146	0xcd	-51
147	0x07	7
148	0xae	-82
149	0x08	8
150	0xfa	-6
151	0xf7	-9
152	0x46	70
153	0xd0	-48
154	0x35	53
155	0xf3	-13
156	0xdf	-33
157	0x1c	28
158	0xe7	-25
159	0x3a	58
160	0xf3	-13
161	0x07	7
162	0x1c	28
163	0x5c	92
164	0xe2	-30
165	0xd1	-47
166	0xe7	-25
167	0xd6	-42
168	0x63	99
169	0xff	-1
170	0x30	48
171	0xce	-50
172	0xdb	-37
173	0x1d	29
174	0xd0	-48
175	0xae	-82
176	0xfc	-4
177	0xfd	-3
178	0xf4	-12
179	0xc1	-63
180	0xfc	-4
181	0x7f	127
182	0x19	25
183	0x3e	62
184	0xe6	-26
185	0xfc	-4
186	0x7d	125
187	0x0d	13
188	0xb2	-78
189	0xe6	-26
190	0x25	37
191	0x20	32
192	0x0c	12
193	0xf3	-13
194	0x33	51
195	0x45	69
196	0xae	-82
197	0x15	21
198	0x02	2
199	0x11	17
200	0x09	9
201	0x18	24
202	0xf2	-14
203	0x0a	10
204	0xf0	-16
205	0xd7	-41
206	0xc6	-58
207	0xd1	-47
208	0xe0	-32
209	0xdf	-33
210	0x7f	127
211	0x11	17
212	0x10	16
213	0xf6	-10
214	0xcd	-51
215	0xe8	-24
216	0x08	8
217	0xcb	-53
218	0xe8	-24
219	0xa7	-89
220	0x81	-127
221	0x25	37
222	0xec	-20
223	0xa0	-96
224	0x2c	44
225	0x0e	14
226	0x38	56
227	0xf3	-13
228	0x23	35
229	0xb5	-75
230	0xf1	-15
231	0x0f	15
232	0xe5	-27
233	0xe6	-26
234	0xc2	-62
235	0x24	36
236	0x4a	74
237	0x0b	11
238	0x39	57
239	0xfb	-5
240	0xf2	-14
241	0xe4	-28
242	0x09	9
243	0xb8	-72
244	0xea	-22
245	0x9a	-102
246	0x34	52
247	0xff	-1
248	0x17	23
249	0x05	5
250	0x25	37
251	0xe7	-25
252	0xe8	-24
253	0x13	19
254	0x0f	15
255	0x35	53

model/conv2d_22/Conv2D i1 [400, 1, 1, 176]
0	0x13	19
1	0x18	24
2	0xd2	-46
3	0xc4	-60
4	0x16	22
5	0xef	-17
6	0x0b	11
7	0xd2	-46
8	0x08	8
9	0x0a	10
10	0xf0	-16
11	0xe6	-26
12	0xbb	-69
13	0xbe	-66
14	0xa4	-92
15	0x61	97
16	0xe9	-23
17	0x0b	11
18	0xdb	-37
19	0xf2	-14
20	0x48	72
21	0xe9	-23
22	0xd5	-43
23	0xef	-17
24	0x08	8
25	0x2a	42
26	0xfc	-4
27	0x22	34
28	0x10	16
29	0xfa	-6
30	0xd7	-41
31	0xe6	-26
32	0x3e	62
33	0xca	-54
34	0x5a	90
35	0x01	1
36	0xf8	-8
37	0x16	22
38	0xef	-17
39	0x1d	29
40	0xb5	-75
41	0xd2	-46
42	0xaf	-81
43	0xdc	-36
44	0xe9	-23
45	0xe8	-24
46	0xfd	-3
47	0x1b	27
48	0xe4	-28
49	0xb2	-78
50	0xfd	-3
51	0x30	48
52	0xd9	-39
53	0x2d	45
54	0xe1	-31
55	0x20	32
56	0xde	-34
57	0x76	118
58	0xf3	-13
59	0x49	73
60	0xff	-1
61	0x26	38
62	0xea	-22
63	0x14	20
64	0x37	55
65	0x2b	43
66	0x0d	13
67	0x03	3
68	0x26	38
69	0x98	-104
70	0xea	-22
71	0x1e	30
72	0xf6	-10
73	0x0c	12
74	0x54	84
75	0xc0	-64
76	0xb8	-72
77	0x0e	14
78	0x34	52
79	0x00	0
80	0xd5	-43
81	0x56	86
82	0x0b	11
83	0xf1	-15
84	0xe5	-27
85	0x10	16
86	0x1e	30
87	0x26	38
88	0x09	9
89	0x20	32
90	0x0e	14
91	0xad	-83
92	0x4f	79
93	0xfa	-6
94	0x3f	63
95	0x32	50
96	0x45	69
97	0x13	19
98	0x0c	12
99	0xf3	-13
100	0xb3	-77
101	0xac	-84
102	0x3d	61
103	0x35	53
104	0x07	7
105	0x05	5
106	0xfe	-2
107	0xd3	-45
108	0x35	53
109	0xea	-22
110	0xa8	-88
111	0x30	48
112	0x2d	45
113	0x12	18
114	0x02	2
115	0xea	-22
116	0x31	49
117	0xd8	-40
118	0x1d	29
119	0x4c	76
120	0xf6	-10
121	0xfb	-5
122	0xf8	-8
123	0x69	105
124	0x0b	11
125	0x01	1
126	0xb9	-71
127	0xe2	-30
128	0x13	19
129	0xd5	-43
130	0xfc	-4
131	0x36	54
132	0xfd	-3
133	0xea	-22
134	0x8f	-113
135	0xb8	-72
136	0x1d	29
137	0xfb	-5
138	0x03	3
139	0x70	112
140	0xf2	-14
141	0x17	23
142	0x22	34
143	0x34	52
144	0x0e	14
145	0xfd	-3
146	0x2e	46
147	0x21	33
148	0x00	0
149	0x23	35
150	0x16	22
151	0x0e	14
152	0xf9	-7
153	0xe5	-27
154	0xfb	-5
155	0x81	-127
156	0x57	87
157	0xeb	-21
158	0x4c	76
159	0xe9	-23
160	0x1c	28
161	0x4c	76
162	0x09	9
163	0xd6	-42
164	0x15	21
165	0x4e	78
166	0x21	33
167	0x0d	13
168	0x27	39
169	0x27	39
170	0xce	-50
171	0x8b	-117
172	0x18	24
173	0x4f	79
174	0xec	-20
175	0x09	9
176	0xf2	-14
177	0xde	-34
178	0x19	25
179	0xdf	-33
180	0x09	9
181	0x34	52
182	0x04	4
183	0x1e	30
184	0x18	24
185	0xe6	-26
186	0xe7	-25
187	0xcd	-51
188	0x44	68
189	0xfd	-3
190	0xe9	-23
191	0x12	18
192	0xed	-19
193	0xfd	-3
194	0xed	-19
195	0xf1	-15
196	0x34	52
197	0xc1	-63
198	0x3d	61
199	0xe6	-26
200	0x47	71
201	0x06	6
202	0x1f	31
203	0x09	9
204	0x1a	26
205	0x06	6
206	0xe9	-23
207	0xfd	-3
208	0xaa	-86
209	0xd1	-47
210	0x02	2
211	0xf5	-11
212	0xdd	-35
213	0x24	36
214	0xf4	-12
215	0xe5	-27
216	0xe6	-26
217	0x01	1
218	0x33	51
219	0xa9	-87
220	0x1f	31
221	0x37	55
222	0xfb	-5
223	0xd8	-40
224	0xff	-1
225	0xeb	-21
226	0x0d	13
227	0xde	-34
228	0xe8	-24
229	0x20	32
230	0xe7	-25
231	0xc3	-61
232	0xf1	-15
233	0xc8	-56
234	0x09	9
235	0xb5	-75
236	0xe9	-23
237	0x28	40
238	0xf7	-9
239	0xf3	-13
240	0x21	33
241	0x14	20
242	0x04	4
243	0xe7	-25
244	0x34	52
245	0x01	1
246	0xca	-54
247	0x21	33
248	0x07	7
249	0xc7	-57
250	0xf0	-16
251	0x11	17
252	0xcc	-52
253	0x05	5
254	0xf2	-14
255	0x0b	11

model/conv2d_21/Conv2D i1 [176, 1, 1, 224]
0	0x0f	15
1	0xfc	-4
2	0xeb	-21
3	0xf8	-8
4	0x1b	27
5	0xf8	-8
6	0x01	1
7	0xf3	-13
8	0xd5	-43
9	0xe6	-26
10	0xee	-18
11	0xf1	-15
12	0xf2	-14
13	0x15	21
14	0x01	1
15	0xfb	-5
16	0xfa	-6
17	0xfb	-5
18	0xe6	-26
19	0x0c	12
20	0x0b	11
21	0xee	-18
22	0xef	-17
23	0xfc	-4
24	0x01	1
25	0x0b	11
26	0x05	5
27	0x03	3
28	0x16	22
29	0xfc	-4
30	0x17	23
31	0x09	9
32	0x0a	10
33	0x19	25
34	0x14	20
35	0x0e	14
36	0xeb	-21
37	0x03	3
38	0x11	17
39	0x24	36
40	0x09	9
41	0xbb	-69
42	0xe6	-26
43	0xfd	-3
44	0xff	-1
45	0xf8	-8
46	0xe0	-32
47	0xc2	-62
48	0x98	-104
49	0x09	9
50	0x0e	14
51	0x16	22
52	0x31	49
53	0xc9	-55
54	0x0b	11
55	0xff	-1
56	0x38	56
57	0x30	48
58	0xf6	-10
59	0x17	23
60	0x0c	12
61	0x1f	31
62	0xe2	-30
63	0x2a	42
64	0xef	-17
65	0x0b	11
66	0xf7	-9
67	0x28	40
68	0xe6	-26
69	0xf3	-13
70	0x1f	31
71	0x11	17
72	0x00	0
73	0xeb	-21
74	0x02	2
75	0x1c	28
76	0xf6	-10
77	0x00	0
78	0xdc	-36
79	0xfc	-4
80	0x1d	29
81	0x12	18
82	0x1a	26
83	0x06	6
84	0xfa	-6
85	0x10	16
86	0xff	-1
87	0x13	19
88	0x01	1
89	0xf3	-13
90	0xfb	-5
91	0x0d	13
92	0x00	0
93	0xa6	-90
94	0x0a	10
95	0x04	4
96	0xe6	-26
97	0xf4	-12
98	0x10	16
99	0xf0	-16
100	0x0d	13
101	0x08	8
102	0x00	0
103	0xed	-19
104	0x23	35
105	0x0d	13
106	0x10	16
107	0xd5	-43
108	0x12	18
109	0xf1	-15
110	0xf4	-12
111	0xe2	-30
112	0xe7	-25
113	0xba	-70
114	0x07	7
115	0x06	6
116	0xe6	-26
117	0x22	34
118	0xe8	-24
119	0x0b	11
120	0x27	39
121	0x06	6
122	0x0f	15
123	0x0b	11
124	0xfb	-5
125	0x10	16
126	0xfa	-6
127	0x05	5
128	0xe8	-24
129	0x06	6
130	0x03	3
131	0x10	16
132	0xfc	-4
133	0xd7	-41
134	0x06	6
135	0xf1	-15
136	0xe9	-23
137	0xf1	-15
138	0xea	-22
139	0xec	-20
140	0x05	5
141	0x15	21
142	0x07	7
143	0xf4	-12
144	0xfc	-4
145	0x07	7
146	0xf8	-8
147	0xe2	-30
148	0x17	23
149	0xf1	-15
150	0xef	-17
151	0x1c	28
152	0x05	5
153	0xe0	-32
154	0xe8	-24
155	0x31	49
156	0x00	0
157	0xed	-19
158	0x0d	13
159	0xb9	-71
160	0x06	6
161	0xff	-1
162	0xea	-22
163	0x02	2
164	0xf2	-14
165	0xe3	-29
166	0x0d	13
167	0xfb	-5
168	0xfe	-2
169	0xfb	-5
170	0x04	4
171	0x0c	12
172	0xdc	-36
173	0x00	0
174	0x14	20
175	0xef	-17
176	0xee	-18
177	0x06	6
178	0x0c	12
179	0xd9	-39
180	0x06	6
181	0xd5	-43
182	0x1d	29
183	0xec	-20
184	0xd3	-45
185	0x06	6
186	0x04	4
187	0xfd	-3
188	0xe4	-28
189	0xe0	-32
190	0xd3	-45
191	0x04	4
192	0x0e	14
193	0xf2	-14
194	0x1e	30
195	0x02	2
196	0xe5	-27
197	0xed	-19
198	0xc8	-56
199	0xf6	-10
200	0xf1	-15
201	0xe9	-23
202	0x05	5
203	0xf3	-13
204	0x1e	30
205	0xeb	-21
206	0xfc	-4
207	0x13	19
208	0xc7	-57
209	0x11	17
210	0x25	37
211	0x09	9
212	0x0b	11
213	0xeb	-21
214	0xff	-1
215	0x81	-127
216	0xf6	-10
217	0xe3	-29
218	0x02	2
219	0xf5	-11
220	0x23	35
221	0xf6	-10
222	0x0d	13
223	0x04	4
224	0xe6	-26
225	0x0f	15
226	0x17	23
227	0x3c	60
228	0x04	4
229	0xcf	-49
230	0x08	8
231	0xe6	-26
232	0xeb	-21
233	0xec	-20
234	0xf5	-11
235	0x20	32
236	0xc8	-56
237	0x21	33
238	0xd7	-41
239	0x11	17
240	0xf0	-16
241	0x1d	29
242	0x0d	13
243	0x14	20
244	0x03	3
245	0x4a	74
246	0x34	52
247	0x39	57
248	0x09	9
249	0xd7	-41
250	0xa3	-93
251	0x2c	44
252	0x26	38
253	0xe6	-26
254	0xd4	-44
255	0xda	-38

model/conv2d_20/Conv2D1 i1 [224, 1, 1, 40]
0	0xc5	-59
1	0xf6	-10
2	0x0a	10
3	0x2a	42
4	0xef	-17
5	0xf6	-10
6	0xf4	-12
7	0xfc	-4
8	0xe9	-23
9	0x88	-120
10	0x06	6
11	0xde	-34
12	0xe8	-24
13	0xf5	-11
14	0xf6	-10
15	0x86	-122
16	0x91	-111
17	0x35	53
18	0xc5	-59
19	0x29	41
20	0x0c	12
21	0x02	2
22	0xaf	-81
23	0xea	-22
24	0x19	25
25	0xde	-34
26	0xdd	-35
27	0xed	-19
28	0xe6	-26
29	0xe7	-25
30	0xb5	-75
31	0x81	-127
32	0x0e	14
33	0xd6	-42
34	0x06	6
35	0x2b	43
36	0x3c	60
37	0x16	22
38	0x96	-106
39	0x41	65
40	0x8d	-115
41	0xfe	-2
42	0xf2	-14
43	0xee	-18
44	0xe5	-27
45	0x07	7
46	0x00	0
47	0xef	-17
48	0x06	6
49	0xeb	-21
50	0xfd	-3
51	0xe9	-23
52	0xfc	-4
53	0xd1	-47
54	0xf2	-14
55	0x0e	14
56	0xdb	-37
57	0xf7	-9
58	0xa7	-89
59	0x1f	31
60	0xe4	-28
61	0xbd	-67
62	0xec	-20
63	0xd6	-42
64	0xf8	-8
65	0xfd	-3
66	0xab	-85
67	0x81	-127
68	0x1c	28
69	0xe3	-29
70	0xea	-22
71	0xd5	-43
72	0xd2	-46
73	0x2a	42
74	0xcf	-49
75	0x16	22
76	0xea	-22
77	0xf3	-13
78	0x23	35
79	0x1f	31
80	0x0d	13
81	0x9f	-97
82	0xca	-54
83	0x34	52
84	0x15	21
85	0x1f	31
86	0xc1	-63
87	0x0f	15
88	0xd1	-47
89	0x0f	15
90	0x26	38
91	0xec	-20
92	0xa2	-94
93	0x28	40
94	0xe6	-26
95	0x25	37
96	0xdf	-33
97	0xf2	-14
98	0xe4	-28
99	0xc3	-61
100	0xde	-34
101	0x95	-107
102	0xd1	-47
103	0xc8	-56
104	0xd1	-47
105	0xb8	-72
106	0xd6	-42
107	0xf6	-10
108	0xbf	-65
109	0x81	-127
110	0xfd	-3
111	0xfb	-5
112	0x84	-124
113	0x2e	46
114	0xd6	-42
115	0x03	3
116	0x26	38
117	0x15	21
118	0xc8	-56
119	0xdd	-35
120	0xc7	-57
121	0xd3	-45
122	0xb3	-77
123	0x8c	-116
124	0xef	-17
125	0x17	23
126	0x4a	74
127	0xe5	-27
128	0xe1	-31
129	0x05	5
130	0xe0	-32
131	0x02	2
132	0xe7	-25
133	0xfd	-3
134	0xf7	-9
135	0xdc	-36
136	0xe9	-23
137	0x04	4
138	0xe5	-27
139	0x1a	26
140	0xe2	-30
141	0xdd	-35
142	0x04	4
143	0xc5	-59
144	0xd6	-42
145	0x05	5
146	0x81	-127
147	0x1c	28
148	0x9b	-101
149	0xd2	-46
150	0x04	4
151	0xdd	-35
152	0xfc	-4
153	0xf1	-15
154	0xa4	-92
155	0x0a	10
156	0xdf	-33
157	0xcd	-51
158	0x0e	14
159	0x53	83
160	0x11	17
161	0x69	105
162	0xe0	-32
163	0x7f	127
164	0x00	0
165	0x19	25
166	0x30	48
167	0xa1	-95
168	0xde	-34
169	0x17	23
170	0x22	34
171	0xba	-70
172	0x5d	93
173	0x4a	74
174	0xd8	-40
175	0x1a	26
176	0x00	0
177	0xd4	-44
178	0x17	23
179	0xee	-18
180	0xb5	-75
181	0x0c	12
182	0x2d	45
183	0x0c	12
184	0x24	36
185	0xed	-19
186	0x95	-107
187	0x20	32
188	0xd5	-43
189	0x06	6
190	0xd5	-43
191	0xe9	-23
192	0xd6	-42
193	0x03	3
194	0x0e	14
195	0xe1	-31
196	0xf7	-9
197	0xd7	-41
198	0xf2	-14
199	0x2e	46
200	0x09	9
201	0x08	8
202	0xe6	-26
203	0x1d	29
204	0xff	-1
205	0x07	7
206	0x29	41
207	0xf1	-15
208	0xe6	-26
209	0x0a	10
210	0xef	-17
211	0xf7	-9
212	0x0b	11
213	0x01	1
214	0xee	-18
215	0x23	35
216	0x81	-127
217	0x0f	15
218	0xfe	-2
219	0xf0	-16
220	0xd1	-47
221	0xec	-20
222	0xca	-54
223	0x1a	26
224	0xe3	-29
225	0x23	35
226	0x03	3
227	0xfc	-4
228	0x0b	11
229	0xf4	-12
230	0x23	35
231	0xf6	-10
232	0x3a	58
233	0x07	7
234	0x15	21
235	0xa2	-94
236	0x0d	13
237	0x44	68
238	0x60	96
239	0xf6	-10
240	0x06	6
241	0x05	5
242	0x04	4
243	0xfe	-2
244	0xf1	-15
245	0xbb	-69
246	0x1c	28
247	0x0e	14
248	0x0e	14
249	0xe1	-31
250	0x0d	13
251	0xfb	-5
252	0x07	7
253	0x0e	14
254	0xe7	-25
255	0x10	16

model/conv2d_19/Conv2D1 i1 [40, 1, 1, 224]
0	0xd8	-40
1	0xd1	-47
2	0x00	0
3	0xd1	-47
4	0x1a	26
5	0x02	2
6	0xfb	-5
7	0xec	-20
8	0xfc	-4
9	0x2d	45
10	0xda	-38
11	0x05	5
12	0xff	-1
13	0x0b	11
14	0xf1	-15
15	0x0d	13
16	0xdf	-33
17	0x1a	26
18	0x20	32
19	0x0f	15
20	0x07	7
21	0xfd	-3
22	0x07	7
23	0xe6	-26
24	0xf9	-7
25	0xfe	-2
26	0xe7	-25
27	0x18	24
28	0xfc	-4
29	0xe5	-27
30	0xf2	-14
31	0xfe	-2
32	0x24	36
33	0x01	1
34	0xe4	-28
35	0xf5	-11
36	0x0e	14
37	0x02	2
38	0x04	4
39	0x1c	28
40	0x05	5
41	0x22	34
42	0x0d	13
43	0xed	-19
44	0xfe	-2
45	0xd3	-45
46	0xda	-38
47	0x22	34
48	0xee	-18
49	0x02	2
50	0xe2	-30
51	0x04	4
52	0xf7	-9
53	0x04	4
54	0x16	22
55	0xfd	-3
56	0x09	9
57	0xfb	-5
58	0x0e	14
59	0xf6	-10
60	0x07	7
61	0x02	2
62	0x0d	13
63	0xff	-1
64	0xf3	-13
65	0x09	9
66	0x22	34
67	0xf6	-10
68	0xec	-20
69	0xea	-22
70	0x3a	58
71	0x9e	-98
72	0x10	16
73	0xef	-17
74	0xf4	-12
75	0x03	3
76	0xd9	-39
77	0x06	6
78	0x03	3
79	0xec	-20
80	0xf0	-16
81	0xd3	-45
82	0xdd	-35
83	0xe9	-23
84	0xbf	-65
85	0x05	5
86	0xd0	-48
87	0xf3	-13
88	0xf4	-12
89	0xee	-18
90	0xc9	-55
91	0xed	-19
92	0xad	-83
93	0xcc	-52
94	0x04	4
95	0x07	7
96	0x08	8
97	0xe2	-30
98	0xe7	-25
99	0x02	2
100	0x15	21
101	0xfc	-4
102	0x0a	10
103	0xfe	-2
104	0xf5	-11
105	0xfe	-2
106	0xd6	-42
107	0xd4	-44
108	0x06	6
109	0x03	3
110	0xf0	-16
111	0x0f	15
112	0xfb	-5
113	0xe6	-26
114	0x0a	10
115	0xa4	-92
116	0xf1	-15
117	0x31	49
118	0x4d	77
119	0x07	7
120	0x06	6
121	0xe7	-25
122	0x18	24
123	0x32	50
124	0xeb	-21
125	0x03	3
126	0x49	73
127	0x22	34
128	0xe9	-23
129	0xfa	-6
130	0xf6	-10
131	0x08	8
132	0xe1	-31
133	0xdd	-35
134	0x19	25
135	0xef	-17
136	0x16	22
137	0x06	6
138	0x37	55
139	0x23	35
140	0xe9	-23
141	0x10	16
142	0xd8	-40
143	0xe0	-32
144	0x0d	13
145	0x0a	10
146	0x1e	30
147	0xf0	-16
148	0xeb	-21
149	0xe6	-26
150	0x34	52
151	0xf8	-8
152	0x16	22
153	0x00	0
154	0xf9	-7
155	0x2c	44
156	0xde	-34
157	0x09	9
158	0x13	19
159	0xdc	-36
160	0x11	17
161	0xfc	-4
162	0xfb	-5
163	0x13	19
164	0xdf	-33
165	0x10	16
166	0x1f	31
167	0xe0	-32
168	0xf7	-9
169	0x2f	47
170	0x1f	31
171	0x04	4
172	0xd5	-43
173	0xf3	-13
174	0xe7	-25
175	0xea	-22
176	0x19	25
177	0x05	5
178	0xee	-18
179	0xf7	-9
180	0x18	24
181	0x1f	31
182	0x13	19
183	0xe4	-28
184	0xc3	-61
185	0xf5	-11
186	0x01	1
187	0xfd	-3
188	0xfd	-3
189	0x01	1
190	0x12	18
191	0x39	57
192	0xf4	-12
193	0xfd	-3
194	0x0c	12
195	0xbf	-65
196	0x0f	15
197	0x07	7
198	0x1e	30
199	0xf0	-16
200	0x81	-127
201	0x03	3
202	0x0a	10
203	0xe7	-25
204	0xd4	-44
205	0x09	9
206	0xf9	-7
207	0x0b	11
208	0x01	1
209	0x03	3
210	0xdf	-33
211	0xcd	-51
212	0x1e	30
213	0xfb	-5
214	0x07	7
215	0xcc	-52
216	0x11	17
217	0x0a	10
218	0xfc	-4
219	0x14	20
220	0x14	20
221	0xf9	-7
222	0x21	33
223	0xd3	-45
224	0x10	16
225	0xf9	-7
226	0xdc	-36
227	0xef	-17
228	0xeb	-21
229	0xf9	-7
230	0xef	-17
231	0xc9	-55
232	0xf8	-8
233	0xfd	-3
234	0x0d	13
235	0x0a	10
236	0xf3	-13
237	0x0d	13
238	0x2b	43
239	0x0b	11
240	0xf6	-10
241	0xf7	-9
242	0x0a	10
243	0xcd	-51
244	0xec	-20
245	0x04	4
246	0xf2	-14
247	0xe7	-25
248	0x0e	14
249	0x08	8
250	0x11	17
251	0xff	-1
252	0x03	3
253	0x28	40
254	0x0f	15
255	0x0d	13

model/depthwise_conv2d_6/depthwise i1 [1, 3, 3, 224]
0	0xf1	-15
1	0xec	-20
2	0x07	7
3	0x38	56
4	0x1d	29
5	0xea	-22
6	0xdf	-33
7	0xfe	-2
8	0x2d	45
9	0x12	18
10	0x13	19
11	0x2b	43
12	0x04	4
13	0x53	83
14	0xb9	-71
15	0x03	3
16	0x4b	75
17	0x11	17
18	0xbf	-65
19	0x0e	14
20	0x0f	15
21	0xd0	-48
22	0xfa	-6
23	0xcb	-53
24	0x12	18
25	0x55	85
26	0xed	-19
27	0x1c	28
28	0xd9	-39
29	0xf2	-14
30	0x13	19
31	0xed	-19
32	0xe3	-29
33	0xfd	-3
34	0xf6	-10
35	0xdf	-33
36	0x2b	43
37	0xad	-83
38	0xef	-17
39	0x52	82
40	0x83	-125
41	0xd4	-44
42	0xe7	-25
43	0x14	20
44	0xe2	-30
45	0xfa	-6
46	0x0a	10
47	0xe3	-29
48	0x3b	59
49	0x04	4
50	0x5b	91
51	0xe4	-28
52	0xde	-34
53	0x2a	42
54	0x10	16
55	0x26	38
56	0xfa	-6
57	0x62	98
58	0x9b	-101
59	0x3e	62
60	0x32	50
61	0x09	9
62	0xd4	-44
63	0xb9	-71
64	0xd9	-39
65	0xe2	-30
66	0x21	33
67	0x0c	12
68	0x00	0
69	0xd3	-45
70	0xcb	-53
71	0xf6	-10
72	0xf6	-10
73	0xeb	-21
74	0x26	38
75	0xff	-1
76	0xcb	-53
77	0xe6	-26
78	0x4a	74
79	0xf3	-13
80	0xed	-19
81	0x02	2
82	0x31	49
83	0xa2	-94
84	0x14	20
85	0xe7	-25
86	0x35	53
87	0xcc	-52
88	0xac	-84
89	0xc4	-60
90	0x34	52
91	0x37	55
92	0x1a	26
93	0x2c	44
94	0xf6	-10
95	0xdf	-33
96	0x25	37
97	0x7e	126
98	0x14	20
99	0x0d	13
100	0x2f	47
101	0xdf	-33
102	0xfe	-2
103	0x26	38
104	0xbb	-69
105	0x34	52
106	0x29	41
107	0xec	-20
108	0x18	24
109	0xd5	-43
110	0xe7	-25
111	0xc8	-56
112	0xe1	-31
113	0xe7	-25
114	0x34	52
115	0xe9	-23
116	0xbe	-66
117	0xe7	-25
118	0xbf	-65
119	0x26	38
120	0xfd	-3
121	0x3e	62
122	0x03	3
123	0xe5	-27
124	0xcd	-51
125	0x2d	45
126	0xd8	-40
127	0xf7	-9
128	0xe0	-32
129	0xcd	-51
130	0x0a	10
131	0xd9	-39
132	0x03	3
133	0xcd	-51
134	0xd7	-41
135	0x44	68
136	0xfc	-4
137	0xce	-50
138	0x26	38
139	0x15	21
140	0x31	49
141	0x13	19
142	0xfe	-2
143	0x16	22
144	0xe2	-30
145	0x01	1
146	0x25	37
147	0x3d	61
148	0x3a	58
149	0xf8	-8
150	0xef	-17
151	0xc9	-55
152	0x1b	27
153	0x27	39
154	0xe6	-26
155	0xda	-38
156	0x15	21
157	0x3c	60
158	0x16	22
159	0xf9	-7
160	0xc0	-64
161	0xe5	-27
162	0xd3	-45
163	0x22	34
164	0xf1	-15
165	0x2e	46
166	0x00	0
167	0x3d	61
168	0xe9	-23
169	0x06	6
170	0xf7	-9
171	0xec	-20
172	0x1c	28
173	0xad	-83
174	0xc0	-64
175	0x11	17
176	0x01	1
177	0xdc	-36
178	0x1a	26
179	0xdf	-33
180	0x02	2
181	0x07	7
182	0xcb	-53
183	0x23	35
184	0xef	-17
185	0xd4	-44
186	0xfe	-2
187	0xff	-1
188	0x19	25
189	0x40	64
190	0xfd	-3
191	0x0f	15
192	0x81	-127
193	0xed	-19
194	0xce	-50
195	0xf1	-15
196	0xf7	-9
197	0xaa	-86
198	0xeb	-21
199	0xff	-1
200	0x51	81
201	0x43	67
202	0x59	89
203	0xff	-1
204	0x5d	93
205	0xaf	-81
206	0x81	-127
207	0x69	105
208	0xb2	-78
209	0xce	-50
210	0x03	3
211	0xf2	-14
212	0xd5	-43
213	0x2a	42
214	0xfc	-4
215	0x03	3
216	0x7f	127
217	0xcd	-51
218	0x04	4
219	0xe0	-32
220	0xf3	-13
221	0xff	-1
222	0x06	6
223	0xee	-18
224	0xb0	-80
225	0xee	-18
226	0x17	23
227	0x4f	79
228	0x29	41
229	0x06	6
230	0xcf	-49
231	0xf0	-16
232	0xfc	-4
233	0x5a	90
234	0x1f	31
235	0xfc	-4
236	0x35	53
237	0xc0	-64
238	0xfb	-5
239	0x08	8
240	0x7f	127
241	0xde	-34
242	0xed	-19
243	0xfb	-5
244	0xb8	-72
245	0x39	57
246	0x4b	75
247	0x47	71
248	0xa9	-87
249	0x1f	31
250	0x17	23
251	0x7b	123
252	0xc4	-60
253	0x39	57
254	0x0e	14
255	0xce	-50
