03/code/output_onnx/exp/model.onnx (onnx, 151191 bytes, 65 tensors)

labels f4 [3, 1, 3, 3]
-0.046927806 -0.094475515 0.25724623 0.042577032 -0.25638002 -0.36534914 0.10905276 0.03094838
0.16482854 0.25531378 -0.21360306 0.13043155 -0.25023788 -0.34717596 0.25201362 -0.06857341
-0.026542896 0.10010046 0.18794833 0.030192085 -0.052632134 0.34704107 0.015194615 -0.08157081
0.21489769 -0.23043577 0.31781954
00000000: 5f37 40bd 617c c1bd c7b5 833e 4165 2e3d
00000010: 3e44 83be 0b0f bbbe 0e57 df3d 7587 fd3c
00000020: d0c8 283e 7db8 823e c3ba 5abe d98f 053e
00000030: 2e1f 80be 0cc1 b1be ee07 813e 3770 8cbd
00000040: 7d70 d9bc 7801 cd3d 8775 403e 6455 f73c
00000050: cb94 57bd 5eaf b13e d6f2 783c 990e a7bd
00000060: 240e 5c3e 5bf7 6bbe 3eb9 a23e

classifier._layers.3._layers.7.se_conv.weight f4 [4, 24, 1, 1]
0.00014840116 -0.23668529 0.33324322 0.22951657 -0.5435076 -0.2083849 -0.09674365 0.23442912
-0.34367606 0.009212529 -0.15350874 0.48571983 0.17795736 0.37043613 0.15257996 -0.1801363
-0.025121119 -0.18209805 0.14979862 -0.08565921 0.101966195 -0.01112834 -0.042761784 -0.40730515
-0.30090433 -0.051329944 -0.26112428 0.09515673 0.060464088 0.07689172 0.22237268 -0.10737409
0.45977315 -0.15767398 0.17359896 -0.28492397 -0.07044062 -0.61426073 -0.14171591 0.22175942
0.051867753 0.22218868 -0.114591405 0.2254791 0.016129665 -0.39326575 -0.31948844 0.5273491
0.3203269 0.49213368 0.09495388 -0.2964795 0.22785018 0.002348566 0.080593966 -0.047321253
0.354286 0.15862261 0.19857363 -0.39076912 -0.11844681 0.27269498 0.049438912 0.46001858
0.4329713 0.14010537 0.003771023 0.5084688 0.10868795 0.029525358 0.3252684 0.16117091
-0.22651863 -0.09602821 -0.314026 -0.17677133 0.4536054 -0.24927 -0.044901516 -0.3371372
0.24612531 -0.22495396 0.043003667 -0.32952446 0.067841694 -0.24889724 -0.32505944 0.46926698
-0.37399608 -0.012028258 -0.013637846 0.21362962 0.10961961 -0.33787537 -0.2912404 -0.07185184
00000000: 229c 1b39 a15d 72be db9e aa3e 6406 6b3e
00000010: 5023 0bbf da62 55be 8921 c6bd 300e 703e
00000020: 4ff6 afbe 26f0 163c 6531 1dbe 45b0 f83e
00000030: 743a 363e cea9 bd3e ec3d 1c3e a675 38be
00000040: ceca cdbc e977 3abe cf64 193e 196e afbd
00000050: a7d3 d03d a453 36bc fb26 2fbd 4d8a d0be
00000060: 2210 9abe 593f 52bd 15b2 85be 88e1 c23d
00000070: 31a9 773d 6879 9d3d aab5 633e f2e6 dbbd
00000080: 6367 eb3e 4a75 21be edc3 313e 8ee1 91be
00000090: 2c43 90bd 3140 1dbf fa1d 11be e714 633e
000000a0: 4873 543d 6e85 633e e6ae eabd fee3 663e
000000b0: 5c22 843c 215a c9be fd93 a3be 5a00 073f
000000c0: e301 a43e f2f8 fb3e 2e77 c23d 29cc 97be
000000d0: 8f51 693e 66ea 193b 730e a53d eed3 41bd
000000e0: f964 b53e f76d 223e e356 4b3e e412 c8be
000000f0: 3e94 f2bd ad9e 8b3e 7580 4a3d 8e87 eb3e
00000100: 6aae dd3e c877 0f3e 4423 773b 032b 023f
00000110: ca97 de3d 2adf f13c 9489 a63e fd09 253e
00000120: 80f4 67be 70aa c4bd 04c8 a0be 8b03 35be
00000130: f83e e83e a340 7fbe a7ea 37bd 3f9d acbe
00000140: 4608 7c3e 555a 66be 9d24 303d 6eb7 a8be
00000150: 96f0 8a3d ebde 7ebe 316e a6be c343 f03e
00000160: 6a7c bfbe 2c12 45bc 4671 5fbc b9c1 5a3e
00000170: 3f80 e03d 00fe acbe 761d 95be 0f27 93bd

classifier._layers.3._layers.7.se_conv2.weight f4 [24, 4, 1, 1]
-0.66769165 1.1245563 0.30855346 0.6468895 0.6092265 -0.2250735 -0.42157876 0.30762902
-0.3596392 0.34929976 -0.20660666 0.2803352 -0.60180956 0.37886757 -0.22707605 -0.37819877
0.0679781 -0.13577855 -0.2572548 0.21193887 -0.09937003 -0.08529177 -0.27438152 -0.44059163
-0.119063295 0.30730727 -0.5020408 0.4599317 0.50810117 -0.58423 -0.49385053 -0.1309523
-0.12434374 0.7055771 -0.22775455 -0.24810205 0.13102901 0.3598582 -0.50453746 -0.12807754
-0.16452892 0.48708847 0.08198385 0.59458137 -0.5514661 0.6996067 -0.2856188 0.7817714
0.0015877979 -0.12669435 -0.61016434 -0.2455469 -0.38171127 0.36943263 0.42584267 0.54905427
0.096036874 -0.20642623 -0.30106995 0.55942804 -0.398291 0.3080725 -0.32877424 0.52302563
-0.00044697034 -0.09425722 -0.4547394 0.41038722 0.22566555 -0.27809 -0.109128654 -0.462026
0.5105207 0.30074275 -0.09500731 -0.0039385995 -0.40673968 -0.09008138 0.6492619 0.048588846
0.3682974 0.14057323 -0.30123714 -0.4330194 -0.6849639 -0.21483177 0.13370296 -0.53038406
0.33427855 -0.37664935 0.13426624 -0.3500865 0.21378846 -0.56533635 0.08304364 0.2712943
00000000: d7ed 2abf 76f1 8f3f b8fa 9d3e 8d9a 253f
00000010: 45f6 1b3f ab79 66be 2cd9 d7be 8d81 9d3e
00000020: a122 b8be 6bd7 b23e b290 53be 1888 8f3e
00000030: 3110 1abf eefa c13e a086 68be 45a3 c1be
00000040: 1a38 8b3d 8809 0bbe e7b6 83be 8106 593e
00000050: 8482 cbbd 74ad aebd bc7b 8cbe 3a95 e1be
00000060: 75d7 f3bd 6157 9d3e bf85 00bf 2b7c eb3e
00000070: eb12 023f 1990 15bf fad9 fcbe 5c18 06be
00000080: eea7 febd b3a0 343f 7d38 69be 770e 7ebe
00000090: 782c 063e 563f b83e 5e29 01bf c226 03be
000000a0: 457a 28be a963 f93e 26e7 a73d 7c36 183f
000000b0: e22c 0dbf 6d19 333f a13c 92be 2c22 483f
000000c0: a81d d03a 2abc 01be bb33 1cbf a670 7bbe
000000d0: a96f c3be 4626 bd3e 0d08 da3e d28e 0c3f
000000e0: fbae c43d 6661 53be d725 9abe ad36 0f3f
000000f0: ccec cbbe aebb 9d3e 1955 a8be 02e5 053f
00000100: 5857 eab9 ee09 c1bd 9ad3 e8be 461e d23e
00000110: df14 673e d061 8ebe d87e dfbd ac8e ecbe
00000120: 7cb1 023f f4fa 993e 3193 c2bd 5e0f 81bb
00000130: 2f40 d0be 967c b8bd 0736 263f 1905 473d
00000140: 7a91 bc3e 6ef2 0f3e c13b 9abe b8b4 ddbe
00000150: cb59 2fbf dcfc 5bbe 6ee9 083e 40c7 07bf
00000160: 8f26 ab3e 2fd8 c0be 177d 093e 8a3e b3be
00000170: 5deb 5a3e e2b9 10bf c912 aa3d 16e7 8a3e

classifier._layers.4._layers.7.se_conv.weight f4 [4, 24, 1, 1]
0.012434641 -0.10373938 0.21435562 -0.09093613 -0.23557001 0.2106596 -0.1505153 -0.329701
0.035452265 0.30691427 0.13118488 0.010515877 0.4571299 -0.006129835 -0.28616503 0.4217127
0.2702164 0.11714517 -0.20571071 0.16080424 -0.04235004 0.453484 0.08379362 0.09117201
-0.02520742 -0.035093702 0.050530832 -0.0046278355 0.0840607 0.0073112003 -0.31625354 0.13122523
0.050202403 0.065502584 0.16505139 0.07852261 0.3932015 -0.1741189 0.00872995 0.3385939
0.47351918 -0.05753473 -0.28352654 0.005079703 -0.2025741 0.009931914 -0.031735193 0.34712556
0.3931003 0.092827946 0.15436181 0.14346875 0.10871312 0.29935235 -0.035035633 -0.075970404
0.21086845 0.23973227 0.15783393 -0.013270623 0.4902453 -0.16304791 -0.05625122 0.11992884
0.34073335 0.037478488 0.25572586 0.15600741 0.04084743 0.25844553 -0.036304798 0.057058774
0.1288164 0.30294183 -0.16761823 -0.13227409 0.19153018 -0.066811286 -0.17843652 0.13222916
0.19233406 0.12937011 0.10377674 0.040859196 0.56256217 -0.07889499 0.40416047 0.27201116
0.17548284 -0.04274217 -0.21032114 0.2219675 0.1376848 0.021906111 -0.23346117 0.2579644
00000000: aaba 4b3c 5075 d4bd 0a80 5b3e b93c babd
00000010: 4439 71be 26b7 573e af20 1abe 92ce a8be
00000020: 6536 113d de23 9d3e 5455 063e c94a 2c3c
00000030: ee0c ea3e c8dc c8bb 3984 92be baea d73e
00000040: ce59 8a3e cfe9 ef3d d4a5 52be dea9 243e
00000050: 3c77 2dbd 0e2f e83e fd9b ab3d 64b8 ba3d
00000060: cb7f cebc 6abe 0fbd 6bf9 4e3d 19a5 97bb
00000070: 0428 ac3d cb92 ef3b fceb a1be e85f 063e
00000080: 09a1 4d3d 3826 863d 3b03 293e 76d0 a03d
00000090: b551 c93e 3a4c 32be 1008 0f3c 2e5c ad3e
000000a0: 1b71 f23e 89a9 6bbd 642a 91be a373 a63b
000000b0: 966f 4fbe 77b9 223c c3fc 01bd 71ba b13e
000000c0: 7144 c93e 941c be3d 0611 1e3e 79e9 123e
000000d0: fca4 de3d b644 993e 8681 0fbd 5f96 9bbd
000000e0: e6ed 573e 607c 753e 389f 213e 076d 59bc
000000f0: 6f01 fb3e 08f6 26be ae67 66bd 409d f53d
00000100: 9a74 ae3e 0b83 193d 80ee 823e 68c0 1f3e
00000110: a24f 273d f952 843e 57b4 14bd 76b6 693d
00000120: 72e8 033e 311b 9b3e 1da4 2bbe dc72 07be
00000130: 7d20 443e 5bd4 88bd 10b8 36be 1567 073e
00000140: 38f3 443e 9979 043e e688 d43d f95b 273d
00000150: 1304 103f b293 a1bd 1fee ce3e 0c45 8b3e
00000160: c6b1 333e 6a12 2fbd 6d5e 57be 734b 633e
00000170: 3ffd 0c3e 7274 b33c 7210 6fbe e913 843e

classifier._layers.4._layers.7.se_conv2.weight f4 [24, 4, 1, 1]
0.08825852 0.21089506 -0.16273025 0.44023418 0.2753652 0.45057836 0.3063143 0.6307494
0.062274426 -0.08795084 0.21982032 -0.26371637 -0.07182948 -0.24357046 0.20133318 -0.36176208
-0.27216783 -0.43650696 0.030305654 0.03412467 0.27094173 -0.46963474 -0.22527725 -0.53293836
0.26012704 -0.049712323 -0.16639583 0.061718546 0.55084354 -0.118832245 0.2377775 -0.24112044
0.859083 0.07668719 -0.019888254 0.115281664 -0.30230257 0.03205287 -0.3493692 -0.47272715
-0.7151719 -0.6906476 -0.6600679 -0.12035722 0.23032126 -0.6528376 -0.41620994 -0.457125
-0.5029687 -0.55383474 -0.13560256 0.40830064 0.27791366 -0.25248152 0.32888937 -0.58067626
-0.11360938 0.34129593 0.08319883 0.07869874 0.59651095 -0.3603033 0.21559244 0.28295675
-0.32749423 -0.31071848 -0.25222966 -0.5185906 0.63274235 0.3656557 0.36604315 0.34597525
0.4915945 0.7084798 -0.4229823 0.21256244 -0.20407242 0.10050379 0.27084622 0.45437267
-0.44242522 0.017998548 -0.40680507 -0.34297556 -0.1193755 0.25763085 -0.34042063 0.18320738
0.23466507 0.31352818 -0.13282348 0.25071988 0.30248117 0.29065558 0.5974484 -0.123178236
00000000: e2c0 b43d e0f4 573e c2a2 26be 6066 e13e
00000010: abfc 8c3e 35b2 e63e 3ad5 9c3e cb78 213f
00000020: 7813 7f3d 921f b4bd 9418 613e d505 87be
00000030: 561b 93bd 896a 79be 492a 4e3e e138 b9be
00000040: 9559 8bbe d77d dfbe 9043 f83c 4fc6 0b3d
00000050: e0b8 8a3e f773 f0be 14af 66be a66e 08bf
00000060: 5f2f 853e 269f 4bbd ab63 2abe 96cc 7c3d
00000070: 1504 0d3f 525e f3bd f27b 733e 47e8 76be
00000080: ddec 5b3f 2c0e 9d3d b1ec a2bc cb18 ec3d
00000090: 67c7 9abe df49 033d 85e0 b2be 4b09 f2be
000000a0: 8115 37bf 48ce 30bf 36fa 28bf d97d f6bd
000000b0: 56d9 6b3e 5d20 27bf 7819 d5be 4a0c eabe
000000c0: 8fc2 00bf 1dc8 0dbf 66db 0abe c80c d13e
000000d0: b34a 8e3e 4245 81be 3064 a83e 33a7 14bf
000000e0: 09ac e8bd 57be ae3e 2664 aa3d ce2c a13d
000000f0: f1b4 183f ad79 b8be 44c4 5c3e b5df 903e
00000100: 53ad a7be 7e16 9fbe 3f24 81be 5bc2 04bf
00000110: 67fb 213f 3937 bb3e 026a bb3e ab23 b13e
00000120: 46b2 fb3e ef5e 353f 2391 d8be f8a9 593e
00000130: 5cf8 50be eed4 cd3d 5bac 8a3e 89a3 e83e
00000140: 8f85 e2be b171 933c c148 d0be 7e9a afbe
00000150: 247b f4bd 31e8 833e 9d4b aebe b79a 3b3e
00000160: 0a4c 703e c486 a03e e102 08be 5b5e 803e
00000170: d0de 9a3e cfd0 943e 61f2 183f df44 fcbd

classifier._layers.5._layers.7.se_conv.weight f4 [4, 24, 1, 1]
0.0001047126 0.18022446 -0.028979683 0.1340319 -0.105883084 0.08036615 0.087439135 0.1658783
-0.02712477 0.060575083 0.15509541 0.23087841 -0.57820404 -0.3041841 0.19396731 -0.17055304
-0.022920605 0.00013082253 0.064598404 0.21009973 -0.5289028 -0.12677611 -0.060790397 0.37826863
-0.09929123 -0.30340686 0.28297627 0.047518298 0.2036518 -0.0022754807 0.42577565 0.31804997
-0.57226765 0.011711249 0.4535181 -0.16456643 -0.09594889 -0.33653608 -0.17386211 0.32081816
-0.15141968 0.2624339 0.11385463 -0.054015975 -0.32176292 0.116146 0.0112204105 0.010164426
0.11366304 -0.058635883 -0.020673461 -0.13769884 0.2614424 -0.16939263 -0.033341132 0.1284498
-0.07547522 0.17280935 -0.030051414 0.28884494 0.3386634 0.069344394 0.10204174 0.09463823
0.34693897 0.27047396 0.2784122 -0.22077125 0.048155732 0.24023364 0.13779283 0.2348781
0.21530136 -0.28822023 0.17732073 -0.24437998 0.026421139 -0.10264248 -0.101215445 0.13875958
-0.008502656 0.04483983 -0.08734785 0.33695313 -0.10612283 0.35538363 0.300792 -0.252189
0.19351052 0.28730506 0.53613156 -0.0960508 0.07819966 0.1748847 0.025647813 0.41318238
00000000: 2699 db38 c38c 383e cd66 edbc a93f 093e
00000010: 3bd9 d8bd 0297 a43d 4a13 b33d 00dc 293e
00000020: c434 debc 941d 783d 55d1 1e3e 646b 6c3e
00000030: 2e05 14bf 05be 9bbe 5e9f 463e 75a5 2ebe
00000040: fec3 bbbc 682d 0939 2b4c 843d 6224 573e
00000050: 2d66 07bf 99d1 01be 5aff 78bd 6dac c13e
00000060: 3359 cbbd 2558 9bbe 44e2 903e 8ca2 423d
00000070: 198a 503e 3b20 15bb 44ff d93e 72d7 a23e
00000080: 2280 12bf 8ae0 3f3c 8633 e83e 1a84 28be
00000090: da80 c4bd 754e acbe e908 32be 4742 a43e
000000a0: c30d 1bbe bc5d 863e 9e2c e93d db3f 5dbd
000000b0: 1cbe a4be f4dd ed3d d0d5 373c b188 263c
000000c0: 2bc8 e83d 2e2c 70bd 645b a9bc ed00 0dbe
000000d0: c7db 853e 4375 2dbe b690 08bd 5888 033e
000000e0: c192 9abd eff4 303e 622e f6bc 7ce3 933e
000000f0: 4a65 ad3e 6f04 8e3d 43fb d03d b0d1 c13d
00000100: fca1 b13e 907b 8a3e 0b8c 8e3e dc11 62be
00000110: f23e 453d cfff 753e 9019 0d3e e283 703e
00000120: f677 5c3e 9a91 93be 9193 353e bf3e 7abe
00000130: 2571 d83c 3836 d2bd 0b4a cfbd fe16 0e3e
00000140: b94e 0bbc f8a9 373d 6ee3 b2bd 1f85 ac3e
00000150: ed56 d9bd d8f4 b53e 6901 9a3e eb1e 81be
00000160: 9f27 463e a619 933e eb3f 093f 48b6 c4bd
00000170: 2527 a03d fa14 333e 5d1b d23c a48c d33e

classifier._layers.5._layers.7.se_conv2.weight f4 [24, 4, 1, 1]
0.3518387 -0.43990058 -0.75660497 -0.2942027 0.39677033 0.608101 -0.25085017 -0.3266812
0.45677397 0.029065004 0.15738797 0.30094835 -0.11286776 0.45981508 0.030769946 -0.15862551
0.050147805 -0.2538694 0.27179602 -0.29736024 0.12910436 -0.47451168 0.2144405 0.093855284
0.029169196 0.27964857 0.36087322 0.14897296 -0.21069017 0.34224445 -0.019959973 -0.32415083
-0.43926692 0.36234418 -0.36058265 -0.6556897 0.18147378 -0.021855552 -0.66206145 -0.025350848
0.5604822 0.13238443 -0.10243895 0.016849086 0.39972326 0.23414755 0.3330011 -0.06975708
0.2670663 0.5706415 0.29387882 -0.2988232 -0.22487812 -0.29153103 -0.44419035 -0.8014193
0.07125328 0.68033385 -0.50718933 0.13183054 -0.3682879 0.19548394 -0.22224657 0.16782299
0.6239696 1.1609745 -0.3273346 -0.045002755 0.11757406 -0.13225025 -0.09521517 -0.7166823
-0.7829821 0.21549508 -0.14598289 -0.4588489 -0.24575014 0.16005951 0.38274574 0.4580383
0.44248098 0.13328673 -0.2397373 -0.02939196 0.028702307 -0.06674141 -0.31768927 0.028744733
-0.399614 -0.05092587 -0.5670409 -0.3547821 -0.42429835 0.24137123 -0.17001101 0.021165848
00000000: 3424 b43e a63a e1be ddb0 41bf bca1 96be
00000010: 7b25 cb3e 82ac 1b3f 6f6f 80be c242 a7be
00000020: 47de e93e bb19 ee3c 502a 213e e715 9a3e
00000030: 3627 e7bd e26c eb3e 4111 fc3c ba6e 22be
00000040: c967 4d3d 2cfb 81be d928 8b3e 9a3f 98be
00000050: ef33 043e 32f3 f2be 4a96 5b3e 3337 c03d
00000060: 3df4 ee3c 192e 8f3e 60c4 b83e 5e8c 183e
00000070: 2abf 57be aa3a af3e 1983 a3bc 19f7 a5be
00000080: 98e7 e0be 2d85 b93e 4a9e b8be 48db 27bf
00000090: 43d4 393e 6a0a b3bc dc7c 29bf 95ac cfbc
000000a0: c37b 0f3f c98f 073e 83cb d1bd 1807 8a3c
000000b0: 87a8 cc3e 60c4 6f3e 1f7f aa3e cddc 8ebd
000000c0: eabc 883e 9015 123f 4977 963e 5bff 98be
000000d0: 7346 66be 8e43 95be eb6c e3be d129 4dbf
000000e0: 3ded 913d 5c2a 2e3f 29d7 01bf 96fe 063e
000000f0: 3b90 bcbe f12c 483e 9b94 63be cad9 2b3e
00000100: 79bc 1f3f d09a 943f 6798 a7be cf54 38bd
00000110: abca f03d 9c6c 07be 2c00 c3bd 7e78 37bf
00000120: 8471 48bf beaa 5c3e 8a7c 15be 3eee eabe
00000130: eda5 7bbe a4e6 233e 40f7 c33e ff83 ea3e
00000140: de8c e23e 517c 083e b27d 75be 68c7 f0bc
00000150: 1a21 eb3c b8af 88bd 2ba8 a2be 137a eb3c
00000160: 359a ccbe a597 50bd 9829 11bf 00a6 b5be
00000170: a23d d9be 052a 773e 5e17 2ebe 0064 ad3c

classifier._layers.6._layers.7.se_conv.weight f4 [9, 54, 1, 1]
-0.32393393 -0.23888522 -0.048177905 0.1626203 0.35948357 0.13551202 -0.2405502 -0.08893064
-0.086359054 -0.3254146 0.19705178 -0.0944052 -0.30999744 0.15640171 0.33744237 -0.3516053
0.343793 0.06317869 -0.083046876 -0.013752096 0.005292371 0.36377808 -0.5764502 0.04792221
-0.17988248 -0.3306113 0.60238576 -0.21870826 0.20824768 -0.11779545 -0.22240081 -0.0886
0.3159477 -0.00940034 0.034196336 0.13520144 0.13421807 -0.16373244 -0.13697502 0.16362616
-0.10864443 0.04403216 -0.0730894 0.20275806 -0.08138105 -0.11192094 -0.09175057 -0.07306235
0.04846444 0.026539596 -0.124327354 -0.46436384 0.02141471 0.17260303 0.16852671 0.32629082
-0.03451778 0.09616532 0.080242924 -0.42601994 0.12590073 0.18630955 0.2602811 0.22225007
-0.3384125 0.42295206 0.14765213 0.43693972 0.046528846 0.34467676 -0.04860038 0.25901476
0.38780874 0.1507265 -0.03652166 0.0074750865 -0.03233894 -0.19612241 0.054967646 0.02340026
0.5872439 0.27856225 0.038946252 0.38016286 0.39730352 -0.11885832 0.26786894 0.10965879
0.0959078 0.1036621 -0.07544709 0.08576308 -0.2783153 -0.0958193 -0.48521775 -0.34966514
0.2745891 -0.045618907 0.0068192184 0.3147414 0.11542933 0.3155811 0.24647897 -0.045058686
0.28398612 0.07563791 0.15100501 0.13232717 0.009262438 0.13087124 0.037588883 0.13230754
0.0997962 -0.1815185 -0.15456627 0.17240487 0.047483254 0.26999432 0.103503026 0.084341615
0.004565355 0.13496026 0.08938529 0.4171084 -0.19966336 -0.040093303 0.19274268 0.060960826
0.046313934 0.04309744 0.18948789 -0.17148878 -0.15589043 -0.23130108 0.3147091 0.43885127
0.06967942 0.29604366 0.14268741 -0.15783383 0.29332432 -0.10907592 0.07346333 0.15347216
-0.20790747 0.02245256 -0.31402403 -0.20059109 -0.2725822 -0.07773374 0.030987566 0.15668298
0.0036583566 -0.057824336 -0.13491936 0.22852075 0.2560598 -0.07134911 0.31125334 -0.020805586
-0.08291933 -0.062941276 -0.026566349 0.17013909 -0.03789374 -0.08937431 0.12871523 -0.087983645
-0.010909952 0.27624503 -0.1995326 0.116573006 0.037029054 0.039660357 0.15596068 0.13108134
0.10459707 0.06030238 -0.102376804 0.07344114 0.16791494 -0.0455461 0.07829127 0.098598406
0.34703323 0.17351738 0.012195975 0.21098177 -0.35668877 -0.047135472 -0.11448791 -0.042585954
-0.039389603 -0.058120742 -0.056376692 0.10142365 0.11292537 0.018333508 0.11846769 0.115255594
0.30334666 0.12997513 -0.026967598 0.10544819 0.16604115 -0.03679054 -0.18307595 0.14083698
0.34310296 -0.17550415 -0.13023673 0.013752549 -0.22386695 0.33110252 0.29960275 0.023384763
0.40987003 0.29875544 -0.07054903 -0.09743757 -0.03634488 -0.2986978 -0.07654919 0.1085318
0.27809346 0.33416542 -0.08648432 0.06438955 -0.0051056985 -0.031633902 -0.3669461 0.077231966
-0.23910235 0.08134931 0.22426522 -0.019884966 -0.0007726833 0.03888306 0.17892498 0.040206354
0.17131507 -0.1617831 0.11891333 0.2333529 -0.16716766 0.18765266 0.16789794 0.1081405
-0.12104129 -0.08014564 0.049360353 -0.1773536 -0.15080398 -0.15002076 -0.3667604 -0.26328483
00000000: abda a5be 549e 74be 3256 45bd f085 263e
00000010: 3b0e b83e aac3 0a3e cb52 76be 4421 b6bd
00000020: 04dd b0bd be9c a6be f1c7 493e 8357 c1bd
00000030: fcb7 9ebe c527 203e 3fc5 ac3e 9c05 b4be
00000040: a305 b03e d463 813d 7b14 aabd 7950 61bc
00000050: a06b ad3b 1f41 ba3e 3e92 13bf 144a 443d
00000060: 1d33 38be e245 a9be f435 1a3f 0ff5 5fbe
00000070: e13e 553e be3e f1bd 0abd 63be eb73 b5bd
00000080: e6c3 a13e e203 1abc 7511 0c3d 3f72 0a3e
00000090: 7670 093e 7aa9 27be 2e43 0cbe 9e8d 273e
000000a0: f980 debd 115b 343d e5af 95bd cf9f 4f3e
000000b0: 1cab a6bd ce36 e5bd b9e7 bbbd b7a1 95bd
000000c0: a682 463d 9169 d93c 579f febd 19c1 edbe
000000d0: e76d af3c d9be 303e 4492 2c3e 970f a73e
000000e0: 8462 0dbd 53f2 c43d 6756 a43d 491f dabe
000000f0: 1fec 003e eec7 3e3e 9043 853e 8695 633e
00000100: 6744 adbe 2c8d d83e 1f32 173e 90b6 df3e
00000110: 0895 3e3d 7979 b03e 3111 47bd 959d 843e
00000120: de8e c63e 0c58 1a3e bc97 15bd 92f1 f43b
00000130: d675 04bd 50d4 48be c125 613d e7b1 bf3c
00000140: 9e55 163f b69f 8e3e 1b86 1f3d b5a4 c23e
00000150: 5e6b cb3e fe6b f3bd 1e26 893e ca94 e03d
00000160: 4f6b c43d cc4c d43d 0184 9abd 8ea4 af3d
00000170: 587f 8ebe e93c c4bd 766e f8be 4f07 b3be
00000180: f196 8c3e e4da 3abd c073 df3b c925 a13e
00000190: 3666 ec3d d993 a13e fc64 7c3e 758f 38bd
000001a0: a166 913e 0ce8 9a3d 0fa1 1a3e c680 073e
000001b0: 7bc1 173c 1c03 063e cdf6 193d a17b 073e
000001c0: f361 cc3d fcdf 39be 9f46 1ebe e78a 303e
000001d0: cd7d 423d b23c 8a3e 65f9 d33d 4cbb ac3d
000001e0: f998 953b 0633 0a3e a30f b73d 3b8f d53e
000001f0: 8d74 4cbe e038 24bd 565e 453e 0fb2 793d
00000200: aeb3 3d3d f186 303d 1d09 423e c19a 2fbe
00000210: bea1 1fbe 31da 6cbe 8d21 a13e 1db1 e03e
00000220: 15b4 8e3d 0993 973e a61c 123e 319f 21be
00000230: 9b2e 963e 3263 dfbd f173 963d ce27 1d3e
00000240: b2e5 54be 6eee b73c c2c7 a0be c067 4dbe
00000250: e58f 8bbe de32 9fbd a3d9 fd3c 8171 203e
00000260: 0ac1 6f3b 36d9 6cbd 4d28 0abe 5801 6a3e
00000270: 451a 833e 7b1f 92bd 995c 9f3e 7a70 aabc
00000280: 9cd1 a9bd 5be7 80bd aca1 d9bc f138 2e3e
00000290: 7736 1bbd e109 b7bd edcd 033e c530 b4bd
000002a0: a8bf 32bc fd6f 8d3e 4652 4cbe d4bd ee3d
000002b0: c7ab 173d e672 223d 28b4 1f3e 303a 063e
000002c0: fd36 d63d a1ff 763d eeaa d1bd 4f68 963d
000002d0: e5f1 2b3e 8c8e 3abd 2c57 a03d f6ed c93d
000002e0: 57ae b13e 8aae 313e a0d1 473c 9b0b 583e
000002f0: e99f b6be 2011 41bd a378 eabd 9c6e 2ebd
00000300: fe56 21bd 0410 6ebd 3feb 66bd 34b7 cf3d
00000310: 6b45 e73d 2730 963c 309f f23d 200b ec3d
00000320: 4150 9b3e 3318 053e 27eb dcbc 38f5 d73d
00000330: b106 2a3e adb1 16bd 4378 3bbe 9237 103e
00000340: 31ab af3e 5cb7 33be c75c 05be 5f52 613c
00000350: 613d 65be 4586 a93e 8865 993e 6791 bf3c
00000360: 7cda d13e 79f6 983e 037c 90bd 598d c7bd
00000370: 5ede 14bd ebee 98be d2c5 9cbd ec45 de3d
00000380: 4462 8e3e bb17 ab3e b11e b1bd abde 833d
00000390: b44d a7bb 8d92 01bd 5ce0 bbbe cb2b 9e3d
000003a0: 3fd7 74be 789a a63d c8a5 653e cce5 a2bc
000003b0: e68d 4aba d843 1f3d 1c38 373e 6baf 243d
000003c0: 386d 2f3e 78aa 25be d588 f33d 10f4 6e3e
000003d0: 002e 2bbe 0528 403e 70ed 2b3e c478 dd3d
000003e0: 7fe4 f7bd 6623 a4bd 152e 4a3d 2f9c 35be
000003f0: 5c6c 1abe 0b9f 19be 05c8 bbbe 45cd 86be

classifier._layers.6._layers.7.se_conv2.weight f4 [54, 9, 1, 1]
-0.08873967 -0.41702783 -0.48318422 -0.050938983 -0.38914704 -0.2998839 0.50901085 0.49550414
0.38880235 0.073198736 -0.11318801 -0.44004163 0.13614877 0.23398043 -0.21566457 0.3736404
0.55735904 0.5322819 0.4008686 -0.041672178 0.41493368 0.10909151 -0.13162419 0.39065877
-0.43269047 -0.27368137 -0.4710264 -0.26159677 -0.26688713 -0.327077 -0.053390674 0.25853124
-0.10495028 -0.59621936 -0.05133379 0.27104405 -0.30903974 0.3750429 0.3231194 0.43947777
0.26386413 -0.40168026 -0.03741716 0.3590526 0.404897 0.24839431 -0.31007868 -0.34882084
0.180341 -0.31275374 -0.06754256 -0.16716386 -0.39141205 -0.026378367 -0.3745246 0.30272615
0.012967311 0.039535806 0.10440879 0.23296972 0.033971027 -0.31154692 0.45171294 0.16473258
-0.12254821 -0.27361777 -0.25185683 -0.38946137 -0.17624532 -0.123433754 -0.028397558 0.22498043
0.27423579 0.21345769 -0.34544238 0.017797012 0.0014426393 0.06883385 0.091646716 -0.3609938
0.3526735 0.49042583 -0.13131906 0.1001715 0.14349079 -0.08381602 0.3066891 0.0628277
0.2637323 0.41523072 -0.018679842 -0.0021899312 -0.23248954 -0.19995071 -0.38353464 0.4188026
-0.4385678 0.15128562 -0.22824214 -0.15166964 -0.00048431504 -0.22797185 -0.19026245 -0.15532005
-0.2750324 0.116960116 0.41609836 0.3679559 0.12441685 -0.044043873 0.0887212 0.2834113
-0.005603011 -0.20144683 0.08450371 0.121846266 -0.15619673 0.23105898 0.17097196 -0.009180397
-0.38817227 0.17308322 0.2264553 -0.28759715 -0.28258038 -0.2924646 -0.29543594 -0.15119223
0.088639654 -0.22362438 0.5346386 -0.06128419 -0.018293168 0.13859767 -0.2190614 -0.35805172
0.3418424 -0.049185276 -0.11822727 0.13896638 -0.17691691 0.27183318 -0.19051367 -0.44490126
0.014796976 0.35066682 -0.029488144 0.07908348 0.26826173 -0.04112988 -0.030372975 -0.39001116
0.05995178 -0.0754017 -0.1150288 -0.04216686 -0.3671281 0.15431422 0.29493555 -0.25453818
0.15702924 -0.18256265 0.039743423 0.03995713 -0.2732513 -0.1759339 -0.42905796 0.09654154
-0.45365736 0.18349394 -0.27210176 0.57766074 0.33892915 0.1593382 -0.054582763 0.18494205
0.04126892 -0.31060845 0.16379046 -0.048903584 0.4660287 -0.16940892 -0.36193308 0.22993073
-0.32428193 0.19152682 0.040547278 0.5220642 -0.24282019 -0.1818752 0.11694703 0.10110186
0.37837014 0.016031476 -0.27611804 -0.042254783 -0.049622674 0.109200366 0.16460438 -0.16250014
-0.5744384 -0.4161681 -0.20359012 -0.28127927 0.33313182 -0.3299581 -0.0884343 0.71614426
-0.21444349 -0.3948849 -0.5973049 -0.49330735 0.36508322 -0.5316791 0.10658778 -0.034433402
-0.11913767 0.1298211 -0.32680753 -0.43221912 0.33166218 0.11328162 -0.12179154 0.27052766
-0.13892066 0.091316834 0.39492077 0.039493404 -0.17129356 0.20849724 0.24520424 -0.1501334
-0.15602514 -0.39718604 -0.21150394 0.4864301 0.4638828 0.067378454 -0.08226978 0.5080015
0.0118404385 -0.6127714 -0.09787447 0.16184431 -0.3602439 0.016491717 0.11793999 0.124672785
0.050205205 0.89967865 -0.14617033 0.3355161 0.16299267 0.028965224 0.017982667 -0.19695663
00000000: 25bd b5bd ac84 d5be ec63 f7be 65a5 50bd
00000010: 483e c7be 628a 99be 894e 023f b8b2 fd3e
00000020: 1a11 c73e 38e9 953d 1ecf e7bd 234d e1be
00000030: 956a 0b3e 9198 6f3e 2cd7 5cbe cb4d bf3e
00000040: 15af 0e3f a043 083f a63e cd3e 72b0 2abd
00000050: 3072 d43e 5f6b df3d 7ec8 06be 6d04 c83e
00000060: 9b89 ddbe f71f 8cbe 5f2a f1be 03f0 85be
00000070: 6ea5 88be a376 a7be 2eb0 5abd 355e 843e
00000080: 2cf0 d6bd d5a1 18bf 6143 52bd 49c6 8a3e
00000090: 753a 9ebe 9f05 c03e e86f a53e 3b03 e13e
000000a0: 3319 873e 09a9 cdbe bc42 19bd bed5 b73e
000000b0: a94e cf3e 145b 7e3e a2c2 9ebe a598 b2be
000000c0: 50ab 383e 4221 a0be c153 8abd 012d 2bbe
000000d0: 2967 c8be 7217 d8bc b0c1 bfbe ecfe 9a3e
000000e0: d874 543c 4cf0 213d 47d4 d53d 9d8f 6e3e
000000f0: 3425 0b3d 1483 9fbe eb46 e73e a8af 283e
00000100: 8efa fabd a117 8cbe 61f3 80be 7b67 c7be
00000110: a779 34be d6ca fcbd ffa1 e8bc 4561 663e
00000120: a268 8c3e a794 5a3e d3dd b0be 0acb 913c
00000130: f116 bd3a c3f8 8c3d 46b1 bb3d 2ed4 b8be
00000140: 9f91 b43e 1819 fb3e 8178 06be b726 cd3d
00000150: 40ef 123e bca7 abbd 5b06 9d3e cfab 803d
00000160: ec07 873e 1f99 d43e 7806 99bc f384 0fbb
00000170: bd11 6ebe e1bf 4cbe a75e c4be 4b6d d63e
00000180: f58b e0be 9eea 1a3e 4fb8 69be 494f 1bbe
00000190: aaeb fdb9 7471 69be 29d4 42be 380c 1fbe
000001a0: 0cd1 8cbe c988 ef3d d80a d53e b764 bc3e
000001b0: 43ce fe3d 5967 34bd 76b3 b53d 491b 913e
000001c0: 7799 b7bb 1448 4ebe 4810 ad3d 898a f93d
000001d0: 09f2 1fbe ba9a 6c3e 4613 2f3e 6069 16bc
000001e0: 84be c6be ba3c 313e e6e3 673e ef3f 93be
000001f0: 60ae 90be ecbd 95be 6143 97be 23d2 1abe
00000200: b588 b53d cafd 64be 13de 083f 2105 7bbd
00000210: 8edb 95bc 8cec 0d3e a251 60be 8e52 b7be
00000220: f805 af3e 8076 49bd 2421 f2bd 344d 0e3e
00000230: b529 35be b82d 8b3e 0416 43be 19ca e3be
00000240: 046f 723c 9a8a b33e 1f91 f1bc 85f6 a13d
00000250: 9a59 893e ce77 28bd bfd0 f8bc 8baf c7be
00000260: ff8f 753d 356c 9abd 3894 ebbd 28b7 2cbd
00000270: 37f8 bbbe 8c04 1e3e cb01 973e d452 82be
00000280: 46cc 203e b4f1 3abe 00ca 223d 16aa 233d
00000290: 98e7 8bbe 0428 34be 7cad dbbe 92b7 c53d
000002a0: c745 e8be d6e5 3b3e ec50 8bbe 93e1 133f
000002b0: 1f88 ad3e 8e29 233e 2d92 5fbd 7361 3d3e
000002c0: 9909 293d 1208 9fbe b0b8 273e 204f 48bd
000002d0: 509b ee3e 8879 2dbe 4b4f b9be f672 6b3e
000002e0: 4808 a6be 9b1f 443e e714 263d 00a6 053f
000002f0: dba5 78be 7e3d 3abe ed81 ef3d 7e0e cf3d
00000300: bbb9 c13e 7154 833c 585f 8dbe 5a13 2dbd
00000310: 2541 4bbd 71a4 df3d 0d8e 283e 7066 26be
00000320: 650e 13bf fc13 d5be ee79 50be d603 90be
00000330: 4190 aa3e 45f0 a8be 0b1d b5bd 3b55 373f
00000340: 1397 5bbe 5b2e cabe f9e8 18bf c892 fcbe
00000350: 30ec ba3e 1f1c 08bf b24a da3d 0a0a 0dbd
00000360: 73fe f3bd d3ef 043e 5153 a7be d34b ddbe
00000370: a0cf a93e 3200 e83d d86d f9bd 9a82 8a3e
00000380: 3841 0ebe 5204 bb3d 0e33 ca3e d6c3 213d
00000390: 9467 2fbe 4d80 553e d216 7b3e 92bc 19be
000003a0: 0ec5 1fbe f85b cbbe 7d94 58be 5e0d f93e
000003b0: 0c82 ed3e b7fd 893d 0f7d a8bd 630c 023f
000003c0: 66fe 413c 96de 1cbf 6972 c8bd 84ba 253e
000003d0: e371 b8be a319 873c 858a f13d 7254 ff3d
000003e0: f9a3 4d3d 5751 663f adad 15be c4c8 ab3e
000003f0: 8de7 263e 7a48 ed3c 6350 933c 00af 49be

classifier._layers.7._layers.7.se_conv.weight f4 [9, 54, 1, 1]
0.13551107 -0.032918163 -0.32249457 0.034824315 -0.07244326 -0.3502936 -0.17893438 -0.097975194
-0.17636076 -0.15281026 -0.010430657 -0.38922292 -0.3974358 -0.17282313 0.082221694 0.2629709
-0.029065404 -0.19695275 0.14054407 0.08742073 0.11609589 0.15092179 -0.08242022 0.018245915
0.11280182 -0.081388794 0.086941786 0.17664327 -0.0667254 -0.4903237 0.045303877 0.279522
0.018198777 0.06021123 0.026178593 0.0022220346 0.21066871 0.066131175 -0.19778995 0.010500943
-0.038563546 0.05280141 0.119466536 -0.1050173 -0.14195107 0.25937423 -0.15937367 0.01477946
0.027481426 0.21936361 -0.05326416 0.20125692 0.29188612 -0.041957006 0.0972103 0.10128164
0.21360089 0.20048274 0.22428143 0.047973134 -0.18940675 0.1321845 0.06982977 -0.051319305
0.24150193 -0.1031492 -0.010187972 0.3233789 -0.08229783 -0.52236927 0.095147125 0.29413438
-0.1564839 0.327587 0.4191833 -0.018051995 0.16177125 -0.17653248 0.11854807 -0.14812136
0.061231136 0.15958361 0.13692687 -0.16413918 0.15682216 0.20763823 0.1224667 0.045262843
-0.35674128 -0.48444453 -0.06444075 0.008360682 0.16779885 0.20399764 0.022381376 0.31881455
0.04911072 -0.00029247487 0.48932594 -0.08106956 -0.02148381 0.03575725 0.032127116 -0.13685632
0.2805771 0.039901715 0.23963082 0.39247233 0.05160936 -0.28081763 -0.091249116 0.1675917
-0.039323173 -0.30673337 -0.2698898 -0.0023549853 -0.14527178 -0.0849835 -0.24579196 -0.3873027
-0.49887776 -0.24507456 0.55355704 -0.04728273 0.060649797 -0.021892264 0.039348166 0.050021745
0.040682167 0.22328763 -0.15030985 0.027206155 -0.2883786 -0.07287672 -0.14433259 0.017555958
-0.121872924 -0.001897755 0.12084661 0.007982096 -0.39902195 -0.3703714 -0.26341513 -0.11088186
0.4431176 0.34823647 -0.09156515 0.21175021 0.05257368 0.09361695 0.09548184 0.14860311
-0.14439763 -0.24244356 -0.01295135 0.17113052 0.20476426 0.18899342 -0.030279644 0.2213137
-0.06702333 -0.03318727 -0.24989462 -0.2018062 0.39751875 0.1998808 0.19648084 0.15010764
0.0950454 0.22284582 0.08288966 -0.013810808 0.234514 0.3282028 0.3778363 -0.10396805
-0.0035304183 -0.06749454 0.18185344 0.21620704 0.05746121 -0.12059816 0.092200674 -0.06192746
0.03080344 0.19897689 0.06017426 0.049531233 -0.0052606175 -0.06550019 0.2817401 0.39705175
0.09161275 0.15791352 0.20032904 0.24526069 -0.068832144 0.03816936 0.17555289 -0.14301872
0.16666646 0.1119495 0.22211327 0.07155147 0.16783857 0.037078895 0.13502802 0.04076407
0.111009076 0.11792158 0.08601397 -0.11797364 0.29414058 -0.0054218965 0.1791275 -0.06653125
0.046053905 0.011685423 -0.588402 -0.26414275 0.03051996 -0.3699919 -0.32469735 -0.060911134
-0.30702 -0.20334466 -0.17801046 -0.14786892 0.016593914 -0.3130922 0.36784628 0.52409047
-0.15816833 -0.39892375 -0.08012118 -0.37594005 -0.25753418 0.32638842 0.02693486 0.1352023
-0.012763726 0.14905033 -0.2850445 0.21757972 -0.49605995 -0.16686754 0.12754232 -0.03396826
0.16596597 0.2870261 -0.10550057 0.67873466 0.0016504277 0.25720546 -0.31891057 0.022667162
00000000: 6ac3 0a3e 32d5 06bd 021e a5be f1a3 0e3d
00000010: 225d 94bd af59 b3be 933a 37be 38a7 c8bd
00000020: ea97 34be 4b7a 1cbe 59e5 2abc 3a48 c7be
00000030: b57c cbbe 8cf8 30be d963 a83d 1fa4 863e
00000040: 921a eebc fbad 49be c9ea 0f3e a409 b33d
00000050: afc3 ed3d 3e8b 1a3e efcb a8bd 7578 953c
00000060: a404 e73d 2baf a6bd 890e b23d f9e1 343e
00000070: 54a7 88bd b50b fbbe 8f90 393d 821d 8f3e
00000080: 9a15 953c 0da0 763d 7d74 d63c 8e9f 113b
00000090: 8ab9 573e c86f 873d 7389 4abe 260c 2c3c
000000a0: cff4 1dbd 4b46 583d dfaa f43d 4f13 d7bd
000000b0: 9f5b 11be b3cc 843e da32 23be 8c25 723c
000000c0: ba20 e13c dba0 603e 852b 5abd 4b16 4e3e
000000d0: 1972 953e 1cdb 2bbd 3216 c73d c06c cf3d
000000e0: 31ba 5a3e 594b 4d3e 08aa 653e 7a7f 443d
000000f0: d8f3 41be 605b 073e e902 8f3d 3134 52bd
00000100: 484c 773e e33f d3bd 74eb 26bc eb91 a53e
00000110: c48b a8bd feb9 05bf 7fdc c23d c898 963e
00000120: 513d 20be 7cb9 a73e 329f d63e c7e1 93bc
00000130: 5da7 253e eec4 34be 55c9 f23d 20ad 17be
00000140: 80cd 7a3d e369 233e 8f36 0c3e 1a14 28be
00000150: fd95 203e 1e9f 543e d2cf fa3d 8865 393d
00000160: cba6 b6be 1d09 f8be 83f9 83bd 3efb 083c
00000170: 76d3 2b3e c2e4 503e 2659 b73c a93b a33e
00000180: 5328 493d 5057 99b9 ee88 fa3e cc07 a6bd
00000190: d1fe afbc 3276 123d b997 033d 1024 0cbe
000001a0: cda7 8f3e fb6f 233d c861 753e 22f2 c83e
000001b0: 5664 533d 54c7 8fbe d1e0 babd 299d 2b3e
000001c0: 5611 21bd 280c 9dbe ff2e 8abe 1956 1abb
000001d0: 20c2 14be d40b aebd e3b0 7bbe 8a4c c6be
000001e0: e86c ffbe d3f4 7abe eab5 0d3f 89ab 41bd
000001f0: ec6b 783d 6857 b3bc 8b2b 213d 9ae3 4c3d
00000200: 58a2 263d 83a5 643e d3ea 19be 71df de3c
00000210: 5ca6 93be 6440 95bd eccb 13be 83d1 8f3c
00000220: 8398 f9bd 17be f8ba 6d7e f73d 56c7 023c
00000230: 9b4c ccbe 52a1 bdbe 59de 86be 0716 e3bd
00000240: 4fe0 e23e 0d4c b23e 8286 bbbd 0cd5 583e
00000250: 8057 573d 3eba bf3d fc8b c33d 6a2b 183e
00000260: f9dc 13be 2043 78be e631 54bc d73c 2f3e
00000270: b9ad 513e 7e87 413e 040d f8bc 0fa0 623e
00000280: 8743 89bd 60ef 07bd 60e4 7fbe 49a6 4ebe
00000290: 9487 cb3e 8dad 4c3e 4632 493e d1b5 193e
000002a0: 2aa7 c23d b231 643e 0ec2 a93d ba46 62bc
000002b0: 7024 703e 330a a83e c273 c13e 33ed d4bd
000002c0: 975e 67bb 943a 8abd ca37 3a3e 6165 5d3e
000002d0: 725c 6b3d 2bfc f6bd b5d3 bc3d a6a7 7dbd
000002e0: 7f57 fc3c 99c0 4b3e 4979 763d 43e1 4a3d
000002f0: 4261 acbb f724 86bd 3d40 903e 5e4a cb3e
00000300: 779f bb3d 15b4 213e 0e23 4d3e 9e25 7b3e
00000310: def7 8cbd 7a57 1c3d 23c4 333e 8073 12be
00000320: 9daa 2a3e c845 e53d a971 633e 9489 923d
00000330: e0dd 2b3e 0ae0 173d c944 0a3e 3af8 263d
00000340: ba58 e33d df80 f13d 1828 b03d 2a9c f1bd
00000350: 9899 963e 2aaa b1bb 336d 373e 8941 88bd
00000360: 05a3 3c3d 3774 3f3c 83a1 16bf b83d 87be
00000370: ff04 fa3c 946f bdbe bb3e a6be f47d 79bd
00000380: ba31 9dbe 9539 50be 6048 36be f36a 17be
00000390: f6ef 873c 9f4d a0be 5956 bc3e cb2a 063f
000003a0: e1f6 21be bc3f ccbe 9316 a4bd 377b c0be
000003b0: 85db 83be 621c a73e 7fa6 dc3c 7972 0a3e
000003c0: f21e 51bc a6a0 183e 5af1 91be 38cd 5e3e
000003d0: 92fb fdbe 53df 2abe 749a 023e 4d22 0bbd
000003e0: fcf2 293e 16f5 923e af10 d8bd 8ec1 2d3f
000003f0: 2a53 d83a 6fb0 833e 3f48 a3be 7cb0 b93c

classifier._layers.7._layers.7.se_conv2.weight f4 [54, 9, 1, 1]
0.041527502 0.0055649853 0.2463143 -0.09162356 -0.31348404 0.6544498 -0.15936604 -0.008524026
0.008861189 0.33672062 -0.09687188 0.16339484 0.14273532 0.31990892 0.038998105 -0.18777002
0.43812364 -0.19523345 0.49489945 -0.24591091 -0.13415894 -0.39950666 0.53443396 0.12294354
0.12301043 0.29514804 -0.59027237 0.16155761 -0.12687764 0.2541919 0.114401974 0.23943442
-0.05551999 0.045406863 0.6467822 0.18353257 0.05754154 -0.1560845 0.13028094 -0.15957941
0.3829556 -0.16426913 -0.44351274 0.16578321 -0.193013 0.3171531 0.3443511 0.7220731
0.016646374 0.19512725 0.11028342 -0.21133593 0.3204372 0.009344438 0.3361545 -0.09510093
0.49712917 -0.13575526 0.17809597 0.27710545 -0.4606856 0.17906496 -0.112935215 0.31194335
-0.38902786 -0.025408046 0.051135983 0.4629846 -0.14541723 -0.13438651 0.021221435 -0.590061
0.14822045 -0.22318946 0.10027091 -0.20798357 0.17947122 -0.18465932 -0.29864323 0.094106615
-0.44601128 0.20930503 0.06908711 0.06948043 -0.36627054 0.008382733 0.21638545 -0.15713114
0.13770592 0.19869533 -0.18450162 -0.35739243 0.25889325 -0.2697 0.054227617 0.16800089
-0.17625941 0.490747 -0.024037132 0.0097676655 0.08496153 -0.24009338 -0.11573654 0.08571232
-0.28126287 0.06809356 0.20825316 0.22411174 -0.15979683 -0.21053721 0.2200963 -0.2518726
0.060913205 0.26701814 0.18288709 0.2873433 0.0047188746 0.13892171 -0.26085395 -0.12897125
0.27979064 -0.1470654 -0.018007522 0.029773463 0.45394817 0.36695167 0.013982393 0.2285896
-0.004310289 0.17633417 0.15430735 -0.6403759 -0.25404686 0.36328098 0.14616248 0.20610504
-0.07834594 -0.22411944 -0.0021007115 -0.07644767 -0.76604843 -0.34372777 -0.21112694 -0.28750083
0.16392201 -0.20032732 -0.0351607 -0.33778986 -0.11650749 0.09011769 0.036745474 0.2896858
-0.26909313 -0.12662333 -0.25968027 0.36385676 -0.0109069 0.29828757 0.30970675 -0.3191276
0.31379318 0.1809979 0.10008034 -0.23640797 0.035862293 -0.48077872 -0.021572422 0.35698053
-0.4753833 -0.019680798 -0.10551193 -0.025644822 -0.4858971 0.22230145 0.04590178 0.31306314
0.40554118 0.017802726 0.07385095 -0.03921539 -0.010268575 -0.23663089 0.031753518 0.12616695
0.4934775 0.72683865 0.19077241 0.35333693 0.20390466 0.3010582 -0.38329658 0.23042996
-0.36913517 0.2490512 0.19249573 0.036474433 0.0166804 -0.18503337 0.5415008 -0.48982906
0.09489316 0.1438416 0.51856136 -0.07132699 -0.30986306 -0.35109484 0.21890248 0.3477894
0.020455252 0.08330057 0.11456395 0.12643123 -0.11337389 -0.27131557 -0.08008826 -0.30397186
-0.07038055 -0.0723393 0.16829011 0.03311164 0.1428213 0.372547 0.05636265 -0.21035008
0.11406372 -0.28036568 0.13249172 0.13237631 0.15144281 0.35838595 0.43937078 -0.104309686
-0.34865612 0.030913591 0.10272521 -0.34166303 0.21832068 0.10637281 -0.28600463 -0.32195616
0.24738532 -0.13873698 0.21889004 0.47895923 0.18808945 0.38584346 -0.2480018 -0.20840286
-0.009360992 0.2851049 0.33994314 -0.54783875 0.16308138 -0.17270197 -0.17942302 -0.068962656
00000000: be18 2a3d 7b5a b63b d139 7c3e 22a5 bbbd
00000010: fb80 a0be 068a 273f da30 23be 5ba8 0bbc
00000020: 852e 113c a566 ac3e c464 c6bd fa50 273e
00000030: 3529 123e 1acb a33e 7abc 1f3d c946 40be
00000040: be51 e03e 47eb 47be 7663 fd3e 12d0 7bbe
00000050: f660 09be 238c ccbe aad0 083f d3c9 fb3d
00000060: e4ec fb3d a51d 973e 171c 17bf 5c6f 253e
00000070: 36ec 01be 7125 823e 954b ea3d 4c2e 753e
00000080: ee68 63bd 8cfc 393d 8593 253f f6ef 3b3e
00000090: aeb0 6b3d 9dd4 1fbe 5e68 053e c968 23be
000000a0: c212 c43e 2b36 28be 1a14 e3be 13c3 293e
000000b0: 33a5 45be e461 a23e ca4e b03e c8d9 383f
000000c0: fa5d 883c 70cf 473e 46dc e13d 7268 58be
000000d0: 5810 a43e 6a19 193c 711c ac3e 47c4 c2bd
000000e0: b787 fe3e 6d03 0bbe ca5e 363e c4e0 8d3e
000000f0: fcde ebbe ce5c 373e 944a e7bd 0ab7 9f3e
00000100: a92e c7be 8924 d0bc f773 513d 510c ed3e
00000110: 41e8 14be 9e9c 09be 93d8 ad3c 3d0e 17bf
00000120: 1ac7 173e c78b 64be d65a cd3d a5f9 54be
00000130: 4ec7 373e 5517 3dbe c4e7 98be f8ba c03d
00000140: 975b e4be 0f54 563e 8b7d 8d3d c14b 8e3d
00000150: d087 bbbe bb57 093c 2694 5d3e fce6 20be
00000160: c802 0d3e ca76 4b3e feed 3cbe 24fc b6be
00000170: a88d 843e 1e16 8abe c71d 5e3d 6d08 2c3e
00000180: 597d 34be 3143 fb3e 85e9 c4bc 8f08 203c
00000190: 5000 ae3d 0adb 75be 4707 edbd f189 af3d
000001a0: b001 90be a374 8b3d 5140 553e 8c7d 653e
000001b0: c8a1 23be 1197 57be ed60 613e 72f5 80be
000001c0: 2080 793d 9ab6 883e c146 3b3e a91e 933e
000001d0: caa0 9a3b 7e41 0e3e a68e 85be 0a11 04be
000001e0: b840 8f3e 5098 16be 8384 93bc 7ae7 f33c
000001f0: e56b e83e 17e1 bb3e 6816 653c 6413 6a3e
00000200: 533d 8dbb f290 343e bf02 1e3e adef 23bf
00000210: 6e12 82be f7ff b93e 9eab 153e 330d 533e
00000220: d673 a0bd 917f 65be 17ac 09bb 9990 9cbd
00000230: c01b 44bf 16fd afbe a931 58be 4f33 93be
00000240: 2cdb 273e 9b22 4dbe ab04 10bd cbf2 acbe
00000250: 7b9b eebd a08f b83d 6c82 163d b251 943e
00000260: 93c6 89be 8ca9 01be d0f4 84be 6f4b ba3e
00000270: dbb2 32bc 26b9 983e e291 9e3e b164 a3be
00000280: 80a9 a03e 8357 393e ecf6 cc3d ee14 72be
00000290: 57e4 123d a128 f6be a6b8 b0bc 27c6 b63e
000002a0: 7165 f3be a039 a1bc a416 d8bd 1715 d2bc
000002b0: 81c7 f8be fea2 633e 8103 3c3d d049 a03e
000002c0: 18a3 cf3e 06d7 913c 2b3f 973d 51a0 20bd
000002d0: 863d 28bc 5e4f 72be fa0f 023d e931 013e
000002e0: 15a9 fc3e 1912 3a3f d859 433e 94e8 b43e
000002f0: 62cc 503e 4d24 9a3e 733f c4be d5f5 6b3e
00000300: 49ff bcbe 4707 7f3e 9a1d 453e 3766 153d
00000310: 56a5 883c 6379 3dbe cc9f 0a3f e0ca fabe
00000320: 5857 c23d 364b 133e 70c0 043f e313 92bd
00000330: 5fa6 9ebe b4c2 b3be f927 603e 7411 b23e
00000340: c691 a73c 7d99 aa3d 81a0 ea3d 3077 013e
00000350: 9230 e8bd e0e9 8abe 5005 a4bd 33a2 9bbe
00000360: ae23 90bd a026 94bd 3e54 2c3e 12a0 073d
00000370: bf3f 123e 7bbe be3e 86dc 663d 0366 57be
00000380: 3d9a e93d 178c 8fbe e9ab 073e a88d 073e
00000390: d313 1b3e 5d7e b73e 35f5 e03e 51a0 d5bd
000003a0: 0e83 b2be 803e fd3c 9861 d23d 75ee aebe
000003b0: 758f 5f3e fdd9 d93d 336f 92be 70d7 a4be
000003c0: 9452 7d3e 1111 0ebe b624 603e 253a f53e
000003d0: 859a 403e 468d c53e 2ff4 7dbe 8f67 55be
000003e0: d95e 19bc 45f9 913e 070d ae3e 293f 0cbf
000003f0: cefe 263e c9d8 30be abba 37be 4b3c 8dbd

classifier._layers.8._layers.7.se_conv.weight f4 [19, 114, 1, 1]
-0.18060407 -0.08175592 0.3494658 0.11369755 0.2988659 0.008264342 0.022856707 -0.007073145
0.46415293 -0.22383378 -0.020405391 0.35807487 0.14370656 -0.13186187 -0.0027569 -0.037120186
0.11363494 -0.011423799 -0.19526827 0.12050065 0.022579666 0.16743886 0.29589576 -0.18666214
-0.13323902 0.07793738 0.32193235 0.006286399 0.1306229 0.2925473 0.14788592 0.048549596
0.19003594 0.06477766 0.12570888 -0.46010962 0.08973448 0.073618054 -0.21202955 -0.018912718
-0.10062409 -0.07368768 -0.0837721 0.29508442 -0.04714362 -0.07878821 0.05625506 0.07646908
0.0070724995 0.047244135 0.018230204 -0.3333484 -0.14110772 0.21935192 0.050269075 0.0895308
0.1866426 -0.08488533 0.26771393 -0.1001881 -0.53091764 0.20430227 -0.16523778 0.14258523
0.018299747 -0.01863723 0.009323297 0.17368871 0.14063227 0.10112926 -0.2133548 -0.034721896
0.31344265 0.14512691 -0.06425689 0.48029858 0.37291947 -0.27591744 -0.045637906 -0.057099484
0.18296205 0.042109117 0.16532962 0.13439007 0.22121388 -0.13131008 -0.07388378 0.24024522
-0.33448514 -0.30026522 -0.1896286 -0.24109356 0.124138035 0.23431413 0.28198037 -0.07043632
-0.17603107 0.03324989 -0.0011848483 0.012125981 -0.35803354 -0.050868195 0.10175778 -0.03107488
0.05909272 -0.09072792 -0.054801892 -0.39815757 -0.21459721 0.36620778 0.1133227 -0.03524889
-0.24287184 0.056732226 -0.09725548 -0.26802483 -0.12932126 -0.36236656 -0.09286888 -0.044720512
-0.026686532 -0.0965267 -0.27811012 -0.069888406 -0.038575366 -0.31921396 -0.33311695 -0.08609178
0.049944885 -0.044884555 -0.239962 -0.2552275 0.06003865 -0.075552054 -0.02662993 -0.07454244
-0.32137662 -0.07083275 0.030942677 -0.14961897 -0.5475582 -0.09589923 -0.22844777 0.037715934
0.008890594 -0.29040113 -0.20688336 -0.06055942 -0.21453148 -0.20723133 -0.11546095 -0.00879409
0.085358575 -0.15700975 -0.25391594 0.019510824 -0.11086943 -0.4425104 -0.22046751 0.083443895
-0.030063353 -0.043103896 -0.4290909 -0.26622888 -0.06707311 0.097398594 0.25936067 -0.13592438
-0.17616208 -0.07582521 -0.13255508 0.09905914 -0.34098116 0.19324476 -0.13624664 -0.051761016
-0.14822589 0.011566601 0.23303154 -0.21124488 -0.1334452 -0.09297278 -0.20372775 -0.10256196
0.024656776 -0.11690471 -0.18340735 -0.14108002 -0.18936048 -0.038309045 -0.19924235 0.037287448
0.055844445 0.101896934 -0.24733879 -0.3585316 -0.1015314 -0.10974335 -0.050899096 -0.22614813
-0.07139099 -0.22742777 -0.16169101 -0.22423495 -0.12864101 0.05649814 -0.117449686 -0.2707504
0.0045951223 -0.10251596 -0.1633678 -0.32942078 -0.21523349 -0.05322294 0.39192873 -0.13853526
0.01923484 -0.10965315 -0.22733352 -0.02230708 0.063478194 0.10623216 -0.1041573 -0.1364188
-0.25098348 -0.26997042 -0.4117997 -0.083657734 -0.003976057 0.13724743 0.3587161 0.115482226
-0.16420415 0.08041724 0.36560482 0.11707815 -0.18038914 0.022536904 -0.10341865 -0.26566118
-0.6099203 -0.36369598 -0.084483884 0.043268703 -0.3539235 0.39429566 0.19411027 -0.02456754
0.022821316 -0.16149607 -0.07586701 0.41059136 0.016238062 -0.016685648 -0.07273455 0.3816745
00000000: 46f0 38be a66f a7bd 2eed b23e 43da e83d
00000010: f404 993e 2a67 073c fd3d bb3c d7c5 e7bb
00000020: 74a5 ed3e af34 65be 3529 a7bc 9755 b73e
00000030: d027 133e cc06 07be 1bad 34bb 560b 18bd
00000040: 6fb9 e83d e32a 3bbc 68f4 47be 0bc9 f63d
00000050: fef8 b83c 1875 2b3e a67f 973e 5c24 3fbe
00000060: cf6f 08be a29d 9f3d 51d4 a43e 23fe cd3b
00000070: 02c2 053e c2c8 953e 686f 173e f1db 463d
00000080: c898 423e 26aa 843d d4b9 003e 7d93 ebbe
00000090: b6c6 b73d 10c5 963d 461e 59be d8ee 9abc
000000a0: 0114 cebd 91e9 96bd b590 abbd 4e15 973e
000000b0: ab19 41bd b75b a1bd b56b 663d d29b 9c3d
000000c0: 6dc0 e73b 1183 413d 8257 953c a4ac aabe
000000d0: 8b7e 10be ca9d 603e f2e6 4d3d ed5b b73d
000000e0: 3d1f 3f3e 5cd8 adbd cd11 893e 6b2f cdbd
000000f0: 38ea 07bf 9d34 513e 1834 29be dd01 123e
00000100: 5ae9 953c 1bad 98bc bec0 183c 74db 313e
00000110: e801 103e dc1c cf3d ae79 5abe 8c38 0ebd
00000120: 8e7b a03e 269c 143e 1e99 83bd b2e9 f53e
00000130: 4def be3e 0d45 8dbe d0ee 3abd 26e1 69bd
00000140: 675a 3b3e 9c7a 2c3d 2b4c 293e 8d9d 093e
00000150: e485 623e 2676 06be 6150 97bd d802 763e
00000160: a341 abbe 5dbc 99be 002e 42be 3be1 76be
00000170: 153c fe3d 0bf0 6f3e bb5f 903e eb40 90bd
00000180: 7d41 34be 0931 083d e94c 9bba 0dac 463c
00000190: 2c50 b7be 2b5b 50bd 6266 d03d bf90 febc
000001a0: 350b 723d 8fcf b9bd f377 60bd 4fdb cbbe
000001b0: 5fbf 5bbe 967f bb3e bb15 e83d 2461 10bd
000001c0: 65b3 78be 0d60 683d e22d c7bd 8d3a 89be
000001d0: cb6c 04be 1c88 b9be 0a32 bebd db2c 37bd
000001e0: b79d dabc caaf c5bd 7364 8ebe a721 8fbd
000001f0: 3401 1ebd 0370 a3be 4e8e aabe e350 b0bd
00000200: 0293 4c3d ded8 37bd 99b8 75be 2ead 82be
00000210: 16eb 753d 09bb 9abd 0327 dabc b5a9 98bd
00000220: 7a8b a4be c310 91bd 7f7b fd3c b735 19be
00000230: c62c 0cbf d166 c4bd 36ee 69be 067c 1a3d
00000240: dba9 113c 75af 94be 3bd9 53be 280d 78bd
00000250: 24ae 5bbe 7334 54be ca76 ecbd 1615 10bc
00000260: 7ad0 ae3d 2ac7 20be 4501 82be 2ad5 9f3c
00000270: 830f e3bd b990 e2be 3cc2 61be a2e4 aa3d
00000280: 6c47 f6bc b68d 30bd cdb1 dbbe 274f 88be
00000290: a05d 89bd ea78 c73d ecca 843e c32f 0bbe
000002a0: d563 34be 3f4a 9bbd 85bc 07be 85df ca3d
000002b0: 1595 aebe f4e1 453e 3d84 0bbe 5c03 54bd
000002c0: 87c8 17be d781 3d3c d29f 6e3e 9450 58be
000002d0: dca5 08be 8368 bebd 029e 50be 010c d2bd
000002e0: 02fd c93c bd6b efbd 23cf 3bbe 4877 10be
000002f0: b7e7 41be f2e9 1cbd 3006 4cbe b9ba 183d
00000300: 25bd 643d 57af d03d 6146 7dbe 7491 b7be
00000310: b2ef cfbd 1fc1 e0bd 927b 50bd 6093 67be
00000320: 7035 92bd d3e2 68be 5492 25be d99d 65be
00000330: 78ba 03be 986a 673d 7689 f0bd cc9f 8abe
00000340: ae92 963b e3f3 d1bd e349 27be d7a9 a8be
00000350: 2b66 5cbe 4c00 5abd e2aa c83e 30dc 0dbe
00000360: 6292 9d3c d591 e0bd 1eca 68be 56bd b6bc
00000370: db00 823d 3f90 d93d 6c50 d5bd 5fb1 0bbe
00000380: e880 80be 9039 8abe 69d7 d2be bf54 abbd
00000390: 9549 82bb 978a 0c3e a3a9 b73e f281 ec3d
000003a0: 2225 28be cbb1 a43d 8e30 bb3e abc6 ef3d
000003b0: eeb7 38be 509f b83c 28cd d3bd be04 88be
000003c0: bd23 1cbf 5c36 babe e305 adbd 863a 313d
000003d0: 7635 b5be 1fe1 c93e d8c4 463e de41 c9bc
000003e0: c5f3 ba3c 3a5f 25be 2a60 9bbd 0839 d23e
000003f0: af05 853c 57b0 88bc daf5 94bd d76a c33e
