04/code/task1/model.tflite/pca/model.int8.tflite (tflite, 787704 bytes, 40 tensors)

model/tf.linalg.matmul/MatMul/b i1 [136, 344] scale=0.0004244551 zero_point=0
0.009762467 -0.0114602875 0.02589176 0.044567786 0.0016978204 -0.026316216 0.02589176 -0.023769485
-0.008489102 0.044567786 -0.005942371 -0.012733653 -0.0012733652 -0.05305689 0.03820096 0.0012733652
0.01994939 0.024618395 0.0415966 -0.029287402 -0.050934613 -0.041172143 -0.016129294 0.029287402
-0.0072157364 0.02334503 0.023769485 0.012309197 -0.029711857 -0.027589582 0.042021055 0.031409677
0.024618395 -0.027589582 -0.04329442 -0.028862946 0.030136311 -0.027165126 0.02674067 -0.033107497
-0.04753897 0.016553748 -0.031834133 -0.044567786 -0.049661245 -0.014007018 0.028862946 -0.026316216
-0.007640192 0.0012733652 -0.028438492 -0.03225859 -0.0004244551 0.03268304 0.0063668266 0.014431473
0.008064647 0.012733653 0.030985221 -0.026316216 0.0055179163 0.02249612 -0.008913557 -0.027589582
0.0004244551 -0.004669006 0.042869963 0.042021055 0.03565423 -0.03820096 0.033107497 0.049661245
0.052207977 -0.0033956408 -0.04414333 0.016129294 -0.022920575 -0.010611378 0.0067912815 0.047114514
-0.047114514 -0.029287402 0.014007018 -0.0012733652 0.030136311 -0.014855929 -0.046265606 -0.037352048
0.023769485 -0.008064647 -0.003820096 0.008913557 -0.010186922 0.04329442 0.05348134 0.037352048
0.02589176 -0.015704839 0.03650314 -0.026316216 0.027589582 0.016553748 -0.009762467 -0.025467306
-0.025467306 0.02249612 0.005093461 -0.048812337 0.0033956408 -0.012309197 -0.042869963 0.02419394
-0.03989878 -0.0055179163 0.023769485 0.020373844 -0.050934613 -0.009762467 -0.045416694 0.014431473
-0.05178352 0.004244551 -0.01994939 0.02419394 0.009338012 -0.038625415 -0.036078684 0.012309197
0.0500857 0.0072157364 0.036078684 0.005093461 0.01910048 -0.016553748 0.030985221 -0.047963426
-0.046265606 -0.014431473 -0.02504285 0.03225859 0.039049868 -0.036927592 0.030985221 0.023769485
0.05348134 -0.008064647 -0.05305689 -0.0067912815 -0.03268304 0.01910048 0.030136311 -0.0008489102
-0.022071665 -0.040323235 -0.005093461 -0.03989878 0.0012733652 -0.008064647 0.02504285 0.04838788
-0.031834133 -0.0055179163 -0.053905796 -0.037352048 -0.004244551 -0.045416694 0.016553748 0.01994939
-0.0063668266 0.014855929 -0.020373844 0.033107497 -0.05178352 -0.042021055 0.029711857 0.0500857
0.028014036 0.009762467 -0.039049868 0.019524934 0.04244551 0.012309197 0.034380864 0.005093461
-0.042869963 0.0055179163 0.0004244551 0.007640192 -0.016553748 0.010186922 -0.03820096 -0.022920575
0.020373844 0.052207977 -0.050510157 0.017402658 0.024618395 -0.047963426 0.04838788 0.0072157364
0.03268304 0.037776504 -0.04669006 0.040747687 -0.027589582 0.024618395 -0.031409677 0.022071665
0.039049868 -0.011035833 -0.01910048 -0.005942371 -0.027165126 -0.028014036 -0.0500857 -0.0207983
0.017827114 0.046265606 0.011884742 0.0029711856 -0.009762467 0.0021222755 0.024618395 0.049661245
0.035229772 -0.008489102 0.036927592 -0.009762467 -0.03820096 -0.040747687 -0.025467306 0.02164721
-0.011884742 -0.01994939 -0.0016978204 0.030560767 0.052207977 -0.04669006 -0.008489102 -0.04669006
-0.03989878 -0.036927592 0.028862946 0.0207983 0.005942371 -0.0033956408 0.008489102 0.009762467
-0.01825157 -0.027589582 0.04414333 -0.03268304 0.03820096 0.05178352 0.005093461 -0.034805316
00000000: 17e5 3d69 04c2 3dc8 ec69 f2e2 fd83 5a03
00000010: 2f3a 62bb 889f da45 ef37 381d babf 634a
00000020: 3abf 9abc 47c0 3fb2 9027 b597 8bdf 44c2
00000030: ee03 bdb4 ff4d 0f22 131e 49c2 0d35 ebbf
00000040: 01f5 6563 54a6 4e75 7bf8 9826 cae7 106f
00000050: 91bb 21fd 47dd 93a8 38ed f715 e866 7e58
00000060: 3ddb 56c2 4127 e9c4 c435 0c8d 08e3 9b39
00000070: a2f3 3830 88e9 9522 860a d139 16a5 ab1d
00000080: 7611 550c 2dd9 498f 93de c54c 5ca9 4938
00000090: 7eed 83f0 b32d 47fe cca1 f4a2 03ed 3b72
000000a0: b5f3 81a8 f695 272f f123 d04e 869d 4676
000000b0: 4217 a42e 641d 510c 9b0d 0112 d918 a6ca
000000c0: 307b 8929 3a8f 7211 4d59 9260 bf3a b634
000000d0: 5ce6 d3f2 c0be 8acf 2a6d 1c07 e905 3a75
000000e0: 53ec 57e9 a6a0 c433 e4d1 fc48 7b92 ec92
000000f0: a2a9 4431 0ef8 1417 d5bf 68b3 5a7a 0cae

model/conv2d_29/Conv2D i1 [344, 1, 1, 352]
8 -18 -14 -17 14 31 6 -4
6 3 -25 -3 -11 -26 12 -4
-12 -4 -57 9 -17 7 -18 -10
-49 -6 2 20 -25 9 -1 4
2 -11 18 -12 4 -19 1 1
-10 13 -12 12 14 -1 -4 12
13 -13 -2 -3 -12 -19 3 -17
12 9 -1 -25 -40 -6 -20 -13
15 -15 -11 23 -19 -7 -63 -10
-3 16 18 -55 -26 31 7 3
12 -9 -8 -8 6 20 -27 -13
-15 -6 -22 -7 -16 4 21 -15
18 -6 -9 -2 4 22 -14 -25
29 0 16 -12 -11 -14 -2 9
-3 -11 8 -7 6 -31 -25 -1
-8 -7 2 46 9 -40 -9 2
1 -6 -2 -1 20 -27 -1 -63
-58 -7 5 52 14 45 -23 -5
29 13 10 -5 -7 -19 -3 -3
-14 -1 4 -9 -23 -18 -79 -20
-11 15 -5 -18 -24 -3 17 -116
0 27 13 -18 -8 -98 17 7
-30 -10 9 2 -11 -2 -21 -6
-1 18 4 -9 -5 5 10 -2
-13 -1 18 -87 -2 -23 -66 -2
10 10 -8 19 -4 -23 -21 0
12 34 -1 -20 -7 1 13 12
6 -1 9 -34 -55 -22 12 -29
8 7 4 -3 11 -107 -1 -18
-36 14 -61 -31 -11 -8 28 13
-18 -24 -21 -53 13 -7 -5 -3
9 14 -2 -7 16 3 -24 -34
00000000: 08ee f2ef 0e1f 06fc 0603 e7fd f5e6 0cfc
00000010: f4fc c709 ef07 eef6 cffa 0214 e709 ff04
00000020: 02f5 12f4 04ed 0101 f60d f40c 0eff fc0c
00000030: 0df3 fefd f4ed 03ef 0c09 ffe7 d8fa ecf3
00000040: 0ff1 f517 edf9 c1f6 fd10 12c9 e61f 0703
00000050: 0cf7 f8f8 0614 e5f3 f1fa eaf9 f004 15f1
00000060: 12fa f7fe 0416 f2e7 1d00 10f4 f5f2 fe09
00000070: fdf5 08f9 06e1 e7ff f8f9 022e 09d8 f702
00000080: 01fa feff 14e5 ffc1 c6f9 0534 0e2d e9fb
00000090: 1d0d 0afb f9ed fdfd f2ff 04f7 e9ee b1ec
000000a0: f50f fbee e8fd 118c 001b 0dee f89e 1107
000000b0: e2f6 0902 f5fe ebfa ff12 04f7 fb05 0afe
000000c0: f3ff 12a9 fee9 befe 0a0a f813 fce9 eb00
000000d0: 0c22 ffec f901 0d0c 06ff 09de c9ea 0ce3
000000e0: 0807 04fd 0b95 ffee dc0e c3e1 f5f8 1c0d
000000f0: eee8 ebcb 0df9 fbfd 090e fef9 1003 e8de

model/conv2d_28/Conv2D1 i1 [352, 1, 1, 56]
-12 -29 14 6 -60 21 -11 13
21 -6 -34 40 -22 43 45 5
-64 -37 -49 42 8 -31 12 10
-15 20 -61 -127 -7 -32 -2 22
-32 36 -39 -11 -5 -7 13 4
33 -13 -16 -14 -24 -10 11 19
-52 -38 -50 -1 -15 -21 -50 -35
-77 8 -100 -73 15 -37 -67 27
-12 -11 -29 -55 -2 8 -47 -84
-124 -16 -127 -33 -60 -80 32 -39
-92 -64 -66 55 -65 -86 -22 -29
-109 62 -104 -29 -69 8 1 -62
34 -53 -14 -71 -40 -1 -51 -8
12 26 -105 -93 -53 -62 29 32
-112 -49 -6 -35 4 -47 14 -9
-16 -125 -30 -75 7 -37 -66 -59
-50 -11 33 -15 7 -62 -18 -7
46 -40 -127 28 -45 22 -38 -27
-119 -51 -74 -8 -52 -25 -81 -39
-11 48 -73 -37 -59 -23 -73 -30
-40 -16 -60 -65 -67 -19 -24 -8
-59 42 5 49 -40 -12 32 -67
-14 -79 -62 -7 27 -6 -29 -109
-68 -32 16 -18 -46 -27 -10 -1
-37 -75 8 -24 -37 10 17 -98
-6 51 -30 -45 -21 -81 11 -37
12 -16 4 -59 -4 -6 -51 127
-43 15 -35 48 -35 -126 62 -43
-5 -9 -31 -30 -9 -36 -51 -107
-79 14 -53 -9 -45 -31 -17 -64
-46 -3 -94 -92 -33 -64 -17 -24
5 -22 -97 -44 -76 -46 2 24
00000000: f4e3 0e06 c415 f50d 15fa de28 ea2b 2d05
00000010: c0db cf2a 08e1 0c0a f114 c381 f9e0 fe16
00000020: e024 d9f5 fbf9 0d04 21f3 f0f2 e8f6 0b13
00000030: ccda ceff f1eb cedd b308 9cb7 0fdb bd1b
00000040: f4f5 e3c9 fe08 d1ac 84f0 81df c4b0 20d9
00000050: a4c0 be37 bfaa eae3 933e 98e3 bb08 01c2
00000060: 22cb f2b9 d8ff cdf8 0c1a 97a3 cbc2 1d20
00000070: 90cf fadd 04d1 0ef7 f083 e2b5 07db bec5
00000080: cef5 21f1 07c2 eef9 2ed8 811c d316 dae5
00000090: 89cd b6f8 cce7 afd9 f530 b7db c5e9 b7e2
000000a0: d8f0 c4bf bded e8f8 c52a 0531 d8f4 20bd
000000b0: f2b1 c2f9 1bfa e393 bce0 10ee d2e5 f6ff
000000c0: dbb5 08e8 db0a 119e fa33 e2d3 ebaf 0bdb
000000d0: 0cf0 04c5 fcfa cd7f d50f dd30 dd82 3ed5
000000e0: fbf7 e1e2 f7dc cd95 b10e cbf7 d3e1 efc0
000000f0: d2fd a2a4 dfc0 efe8 05ea 9fd4 b4d2 0218

model/conv2d_27/Conv2D1 i1 [56, 1, 1, 352]
-8 15 8 48 16 23 23 38
24 -7 6 5 15 -16 -16 -19
10 11 1 -15 1 -48 -45 41
-7 -3 47 -5 41 14 -38 31
18 0 -41 -4 5 -10 4 5
-45 10 -6 17 41 57 -29 12
9 33 59 -47 -22 11 11 -73
-30 22 41 -11 1 8 -27 -2
-15 0 -11 34 49 -33 29 -10
-19 6 -33 13 -14 0 -12 2
33 -12 -7 -51 21 11 9 -40
4 -9 6 40 -13 -40 -18 -23
-5 30 -28 -52 -43 -19 -39 7
-12 16 -32 62 1 -10 -6 -6
-21 27 21 1 2 -12 -7 37
-4 -15 -19 -4 -6 -17 -1 -33
22 -6 -38 10 -9 -16 22 -21
-17 -26 2 10 -15 22 0 15
-46 -10 34 -26 -30 78 24 -8
16 -6 -5 26 37 -9 3 -49
2 -38 19 46 19 -26 -2 23
-6 21 -33 -46 20 -4 -17 13
24 -28 3 0 -16 13 -6 5
-18 -2 -32 -5 -22 18 10 9
13 14 5 6 -91 0 52 56
127 -9 77 -41 67 4 -15 14
-6 1 12 -40 44 -4 25 -11
-17 33 24 17 17 10 -9 27
25 8 7 59 -27 12 47 -9
-18 49 12 16 -10 -38 -13 -13
7 37 24 2 -31 -14 27 1
44 19 -4 0 36 24 15 11
00000000: f80f 0830 1017 1726 18f9 0605 0ff0 f0ed
00000010: 0a0b 01f1 01d0 d329 f9fd 2ffb 290e da1f
00000020: 1200 d7fc 05f6 0405 d30a fa11 2939 e30c
00000030: 0921 3bd1 ea0b 0bb7 e216 29f5 0108 e5fe
00000040: f100 f522 31df 1df6 ed06 df0d f200 f402
00000050: 21f4 f9cd 150b 09d8 04f7 0628 f3d8 eee9
00000060: fb1e e4cc d5ed d907 f410 e03e 01f6 fafa
00000070: eb1b 1501 02f4 f925 fcf1 edfc faef ffdf
00000080: 16fa da0a f7f0 16eb efe6 020a f116 000f
00000090: d2f6 22e6 e24e 18f8 10fa fb1a 25f7 03cf
000000a0: 02da 132e 13e6 fe17 fa15 dfd2 14fc ef0d
000000b0: 18e4 0300 f00d fa05 eefe e0fb ea12 0a09
000000c0: 0d0e 0506 a500 3438 7ff7 4dd7 4304 f10e
000000d0: fa01 0cd8 2cfc 19f5 ef21 1811 110a f71b
000000e0: 1908 073b e50c 2ff7 ee31 0c10 f6da f3f3
000000f0: 0725 1802 e1f2 1b01 2c13 fc00 2418 0f0b

model/depthwise_conv2d_8/depthwise i1 [1, 3, 3, 352]
-35 42 42 -38 11 9 3 42
47 34 -32 -18 -22 -43 35 40
-13 44 49 44 40 56 37 33
-48 -41 44 -24 -39 47 45 42
4 35 23 50 37 32 -30 38
-25 -29 63 40 43 46 32 -35
-30 46 -44 45 35 29 43 43
39 37 33 52 3 -30 -24 -42
55 47 -91 -47 38 -31 -30 26
-26 -28 41 -70 -22 -31 42 39
-35 43 -41 42 -32 53 -55 20
12 -27 45 55 -29 47 -46 -37
-26 35 49 40 35 43 28 -16
-26 36 -35 37 14 -32 46 52
-25 51 -29 37 55 -27 39 47
-23 28 27 13 32 25 35 -74
-43 35 26 -20 -27 -23 43 -34
33 20 19 -32 -42 -32 4 41
-33 42 34 44 43 39 56 43
50 38 35 17 41 -41 -31 48
43 45 -45 -56 -34 -31 22 -27
45 36 50 40 45 -18 55 61
-16 41 -17 30 -12 43 -29 8
-35 56 32 47 34 -32 35 34
-41 44 40 -26 -35 -41 -18 39
-43 40 50 45 43 47 56 41
42 37 40 39 46 36 46 44
49 5 46 -24 -36 -26 34 43
44 34 50 56 45 -24 -32 -27
-28 72 -29 -28 -23 39 3 45
-33 47 -22 -28 -20 -32 48 4
36 -22 -31 48 -31 34 34 34
00000000: dd2a 2ada 0b09 032a 2f22 e0ee ead5 2328
00000010: f32c 312c 2838 2521 d0d7 2ce8 d92f 2d2a
00000020: 0423 1732 2520 e226 e7e3 3f28 2b2e 20dd
00000030: e22e d42d 231d 2b2b 2725 2134 03e2 e8d6
00000040: 372f a5d1 26e1 e21a e6e4 29ba eae1 2a27
00000050: dd2b d72a e035 c914 0ce5 2d37 e32f d2db
00000060: e623 3128 232b 1cf0 e624 dd25 0ee0 2e34
00000070: e733 e325 37e5 272f e91c 1b0d 2019 23b6
00000080: d523 1aec e5e9 2bde 2114 13e0 d6e0 0429
00000090: df2a 222c 2b27 382b 3226 2311 29d7 e130
000000a0: 2b2d d3c8 dee1 16e5 2d24 3228 2dee 373d
000000b0: f029 ef1e f42b e308 dd38 202f 22e0 2322
000000c0: d72c 28e6 ddd7 ee27 d528 322d 2b2f 3829
000000d0: 2a25 2827 2e24 2e2c 3105 2ee8 dce6 222b
000000e0: 2c22 3238 2de8 e0e5 e448 e3e4 e927 032d
000000f0: df2f eae4 ece0 3004 24ea e130 e122 2222

model/conv2d_26/Conv2D i1 [352, 1, 1, 176]
-122 11 -20 10 68 -23 4 27
-12 -68 41 21 -33 31 71 -70
6 -35 -6 -15 -29 -16 -2 34
-33 -20 11 13 71 6 -42 54
46 28 -18 60 -20 -10 -10 23
12 -5 12 -11 -5 28 51 14
30 68 -2 -29 50 -41 3 -30
-16 -46 -21 69 41 -79 -7 -29
-6 62 -7 -56 49 -1 -101 46
-16 41 14 30 -14 -21 98 26
61 26 -92 2 -90 29 -24 -19
-28 61 -24 -16 -84 -53 4 -67
26 48 31 56 -31 15 12 -23
11 -17 -26 -8 -70 0 26 15
9 62 22 60 7 7 7 21
84 -32 -18 29 -60 15 44 -28
-76 35 -31 10 78 40 21 67
-47 8 -22 5 -90 53 -35 127
59 -20 72 -43 -69 16 22 -67
35 63 -25 -4 -1 31 13 -57
-93 -25 39 44 3 14 -37 -13
17 -42 -57 -8 -1 2 -45 31
3 -12 -19 76 -20 3 34 35
30 -94 -94 -33 38 16 -3 -4
-17 16 38 112 25 15 -21 64
15 -84 -7 34 -11 -34 -24 26
-59 29 -52 27 53 38 -56 1
33 0 21 2 -48 -98 -7 12
125 -8 2 -3 13 0 31 -56
-52 -22 18 -30 -25 -25 -98 -16
-4 6 21 -38 -72 35 -15 5
28 -68 31 -48 -54 -9 -13 -18
00000000: 860b ec0a 44e9 041b f4bc 2915 df1f 47ba
00000010: 06dd faf1 e3f0 fe22 dfec 0b0d 4706 d636
00000020: 2e1c ee3c ecf6 f617 0cfb 0cf5 fb1c 330e
00000030: 1e44 fee3 32d7 03e2 f0d2 eb45 29b1 f9e3
00000040: fa3e f9c8 31ff 9b2e f029 0e1e f2eb 621a
00000050: 3d1a a402 a61d e8ed e43d e8f0 accb 04bd
00000060: 1a30 1f38 e10f 0ce9 0bef e6f8 ba00 1a0f
00000070: 093e 163c 0707 0715 54e0 ee1d c40f 2ce4
00000080: b423 e10a 4e28 1543 d108 ea05 a635 dd7f
00000090: 3bec 48d5 bb10 16bd 233f e7fc ff1f 0dc7
000000a0: a3e7 272c 030e dbf3 11d6 c7f8 ff02 d31f
000000b0: 03f4 ed4c ec03 2223 1ea2 a2df 2610 fdfc
000000c0: ef10 2670 190f eb40 0fac f922 f5de e81a
000000d0: c51d cc1b 3526 c801 2100 1502 d09e f90c
000000e0: 7df8 02fd 0d00 1fc8 ccea 12e2 e7e7 9ef0
000000f0: fc06 15da b823 f105 1cbc 1fd0 caf7 f3ee

model/conv2d_25/Conv2D i1 [176, 1, 1, 400]
2 -17 6 5 17 22 8 -10
-26 38 -2 -10 -10 -45 20 5
-10 -9 -2 26 -1 25 -38 -12
29 -12 33 57 -37 6 9 15
-6 5 12 -11 -64 -15 -20 42
0 -64 -1 16 -15 15 29 -37
6 -3 -5 -6 -28 12 8 -33
3 -11 -8 -23 13 -40 11 -15
-8 -25 33 -8 -5 -15 19 -5
-26 3 11 -23 26 -22 22 -18
-39 -56 13 -8 -34 16 40 1
13 -5 -32 14 -47 -15 -9 -38
-19 3 -28 4 -7 10 -67 15
-4 -22 -6 -19 13 -31 35 -14
24 15 -31 -54 9 7 3 16
30 -46 9 30 -43 16 -5 0
-32 -9 -10 -28 32 9 -33 -8
-8 2 43 5 8 40 -23 -19
32 -19 -8 -8 46 -7 4 -11
16 -22 -5 17 8 31 -10 11
-28 -11 -9 10 -34 42 -37 11
-44 2 9 -5 -1 45 2 -15
22 14 7 13 -29 -8 -9 37
3 -26 -3 5 -16 10 -16 33
15 12 -15 3 15 -2 15 25
-3 4 4 -43 -51 -7 20 -9
-18 -13 28 11 12 -7 28 -4
8 46 1 6 -19 -1 -22 -2
41 -18 -12 -13 14 -29 4 -29
-21 15 39 5 -26 -7 -17 -15
-23 34 -28 39 -36 21 14 -1
-16 -33 10 -23 14 -5 10 45
00000000: 02ef 0605 1116 08f6 e626 fef6 f6d3 1405
00000010: f6f7 fe1a ff19 daf4 1df4 2139 db06 090f
00000020: fa05 0cf5 c0f1 ec2a 00c0 ff10 f10f 1ddb
00000030: 06fd fbfa e40c 08df 03f5 f8e9 0dd8 0bf1
00000040: f8e7 21f8 fbf1 13fb e603 0be9 1aea 16ee
00000050: d9c8 0df8 de10 2801 0dfb e00e d1f1 f7da
00000060: ed03 e404 f90a bd0f fcea faed 0de1 23f2
00000070: 180f e1ca 0907 0310 1ed2 091e d510 fb00
00000080: e0f7 f6e4 2009 dff8 f802 2b05 0828 e9ed
00000090: 20ed f8f8 2ef9 04f5 10ea fb11 081f f60b
000000a0: e4f5 f70a de2a db0b d402 09fb ff2d 02f1
000000b0: 160e 070d e3f8 f725 03e6 fd05 f00a f021
000000c0: 0f0c f103 0ffe 0f19 fd04 04d5 cdf9 14f7
000000d0: eef3 1c0b 0cf9 1cfc 082e 0106 edff eafe
000000e0: 29ee f4f3 0ee3 04e3 eb0f 2705 e6f9 eff1
000000f0: e922 e427 dc15 0eff f0df 0ae9 0efb 0a2d

model/conv2d_24/Conv2D1 i1 [400, 1, 1, 64]
11 -71 -22 2 10 -52 -77 16
-35 29 -13 10 5 9 -56 -13
-56 -42 -19 -13 -28 -59 61 -8
48 13 26 -18 -19 -50 -75 -86
-70 -36 -19 -118 -63 -23 -48 -67
-16 -49 16 -74 18 -38 -2 14
127 22 -30 -34 -13 83 -15 -25
-77 -75 -16 25 -9 93 17 -2
74 45 -6 -25 62 -37 40 0
22 -127 -9 -38 -8 47 -12 -17
49 -59 -17 -26 -72 -29 96 -27
-49 56 -59 4 -78 -18 -13 -12
-71 -13 14 6 -40 19 -52 4
-5 11 -104 -33 -39 -18 -28 -52
-9 -97 -19 -18 88 41 -80 -49
-27 -6 103 16 -107 -53 16 -42
-17 -31 -2 -1 -23 1 -8 -1
25 73 -18 -19 -57 -18 0 -5
-23 3 -10 -42 -33 -19 -19 -127
31 -14 -29 3 -19 15 9 -108
18 38 -12 56 88 15 -46 -22
-96 24 -13 -7 -26 -32 -12 4
-19 51 3 -81 -12 -7 -41 -68
-2 -18 12 -100 -50 -24 20 -35
46 13 -2 0 -25 -39 43 -13
62 -42 31 -72 -56 -19 -32 -1
-35 -105 -8 -2 -37 -4 15 -44
-42 -53 51 -7 8 -15 44 37
-26 11 12 6 5 3 -15 -39
-61 1 -24 24 -30 -51 -36 -19
-27 -42 -17 -127 -59 -55 -61 3
83 -49 15 -3 -27 -67 -46 -35
00000000: 0bb9 ea02 0acc b310 dd1d f30a 0509 c8f3
00000010: c8d6 edf3 e4c5 3df8 300d 1aee edce b5aa
00000020: badc ed8a c1e9 d0bd f0cf 10b6 12da fe0e
00000030: 7f16 e2de f353 f1e7 b3b5 f019 f75d 11fe
00000040: 4a2d fae7 3edb 2800 1681 f7da f82f f4ef
00000050: 31c5 efe6 b8e3 60e5 cf38 c504 b2ee f3f4
00000060: b9f3 0e06 d813 cc04 fb0b 98df d9ee e4cc
00000070: f79f edee 5829 b0cf e5fa 6710 95cb 10d6
00000080: efe1 feff e901 f8ff 1949 eeed c7ee 00fb
00000090: e903 f6d6 dfed ed81 1ff2 e303 ed0f 0994
000000a0: 1226 f438 580f d2ea a018 f3f9 e6e0 f404
000000b0: ed33 03af f4f9 d7bc feee 0c9c cee8 14dd
000000c0: 2e0d fe00 e7d9 2bf3 3ed6 1fb8 c8ed e0ff
000000d0: dd97 f8fe dbfc 0fd4 d6cb 33f9 08f1 2c25
000000e0: e60b 0c06 0503 f1d9 c301 e818 e2cd dced
000000f0: e5d6 ef81 c5c9 c303 53cf 0ffd e5bd d2dd

model/conv2d_23/Conv2D1 i1 [64, 1, 1, 400]
0 51 -29 -50 -22 -15 35 -42
0 9 -39 80 -47 -24 -2 19
79 -5 -44 -99 36 -31 29 -44
35 14 -37 23 85 9 -8 -17
29 -33 -66 20 -69 43 31 8
48 -79 16 -43 56 7 16 -8
-39 -59 12 -42 -14 -37 60 -16
-24 -5 25 -32 18 31 57 -120
4 -40 -25 -50 7 -48 12 -27
65 -81 -21 42 28 -13 30 13
-30 -10 -51 62 14 18 37 -59
-5 33 9 28 -21 0 3 42
27 -22 41 56 -50 0 -57 36
0 -69 33 28 -5 -4 -55 38
4 -2 24 21 52 10 -6 65
-13 13 -3 -38 -53 -36 28 -29
13 -6 -12 30 -44 37 -11 13
-36 32 -36 15 -46 66 36 -9
-36 48 -64 64 11 -26 -27 -13
-43 21 23 36 14 -45 -75 26
-32 -20 41 49 21 -12 -10 -49
58 62 19 127 -57 46 17 104
35 -9 -31 82 -3 -5 -22 -52
41 -3 -49 -56 24 24 -8 74
-26 101 6 -44 -36 -7 84 -1
80 -67 -127 3 32 -73 -29 -85
-21 18 28 -13 18 -57 -63 -31
8 -33 13 -6 -59 -53 -4 10
-43 1 1 31 34 -20 10 -3
-48 39 30 65 -28 4 -13 10
-38 40 -45 -55 -51 -74 -12 7
-35 28 8 -3 -11 -48 12 76
00000000: 0033 e3ce eaf1 23d6 0009 d950 d1e8 fe13
00000010: 4ffb d49d 24e1 1dd4 230e db17 5509 f8ef
00000020: 1ddf be14 bb2b 1f08 30b1 10d5 3807 10f8
00000030: d9c5 0cd6 f2db 3cf0 e8fb 19e0 121f 3988
00000040: 04d8 e7ce 07d0 0ce5 41af eb2a 1cf3 1e0d
00000050: e2f6 cd3e 0e12 25c5 fb21 091c eb00 032a
00000060: 1bea 2938 ce00 c724 00bb 211c fbfc c926
00000070: 04fe 1815 340a fa41 f30d fdda cbdc 1ce3
00000080: 0dfa f41e d425 f50d dc20 dc0f d242 24f7
00000090: dc30 c040 0be6 e5f3 d515 1724 0ed3 b51a
000000a0: e0ec 2931 15f4 f6cf 3a3e 137f c72e 1168
000000b0: 23f7 e152 fdfb eacc 29fd cfc8 1818 f84a
000000c0: e665 06d4 dcf9 54ff 50bd 8103 20b7 e3ab
000000d0: eb12 1cf3 12c7 c1e1 08df 0dfa c5cb fc0a
000000e0: d501 011f 22ec 0afd d027 1e41 e404 f30a
000000f0: da28 d3c9 cdb6 f407 dd1c 08fd f5d0 0c4c

model/depthwise_conv2d_7/depthwise i1 [1, 3, 3, 400]
-71 24 13 -25 -4 15 -3 8
1 18 -5 -5 11 5 -23 13
41 -9 58 -12 9 13 -2 -12
14 21 -55 5 11 15 2 -1
-16 3 -8 -56 24 7 -10 0
-5 -19 -24 -27 13 117 17 0
23 -63 -1 -61 28 -11 30 25
2 -5 78 0 2 -22 -7 33
-17 8 -3 -12 10 -5 -6 -13
2 -8 -5 33 11 -12 3 51
-9 -7 67 -3 2 3 -17 48
-5 -36 -12 -3 -12 49 -1 -41
-25 0 0 -25 -10 -2 -3 -7
-13 -3 0 -2 0 6 45 11
2 33 -2 -18 18 -4 15 27
-7 10 -21 43 4 32 21 3
32 0 -11 -13 -4 -11 51 -1
6 -74 75 -7 37 5 8 14
58 -19 -23 -14 -69 5 -17 -1
90 11 34 22 -13 3 -21 -3
2 12 23 26 -11 -2 -6 -10
59 -5 10 -19 -84 55 21 -3
11 -3 -18 -42 -2 82 11 61
-31 -1 92 45 -63 10 -37 35
-6 10 6 29 -51 26 -6 24
0 -2 -10 8 -8 -11 -39 -5
1 -30 89 9 34 11 21 -4
-18 -28 12 -3 -125 -3 -6 -51
6 4 8 3 24 -23 15 -12
-10 -16 -14 0 13 -14 64 -18
-16 -11 0 21 -20 -57 8 -7
-5 36 56 -44 -31 9 1 44
00000000: b918 0de7 fc0f fd08 0112 fbfb 0b05 e90d
00000010: 29f7 3af4 090d fef4 0e15 c905 0b0f 02ff
00000020: f003 f8c8 1807 f600 fbed e8e5 0d75 1100
00000030: 17c1 ffc3 1cf5 1e19 02fb 4e00 02ea f921
00000040: ef08 fdf4 0afb faf3 02f8 fb21 0bf4 0333
00000050: f7f9 43fd 0203 ef30 fbdc f4fd f431 ffd7
00000060: e700 00e7 f6fe fdf9 f3fd 00fe 0006 2d0b
00000070: 0221 feee 12fc 0f1b f90a eb2b 0420 1503
00000080: 2000 f5f3 fcf5 33ff 06b6 4bf9 2505 080e
00000090: 3aed e9f2 bb05 efff 5a0b 2216 f303 ebfd
000000a0: 020c 171a f5fe faf6 3bfb 0aed ac37 15fd
000000b0: 0bfd eed6 fe52 0b3d e1ff 5c2d c10a db23
000000c0: fa0a 061d cd1a fa18 00fe f608 f8f5 d9fb
000000d0: 01e2 5909 220b 15fc eee4 0cfd 83fd facd
000000e0: 0604 0803 18e9 0ff4 f6f0 f200 0df2 40ee
000000f0: f0f5 0015 ecc7 08f9 fb24 38d4 e109 012c

model/conv2d_22/Conv2D i1 [400, 1, 1, 176]
10 2 -45 -33 2 -43 -1 -28
5 20 28 9 -69 -43 -50 54
8 3 -24 -8 37 -19 -5 -68
23 17 -17 -9 5 19 -44 -10
24 -46 79 4 5 -14 8 0
-26 -18 -98 -3 -30 -33 -23 20
-21 -31 -40 13 -29 50 -70 61
-3 88 -1 48 17 80 -42 25
30 55 23 12 -29 -77 23 4
36 13 21 -42 -57 25 49 10
-45 58 -14 29 -18 -12 65 -1
-19 29 28 -67 23 -18 34 4
57 38 -1 -5 -33 -37 78 44
11 -15 5 -19 23 -25 -34 -6
36 18 -31 5 11 -34 8 47
-24 -11 -5 50 24 -5 -12 -32
-2 -36 3 20 -10 -3 -88 -14
24 -11 -2 107 48 7 50 44
9 -10 22 8 -37 43 29 7
-10 -7 17 -127 59 -47 62 -44
-16 53 -22 -13 7 47 11 -11
-20 34 -51 -74 32 26 -23 1
0 -26 29 -14 18 26 13 16
-2 4 -8 -28 80 24 12 -1
-6 -15 -10 5 32 -50 55 -24
78 18 33 15 20 30 -45 13
-71 -37 11 -11 -37 52 -9 -27
1 -1 39 -105 55 47 -3 -18
-6 -17 15 -21 -35 33 -27 -78
-7 -24 28 -55 -32 53 11 -7
26 -2 13 -43 50 -13 -45 4
17 -34 -29 -7 -58 -15 -8 -9
00000000: 0a02 d3df 02d5 ffe4 0514 1c09 bbd5 ce36
00000010: 0803 e8f8 25ed fbbc 1711 eff7 0513 d4f6
00000020: 18d2 4f04 05f2 0800 e6ee 9efd e2df e914
00000030: ebe1 d80d e332 ba3d fd58 ff30 1150 d619
00000040: 1e37 170c e3b3 1704 240d 15d6 c719 310a
00000050: d33a f21d eef4 41ff ed1d 1cbd 17ee 2204
00000060: 3926 fffb dfdb 4e2c 0bf1 05ed 17e7 defa
00000070: 2412 e105 0bde 082f e8f5 fb32 18fb f4e0
00000080: fedc 0314 f6fd a8f2 18f5 fe6b 3007 322c
00000090: 09f6 1608 db2b 1d07 f6f9 1181 3bd1 3ed4
000000a0: f035 eaf3 072f 0bf5 ec22 cdb6 201a e901
000000b0: 00e6 1df2 121a 0d10 fe04 f8e4 5018 0cff
000000c0: faf1 f605 20ce 37e8 4e12 210f 141e d30d
000000d0: b9db 0bf5 db34 f7e5 01ff 2797 372f fdee
000000e0: faef 0feb dd21 e5b2 f9e8 1cc9 e035 0bf9
000000f0: 1afe 0dd5 32f3 d304 11de e3f9 c6f1 f8f7

model/conv2d_21/Conv2D i1 [176, 1, 1, 224]
20 -3 -14 -17 18 -9 24 -9
-56 -9 -10 -9 -16 14 -3 -1
-13 2 -15 11 7 -8 -27 2
13 17 4 -7 22 7 11 18
5 21 17 4 -3 1 11 42
6 -36 -7 -5 -1 -9 -44 -27
-108 7 1 22 37 -26 13 -8
43 58 -13 25 8 44 -21 43
-9 13 -9 4 11 -8 20 26
1 -23 -18 25 -7 -21 -24 -9
26 21 20 15 12 14 9 0
7 -11 -4 15 -3 -98 18 18
-9 -10 19 0 2 9 -15 -21
35 -8 7 -42 2 -11 -11 -3
-19 -59 3 4 -33 27 -2 5
42 22 16 8 -6 16 1 20
-15 -6 7 12 5 -23 6 -27
-16 -27 -35 -25 16 21 1 12
13 -1 -18 -43 5 -30 -30 8
13 -44 -19 35 2 -9 15 -75
3 -13 -19 10 -7 -20 23 11
1 -9 -2 24 -30 2 26 -15
-18 11 -9 -21 19 -35 24 -21
-57 -9 12 -1 -15 -23 -27 20
29 11 36 1 -23 -2 -58 -13
-4 -19 -18 -4 26 -16 -1 18
-32 10 15 -7 4 -23 -6 -127
-14 -17 23 12 28 11 17 15
-24 45 27 47 4 -36 15 -11
-15 -22 -1 -7 -52 20 -6 13
-34 27 7 25 20 88 29 94
19 -30 -77 82 10 -44 -64 -59
00000000: 14fd f2ef 12f7 18f7 c8f7 f6f7 f00e fdff
00000010: f302 f10b 07f8 e502 0d11 04f9 1607 0b12
00000020: 0515 1104 fd01 0b2a 06dc f9fb fff7 d4e5
00000030: 9407 0116 25e6 0df8 2b3a f319 082c eb2b
00000040: f70d f704 0bf8 141a 01e9 ee19 f9eb e8f7
00000050: 1a15 140f 0c0e 0900 07f5 fc0f fd9e 1212
00000060: f7f6 1300 0209 f1eb 23f8 07d6 02f5 f5fd
00000070: edc5 0304 df1b fe05 2a16 1008 fa10 0114
00000080: f1fa 070c 05e9 06e5 f0e5 dde7 1015 010c
00000090: 0dff eed5 05e2 e208 0dd4 ed23 02f7 0fb5
000000a0: 03f3 ed0a f9ec 170b 01f7 fe18 e202 1af1
000000b0: ee0b f7eb 13dd 18eb c7f7 0cff f1e9 e514
000000c0: 1d0b 2401 e9fe c6f3 fced eefc 1af0 ff12
000000d0: e00a 0ff9 04e9 fa81 f2ef 170c 1c0b 110f
000000e0: e82d 1b2f 04dc 0ff5 f1ea fff9 cc14 fa0d
000000f0: de1b 0719 1458 1d5e 13e2 b352 0ad4 c0c5

model/conv2d_20/Conv2D1 i1 [224, 1, 1, 40]
-56 -7 4 39 -19 -7 -15 -6
-21 -121 11 -29 12 -6 -24 -116
-116 50 -40 35 9 -1 -76 -15
20 -24 -39 -14 -28 -20 -72 -127
16 -50 17 40 78 29 -114 56
-108 4 -11 -2 -21 13 -7 2
0 -17 -9 -26 -3 -45 -12 7
-28 -13 -81 32 -18 -63 -18 -22
1 8 -60 -127 29 -23 -10 -35
-17 27 -47 17 -18 -9 12 28
4 -94 -35 89 6 10 -44 20
-37 14 59 -32 -103 57 -30 46
-17 -20 -15 -56 -17 -92 -39 -85
-30 -43 -56 -6 -56 -101 -37 16
-127 22 -50 12 13 49 -45 -31
-65 -49 -76 -127 1 21 55 -26
-22 -2 -35 11 -56 6 5 -38
-12 4 -23 36 -16 -28 23 -56
-39 9 -114 39 -94 -41 4 -28
-10 23 -94 0 -29 -37 27 107
8 109 -34 127 10 5 1 -99
-10 17 9 -43 49 82 -16 42
3 -37 -3 -15 -74 8 43 18
56 -33 -98 43 -41 2 -28 -17
-70 -16 -1 0 -25 -31 -28 35
-1 12 -16 27 -10 7 29 -15
-22 12 -25 -9 -7 -2 -8 37
-127 15 -6 -19 -47 -20 -54 17
-27 28 5 -10 5 -18 51 -10
45 0 20 -85 19 59 88 -13
9 4 7 -5 -19 -69 32 12
12 -27 8 -6 2 12 -20 16
00000000: c8f9 0427 edf9 f1fa eb87 0be3 0cfa e88c
00000010: 8c32 d823 09ff b4f1 14e8 d9f2 e4ec b881
00000020: 10ce 1128 4e1d 8e38 9404 f5fe eb0d f902
00000030: 00ef f7e6 fdd3 f407 e4f3 af20 eec1 eeea
00000040: 0108 c481 1de9 f6dd ef1b d111 eef7 0c1c
00000050: 04a2 dd59 060a d414 db0e 3be0 9939 e22e
00000060: efec f1c8 efa4 d9ab e2d5 c8fa c89b db10
00000070: 8116 ce0c 0d31 d3e1 bfcf b481 0115 37e6
00000080: eafe dd0b c806 05da f404 e924 f0e4 17c8
00000090: d909 8e27 a2d7 04e4 f617 a200 e3db 1b6b
000000a0: 086d de7f 0a05 019d f611 09d5 3152 f02a
000000b0: 03db fdf1 b608 2b12 38df 9e2b d702 e4ef
000000c0: baf0 ff00 e7e1 e423 ff0c f01b f607 1df1
000000d0: ea0c e7f7 f9fe f825 810f faed d1ec ca11
000000e0: e51c 05f6 05ee 33f6 2d00 14ab 133b 58f3
000000f0: 0904 07fb edbb 200c 0ce5 08fa 020c ec10

model/conv2d_19/Conv2D1 i1 [40, 1, 1, 224]
-40 -45 4 -45 32 7 -1 -25
0 53 -34 11 3 16 -6 9
-32 31 39 21 11 1 11 -30
-6 2 -21 32 0 -26 -9 3
33 3 -25 -8 19 6 9 33
10 40 20 -15 3 -42 -35 32
-14 6 -28 8 -5 10 26 2
5 0 20 -4 10 -3 19 3
-9 13 43 -16 -20 -21 66 -98
24 -16 -11 7 -37 11 9 -19
-13 -37 -33 -30 -65 10 -45 -9
-8 -13 -53 -17 -80 -49 9 11
11 -27 -30 6 26 1 7 2
-3 5 -41 -43 10 8 -14 13
-1 -23 18 -93 -20 57 85 14
11 -21 29 52 -15 8 80 40
-19 -2 -4 4 -29 -34 32 -14
29 10 62 41 -19 21 -39 -31
18 13 36 -20 -19 -22 59 -3
25 -5 -1 51 -40 14 16 -35
23 1 -1 16 -30 19 34 -32
-7 54 36 7 -42 -11 -22 -19
31 12 -14 -7 29 34 24 -28
-60 -19 6 2 0 7 21 64
-8 -1 18 -71 20 9 36 -11
-127 9 6 -30 -41 14 0 12
-4 -1 -39 -49 38 0 12 -52
22 14 2 27 26 -11 35 -43
11 -5 -41 -16 -29 -8 -17 -57
-7 -3 14 21 -10 11 54 14
-7 -11 6 -56 -24 9 -14 -28
9 7 19 -1 3 39 13 10
00000000: d8d3 04d3 2007 ffe7 0035 de0b 0310 fa09
00000010: e01f 2715 0b01 0be2 fa02 eb20 00e6 f703
00000020: 2103 e7f8 1306 0921 0a28 14f1 03d6 dd20
00000030: f206 e408 fb0a 1a02 0500 14fc 0afd 1303
00000040: f70d 2bf0 eceb 429e 18f0 f507 db0b 09ed
00000050: f3db dfe2 bf0a d3f7 f8f3 cbef b0cf 090b
00000060: 0be5 e206 1a01 0702 fd05 d7d5 0a08 f20d
00000070: ffe9 12a3 ec39 550e 0beb 1d34 f108 5028
00000080: edfe fc04 e3de 20f2 1d0a 3e29 ed15 d9e1
00000090: 120d 24ec edea 3bfd 19fb ff33 d80e 10dd
000000a0: 1701 ff10 e213 22e0 f936 2407 d6f5 eaed
000000b0: 1f0c f2f9 1d22 18e4 c4ed 0602 0007 1540
000000c0: f8ff 12b9 1409 24f5 8109 06e2 d70e 000c
000000d0: fcff d9cf 2600 0ccc 160e 021b 1af5 23d5
000000e0: 0bfb d7f0 e3f8 efc7 f9fd 0e15 f60b 360e
000000f0: f9f5 06c8 e809 f2e4 0907 13ff 0327 0d0a

model/depthwise_conv2d_6/depthwise i1 [1, 3, 3, 224]
-16 17 -2 33 57 16 -23 -12
19 7 15 44 37 -19 20 -3
17 -12 -49 37 -32 6 16 31
-31 33 10 24 -15 -10 25 -57
-23 -3 -5 -35 21 -18 5 -1
-26 -29 31 47 2 8 -17 2
-3 51 3 -29 -15 66 -50 21
-26 7 -31 11 37 17 -10 -23
-1 -37 -20 19 19 -76 6 -44
-16 -22 5 -24 -16 -25 52 4
-17 -33 5 -39 -2 -13 2 -51
-32 -32 15 -4 10 -7 -14 12
2 54 9 24 -4 -24 -11 54
-1 41 -3 21 -8 -35 33 -52
-6 -51 48 -10 -34 -44 -32 22
-11 34 -16 -12 13 39 -5 32
-2 -45 -11 -35 -6 6 -32 -8
26 -15 44 9 44 -24 24 10
-25 6 -5 32 67 -33 -21 20
2 0 -3 -16 14 29 -20 -26
-24 -44 -28 13 11 46 -23 39
11 -13 -13 -20 6 14 -23 50
-8 14 20 -13 -8 -38 -26 21
13 -38 9 15 18 29 -107 0
-35 -14 -15 -32 17 12 -11 -10
28 40 48 -12 20 -48 1 54
-13 -9 24 1 -17 7 -70 -17
9 -20 1 -74 -5 -1 -10 10
-60 48 42 81 0 56 -47 -46
56 54 44 -48 89 -62 40 -25
62 -55 10 3 -71 31 48 65
-68 72 33 90 -43 -58 52 -23
00000000: f011 fe21 3910 e9f4 1307 0f2c 25ed 14fd
00000010: 11f4 cf25 e006 101f e121 0a18 f1f6 19c7
00000020: e9fd fbdd 15ee 05ff e6e3 1f2f 0208 ef02
00000030: fd33 03e3 f142 ce15 e607 e10b 2511 f6e9
00000040: ffdb ec13 13b4 06d4 f0ea 05e8 f0e7 3404
00000050: efdf 05d9 fef3 02cd e0e0 0ffc 0af9 f20c
00000060: 0236 0918 fce8 f536 ff29 fd15 f8dd 21cc
00000070: facd 30f6 ded4 e016 f522 f0f4 0d27 fb20
00000080: fed3 f5dd fa06 e0f8 1af1 2c09 2ce8 180a
00000090: e706 fb20 43df eb14 0200 fdf0 0e1d ece6
000000a0: e8d4 e40d 0b2e e927 0bf3 f3ec 060e e932
000000b0: f80e 14f3 f8da e615 0dda 090f 121d 9500
000000c0: ddf2 f1e0 110c f5f6 1c28 30f4 14d0 0136
000000d0: f3f7 1801 ef07 baef 09ec 01b6 fbff f60a
000000e0: c430 2a51 0038 d1d2 3836 2cd0 59c2 28e7
000000f0: 3ec9 0a03 b91f 3041 bc48 215a d5c6 34e9

model/conv2d_18/Conv2D i1 [224, 1, 1, 88]
-5 5 13 -57 -12 -53 -15 20
-4 -44 -6 -21 65 9 9 -15
4 41 2 -16 -3 39 15 25
-5 24 8 3 3 -15 -127 26
12 2 -26 1 -6 -9 -14 11
2 2 -32 9 26 12 45 28
-7 -11 -7 7 -13 -30 -6 -10
-12 11 -11 -22 0 2 -30 -13
9 -6 96 1 1 11 11 -4
-52 -5 0 2 -4 13 -35 -2
-16 28 5 -5 22 -32 -79 13
4 -26 80 9 8 13 -13 -15
9 -38 36 -29 13 -28 -11 -4
-17 -16 -37 -47 62 3 -37 -2
-12 23 6 -26 99 -9 -22 36
1 14 14 -90 29 -6 31 -28
-36 127 -3 -10 51 -2 -10 4
11 24 32 1 27 18 15 20
-5 29 -42 -1 -16 -3 -27 116
14 42 -3 7 12 -102 -8 -21
0 -42 20 2 1 -33 -3 90
-9 -12 -20 10 21 -32 -9 -72
-17 -11 8 2 -1 26 -9 5
11 1 -6 13 7 2 18 -41
2 -4 -31 27 -5 -20 7 1
9 13 -32 -75 -10 -13 -14 33
7 -30 5 4 -6 -3 16 -33
9 5 5 3 26 -7 21 -26
127 -24 -42 5 -25 -51 5 23
39 2 -28 4 -5 -2 16 -15
12 -6 -10 -8 -23 5 6 -5
1 23 44 -12 -10 4 31 1
00000000: fb05 0dc7 f4cb f114 fcd4 faeb 4109 09f1
00000010: 0429 02f0 fd27 0f19 fb18 0803 03f1 811a
00000020: 0c02 e601 faf7 f20b 0202 e009 1a0c 2d1c
00000030: f9f5 f907 f3e2 faf6 f40b f5ea 0002 e2f3
00000040: 09fa 6001 010b 0bfc ccfb 0002 fc0d ddfe
00000050: f01c 05fb 16e0 b10d 04e6 5009 080d f3f1
00000060: 09da 24e3 0de4 f5fc eff0 dbd1 3e03 dbfe
00000070: f417 06e6 63f7 ea24 010e 0ea6 1dfa 1fe4
00000080: dc7f fdf6 33fe f604 0b18 2001 1b12 0f14
00000090: fb1d d6ff f0fd e574 0e2a fd07 0c9a f8eb
000000a0: 00d6 1402 01df fd5a f7f4 ec0a 15e0 f7b8
000000b0: eff5 0802 ff1a f705 0b01 fa0d 0702 12d7
000000c0: 02fc e11b fbec 0701 090d e0b5 f6f3 f221
000000d0: 07e2 0504 fafd 10df 0905 0503 1af9 15e6
000000e0: 7fe8 d605 e7cd 0517 2702 e404 fbfe 10f1
000000f0: 0cfa f6f8 e905 06fb 0117 2cf4 f604 1f01

model/conv2d_17/Conv2D1 i1 [88, 1, 1, 112]
-17 10 -5 7 -32 19 -103 14
-7 15 -9 -43 -11 -5 2 7
17 -24 -15 13 -33 -18 24 22
-7 -10 0 29 14 -2 -1 13
25 8 -18 -24 -7 28 -18 20
-6 -8 -22 -8 -3 12 12 2
-34 8 -1 1 7 36 127 -10
8 13 10 -13 -10 31 3 -5
-12 16 -5 -27 17 66 -6 16
-10 -16 7 7 4 5 14 -26
-103 53 -7 -9 16 -11 -4 -11
4 6 10 14 7 -12 -21 0
-38 10 6 34 27 44 21 -2
-20 -3 1 1 6 33 32 -8
-36 7 -8 -22 20 -4 -1 -4
1 3 10 -4 -8 0 -12 -4
9 -7 -32 9 -42 10 -2 -6
-35 10 -55 64 -10 -7 -4 -9
-1 7 6 -17 -20 -8 10 -31
6 -10 6 16 -8 -3 -1 -83
3 8 13 1 -15 -9 -17 -12
-4 -10 16 -4 3 19 -4 -1
2 -2 0 -45 -1 0 -10 0
6 -1 -7 10 13 11 -7 -2
26 -8 83 -8 -11 1 -4 -9
13 -2 -8 2 -3 -12 10 -7
20 0 -16 -9 -15 -16 1 -7
42 0 -13 -13 1 -127 8 6
-58 18 8 11 25 34 -39 1
6 56 3 -36 -27 8 13 29
-5 14 -37 -86 63 127 19 -8
-17 -83 -34 -17 -22 -38 -30 7
00000000: ef0a fb07 e013 990e f90f f7d5 f5fb 0207
00000010: 11e8 f10d dfee 1816 f9f6 001d 0efe ff0d
00000020: 1908 eee8 f91c ee14 faf8 eaf8 fd0c 0c02
00000030: de08 ff01 0724 7ff6 080d 0af3 f61f 03fb
00000040: f410 fbe5 1142 fa10 f6f0 0707 0405 0ee6
00000050: 9935 f9f7 10f5 fcf5 0406 0a0e 07f4 eb00
00000060: da0a 0622 1b2c 15fe ecfd 0101 0621 20f8
00000070: dc07 f8ea 14fc fffc 0103 0afc f800 f4fc
00000080: 09f9 e009 d60a fefa dd0a c940 f6f9 fcf7
00000090: ff07 06ef ecf8 0ae1 06f6 0610 f8fd ffad
000000a0: 0308 0d01 f1f7 eff4 fcf6 10fc 0313 fcff
000000b0: 02fe 00d3 ff00 f600 06ff f90a 0d0b f9fe
000000c0: 1af8 53f8 f501 fcf7 0dfe f802 fdf4 0af9
000000d0: 1400 f0f7 f1f0 01f9 2a00 f3f3 0181 0806
000000e0: c612 080b 1922 d901 0638 03dc e508 0d1d
000000f0: fb0e dbaa 3f7f 13f8 efad deef eada e207

model/conv2d_16/Conv2D1 i1 [112, 1, 1, 24]
127 55 4 -16 20 -58 81 60
30 79 -14 -7 -2 9 -75 -35
8 124 44 0 -33 -41 68 -33
30 127 51 -9 9 -81 25 -3
6 -23 14 -97 -38 -5 -17 68
-38 117 -46 35 52 13 6 17
35 -68 33 -8 30 9 17 13
4 6 -5 -127 12 71 -1 32
19 12 -20 72 -15 10 -32 -4
23 -40 -50 -39 12 58 -27 19
26 18 -12 15 -77 68 37 -72
-3 127 8 60 40 13 -36 6
20 36 -33 54 22 -30 7 89
-40 110 9 -71 127 86 85 91
6 66 -122 69 78 -28 -21 -39
-70 36 38 14 -35 -16 35 -9
-44 13 -22 32 -3 -32 36 50
-60 -27 -52 127 -37 -39 -92 -9
-29 34 32 1 19 9 -4 -39
-1 -51 -39 43 50 -2 37 -25
-54 -127 -11 -15 59 -11 25 38
20 33 -71 -54 2 97 12 40
45 51 -11 15 50 -114 52 -40
-87 127 -68 -45 -75 -52 -63 41
-26 -64 -14 -22 -12 2 3 66
16 -84 22 24 -88 -105 32 72
2 0 -67 6 1 127 -76 10
18 127 29 29 75 65 34 72
-17 62 41 -32 21 -21 62 71
37 -38 21 11 109 45 -25 19
-43 -11 -53 -53 -26 127 -60 -103
-30 -77 10 19 -25 -48 127 47
00000000: 7f37 04f0 14c6 513c 1e4f f2f9 fe09 b5dd
00000010: 087c 2c00 dfd7 44df 1e7f 33f7 09af 19fd
00000020: 06e9 0e9f dafb ef44 da75 d223 340d 0611
00000030: 23bc 21f8 1e09 110d 0406 fb81 0c47 ff20
00000040: 130c ec48 f10a e0fc 17d8 ced9 0c3a e513
00000050: 1a12 f40f b344 25b8 fd7f 083c 280d dc06
00000060: 1424 df36 16e2 0759 d86e 09b9 7f56 555b
00000070: 0642 8645 4ee4 ebd9 ba24 260e ddf0 23f7
00000080: d40d ea20 fde0 2432 c4e5 cc7f dbd9 a4f7
00000090: e322 2001 1309 fcd9 ffcd d92b 32fe 25e7
000000a0: ca81 f5f1 3bf5 1926 1421 b9ca 0261 0c28
000000b0: 2d33 f50f 328e 34d8 a97f bcd3 b5cc c129
000000c0: e6c0 f2ea f402 0342 10ac 1618 a897 2048
000000d0: 0200 bd06 017f b40a 127f 1d1d 4b41 2248
000000e0: ef3e 29e0 15eb 3e47 25da 150b 6d2d e713
000000f0: d5f5 cbcb e67f c499 e2b3 0a13 e7d0 7f2f

model/conv2d_15/Conv2D1 i1 [24, 1, 1, 112]
-5 46 -10 40 -61 64 38 21
-3 6 -127 55 29 123 -1 33
27 -21 42 43 -38 -35 26 58
30 100 44 10 -42 71 61 -6
-31 4 39 -50 -58 -14 56 53
-78 -4 -36 -23 -74 -13 -2 15
-32 47 1 51 49 -13 -9 -6
-6 17 17 -38 55 115 -59 -79
44 -4 -45 0 -51 42 -10 45
-51 61 9 -38 14 17 20 51
-57 -86 -8 39 18 -42 -63 -10
-59 29 5 44 -31 -20 -103 -3
6 -30 59 50 -31 -2 12 27
92 -59 33 -3 -2 -97 -78 -63
13 27 63 44 -21 -21 72 -42
26 17 28 22 28 3 -3 27
-4 32 30 -25 -16 7 -4 20
37 -26 7 -41 18 -43 -32 2
-1 14 -3 26 -24 -53 -42 -21
9 8 16 -28 -7 -2 -16 2
12 -68 19 -1 10 20 -42 9
29 8 -18 0 11 -4 -50 8
-127 -5 -42 54 -7 35 27 2
48 -17 34 -4 18 10 26 20
18 -29 0 34 10 6 -25 36
17 9 -17 -24 -5 55 -88 9
12 -52 3 26 -38 14 -43 -5
25 -15 8 24 33 -11 47 12
3 1 -24 50 -26 0 3 4
-2 3 -2 38 11 4 23 -3
-37 14 5 -97 58 5 -12 -46
35 -17 3 -7 -12 -12 12 17
00000000: fb2e f628 c340 2615 fd06 8137 1d7b ff21
00000010: 1beb 2a2b dadd 1a3a 1e64 2c0a d647 3dfa
00000020: e104 27ce c6f2 3835 b2fc dce9 b6f3 fe0f
00000030: e02f 0133 31f3 f7fa fa11 11da 3773 c5b1
00000040: 2cfc d300 cd2a f62d cd3d 09da 0e11 1433
00000050: c7aa f827 12d6 c1f6 c51d 052c e1ec 99fd
00000060: 06e2 3b32 e1fe 0c1b 5cc5 21fd fe9f b2c1
00000070: 0d1b 3f2c ebeb 48d6 1a11 1c16 1c03 fd1b
00000080: fc20 1ee7 f007 fc14 25e6 07d7 12d5 e002
00000090: ff0e fd1a e8cb d6eb 0908 10e4 f9fe f002
000000a0: 0cbc 13ff 0a14 d609 1d08 ee00 0bfc ce08
000000b0: 81fb d636 f923 1b02 30ef 22fc 120a 1a14
000000c0: 12e3 0022 0a06 e724 1109 efe8 fb37 a809
000000d0: 0ccc 031a da0e d5fb 19f1 0818 21f5 2f0c
000000e0: 0301 e832 e600 0304 fe03 fe26 0b04 17fd
000000f0: db0e 059f 3a05 f4d2 23ef 03f9 f4f4 0c11

model/depthwise_conv2d_5/depthwise i1 [1, 3, 3, 112]
17 -21 22 -8 30 -61 10 48
27 106 -14 22 -51 -2 21 -16
-26 15 -29 -36 -26 18 26 -29
-7 34 54 -11 -67 -46 -31 24
12 -41 -57 -17 -26 10 -49 -23
-3 0 -43 3 28 37 14 -22
3 0 -35 -8 37 -19 3 -18
3 7 -20 7 -20 -8 24 -58
50 25 -68 -16 15 -35 -24 26
13 -8 -29 -26 26 9 2 -27
3 -3 6 0 -22 75 14 -5
12 -11 -44 -88 50 21 29 4
-47 -20 8 31 6 -72 29 7
3 11 15 22 54 7 16 2
-51 -49 57 -38 -60 -13 45 95
42 26 -27 52 -9 -37 54 -48
-55 61 -80 -76 -62 36 64 -64
-33 96 83 -56 9 -119 -79 55
57 56 -109 -55 -44 28 -127 -50
5 20 -74 39 58 60 52 -83
27 -69 -53 -48 -2 -44 31 -46
-26 39 -48 14 -50 1 41 -107
107 63 -127 -64 24 -73 -60 58
48 -69 -62 -61 75 -4 45 -10
43 14 26 33 -61 -32 56 -42
50 -35 -94 -71 100 46 55 26
-7 -46 39 70 5 -116 97 22
-37 47 36 54 6 -42 45 23
28 -31 40 -26 23 78 32 64
32 -127 -20 33 58 -39 37 -27
-42 38 -64 -60 -36 -55 53 -37
-14 70 64 -44 65 -77 -56 38
00000000: 11eb 16f8 1ec3 0a30 1b6a f216 cdfe 15f0
00000010: e60f e3dc e612 1ae3 f922 36f5 bdd2 e118
00000020: 0cd7 c7ef e60a cfe9 fd00 d503 1c25 0eea
00000030: 0300 ddf8 25ed 03ee 0307 ec07 ecf8 18c6
00000040: 3219 bcf0 0fdd e81a 0df8 e3e6 1a09 02e5
00000050: 03fd 0600 ea4b 0efb 0cf5 d4a8 3215 1d04
00000060: d1ec 081f 06b8 1d07 030b 0f16 3607 1002
00000070: cdcf 39da c4f3 2d5f 2a1a e534 f7db 36d0
00000080: c93d b0b4 c224 40c0 df60 53c8 0989 b137
00000090: 3938 93c9 d41c 81ce 0514 b627 3a3c 34ad
000000a0: 1bbb cbd0 fed4 1fd2 e627 d00e ce01 2995
000000b0: 6b3f 81c0 18b7 c43a 30bb c2c3 4bfc 2df6
000000c0: 2b0e 1a21 c3e0 38d6 32dd a2b9 642e 371a
000000d0: f9d2 2746 058c 6116 db2f 2436 06d6 2d17
000000e0: 1ce1 28e6 174e 2040 2081 ec21 3ad9 25e5
000000f0: d626 c0c4 dcc9 35db f246 40d4 41b3 c826

model/conv2d_14/Conv2D i1 [112, 1, 1, 40]
16 -4 46 25 -2 -18 -79 0
-6 9 -26 -9 -25 -1 -12 -1
-2 24 -11 127 4 -25 19 0
2 50 29 76 106 94 32 -39
39 17 5 -10 -9 13 0 -104
-50 -75 54 40 56 -54 3 -41
28 19 -26 127 98 -51 -30 -21
-29 28 -16 -13 4 -80 -10 -25
-9 -34 -20 -33 -117 -14 32 -82
2 19 1 36 -49 39 33 -124
-71 5 -2 19 9 -3 1 -9
53 -11 13 -19 4 39 20 -95
-5 27 12 0 -54 -13 -9 83
-2 40 14 -13 -3 -2 2 5
-3 -64 12 -34 -127 -48 -13 -3
3 6 -68 -11 5 15 19 -38
-48 16 3 22 13 19 -16 -44
-30 -32 -36 8 -3 43 87 72
-103 -12 25 53 18 0 16 37
-65 109 -5 34 -31 91 127 41
-17 9 28 19 -24 1 38 -13
-29 37 -5 -23 -31 45 11 -84
32 -11 35 85 117 20 -12 -25
-45 21 9 86 -127 42 32 -65
-66 20 -1 0 -2 2 -74 -117
15 -37 36 -34 49 51 -83 28
-3 31 -17 4 33 38 0 -7
-7 -7 6 70 -26 -9 9 15
10 66 36 90 123 -1 16 18
-118 -10 8 -2 16 4 0 -127
17 -48 -19 127 -14 10 -4 40
-5 15 -7 35 118 25 22 11
00000000: 10fc 2e19 feee b100 fa09 e6f7 e7ff f4ff
00000010: fe18 f57f 04e7 1300 0232 1d4c 6a5e 20d9
00000020: 2711 05f6 f70d 0098 ceb5 3628 38ca 03d7
00000030: 1c13 e67f 62cd e2eb e31c f0f3 04b0 f6e7
00000040: f7de ecdf 8bf2 20ae 0213 0124 cf27 2184
00000050: b905 fe13 09fd 01f7 35f5 0ded 0427 14a1
00000060: fb1b 0c00 caf3 f753 fe28 0ef3 fdfe 0205
00000070: fdc0 0cde 81d0 f3fd 0306 bcf5 050f 13da
00000080: d010 0316 0d13 f0d4 e2e0 dc08 fd2b 5748
00000090: 99f4 1935 1200 1025 bf6d fb22 e15b 7f29
000000a0: ef09 1c13 e801 26f3 e325 fbe9 e12d 0bac
000000b0: 20f5 2355 7514 f4e7 d315 0956 812a 20bf
000000c0: be14 ff00 fe02 b68b 0fdb 24de 3133 ad1c
000000d0: fd1f ef04 2126 00f9 f9f9 0646 e6f7 090f
000000e0: 0a42 245a 7bff 1012 8af6 08fe 1004 0081
000000f0: 11d0 ed7f f20a fc28 fb0f f923 7619 160b

model/conv2d_13/Conv2D i1 [40, 1, 1, 72]
14 -23 0 -24 2 -3 -4 -5
-7 0 -6 -7 -18 -127 -1 35
-17 -5 1 24 -2 -40 -2 -19
32 -17 -37 -1 -4 3 1 33
2 -47 35 6 -63 -3 -14 11
2 8 -29 -6 16 27 -5 -5
-9 5 -25 -9 -19 -9 -1 0
7 -10 4 -4 42 -1 4 -6
19 7 6 8 0 -7 -41 18
-3 -12 0 1 6 3 -3 1
7 4 -3 -9 17 10 1 25
28 14 -86 20 -2 -36 1 -7
-127 10 14 13 1 -4 14 9
-6 14 15 9 12 21 2 2
5 0 18 -10 -111 48 1 -89
9 2 -17 2 -5 6 -12 4
11 6 13 -12 41 0 -69 2
15 13 -1 10 -42 -2 4 9
-15 -11 0 -16 20 -8 -1 -5
-24 -6 -9 -5 -9 4 -10 2
-3 -2 -6 -1 2 35 1 4
-16 -5 8 -24 -3 0 -7 -5
-127 3 -6 -29 -16 13 3 6
-5 -5 10 12 -3 -3 -1 -12
1 3 -13 -28 -3 -21 -2 8
11 -3 5 -18 -2 5 -8 -19
-6 -5 -5 -6 -9 -8 5 -3
-9 8 2 105 -6 1 -6 -3
-19 0 -3 1 4 0 3 -11
5 1 11 5 -4 -12 2 -6
2 11 0 -11 -1 -2 -18 -1
0 11 1 127 -7 2 -3 2
00000000: 0ee9 00e8 02fd fcfb f900 faf9 ee81 ff23
00000010: effb 0118 fed8 feed 20ef dbff fc03 0121
00000020: 02d1 2306 c1fd f20b 0208 e3fa 101b fbfb
00000030: f705 e7f7 edf7 ff00 07f6 04fc 2aff 04fa
00000040: 1307 0608 00f9 d712 fdf4 0001 0603 fd01
00000050: 0704 fdf7 110a 0119 1c0e aa14 fedc 01f9
00000060: 810a 0e0d 01fc 0e09 fa0e 0f09 0c15 0202
00000070: 0500 12f6 9130 01a7 0902 ef02 fb06 f404
00000080: 0b06 0df4 2900 bb02 0f0d ff0a d6fe 0409
00000090: f1f5 00f0 14f8 fffb e8fa f7fb f704 f602
000000a0: fdfe faff 0223 0104 f0fb 08e8 fd00 f9fb
000000b0: 8103 fae3 f00d 0306 fbfb 0a0c fdfd fff4
000000c0: 0103 f3e4 fdeb fe08 0bfd 05ee fe05 f8ed
000000d0: fafb fbfa f7f8 05fd f708 0269 fa01 fafd
000000e0: ed00 fd01 0400 03f5 0501 0b05 fcf4 02fa
000000f0: 020b 00f5 fffe eeff 000b 017f f902 fd02

model/conv2d_12/Conv2D1 i1 [72, 1, 1, 16]
-57 -55 -51 -65 4 -28 13 59
-127 24 -18 12 -51 -58 -54 23
10 -44 13 -127 -35 -13 -10 -30
-37 14 -26 -44 -32 -117 -10 34
-59 34 -123 -102 -23 17 -127 -50
-17 3 -14 -79 -65 55 -83 -26
127 -1 95 61 -44 -12 -25 -8
93 126 -28 -65 18 -20 -35 -73
88 -41 49 -36 -57 -127 -60 -67
-100 -49 -94 -90 -79 -38 -74 -24
-62 -18 127 -41 -29 -32 -45 -2
1 -22 -31 -40 4 32 -86 -7
30 -5 13 -48 -19 2 -35 32
33 60 66 -52 -70 -61 -13 127
-17 -12 -19 -27 -127 40 -22 -49
5 -36 -20 61 -66 -15 -24 52
-81 -86 -68 -125 -78 -69 -33 -2
44 67 -70 -127 -107 -125 -12 -20
47 -18 53 99 32 45 67 -33
10 90 -3 53 23 -72 127 -36
-12 -16 -21 -8 127 -69 -37 -5
-15 1 2 -119 44 -26 -7 14
-75 -31 -37 48 19 -11 -27 50
-36 -74 127 58 -4 -39 -42 -55
103 98 119 92 56 103 81 93
21 126 36 120 91 64 127 -51
-57 2 -55 -127 -41 -27 -53 -61
16 -97 -23 -74 -15 -43 -13 53
-15 -25 -18 -4 45 127 33 -6
-10 -110 -106 -74 -83 -75 -88 18
35 -22 2 -11 -2 19 -67 -54
-23 64 -43 -44 4 -13 -14 127
00000000: c7c9 cdbf 04e4 0d3b 8118 ee0c cdc6 ca17
00000010: 0ad4 0d81 ddf3 f6e2 db0e e6d4 e08b f622
00000020: c522 859a e911 81ce ef03 f2b1 bf37 ade6
00000030: 7fff 5f3d d4f4 e7f8 5d7e e4bf 12ec ddb7
00000040: 58d7 31dc c781 c4bd 9ccf a2a6 b1da b6e8
00000050: c2ee 7fd7 e3e0 d3fe 01ea e1d8 0420 aaf9
00000060: 1efb 0dd0 ed02 dd20 213c 42cc bac3 f37f
00000070: eff4 ede5 8128 eacf 05dc ec3d bef1 e834
00000080: afaa bc83 b2bb dffe 2c43 ba81 9583 f4ec
00000090: 2fee 3563 202d 43df 0a5a fd35 17b8 7fdc
000000a0: f4f0 ebf8 7fbb dbfb f101 0289 2ce6 f90e
000000b0: b5e1 db30 13f5 e532 dcb6 7f3a fcd9 d6c9
000000c0: 6762 775c 3867 515d 157e 2478 5b40 7fcd
000000d0: c702 c981 d7e5 cbc3 109f e9b6 f1d5 f335
000000e0: f1e7 eefc 2d7f 21fa f692 96b6 adb5 a812
000000f0: 23ea 02f5 fe13 bdca e940 d5d4 04f3 f27f

model/conv2d_11/Conv2D1 i1 [16, 1, 1, 72]
46 -15 44 31 -55 127 -18 2
17 -34 -57 2 -60 4 -12 -22
-47 -51 44 5 6 -72 16 33
-21 -54 -63 62 -53 -22 -35 -27
95 -55 -33 -26 24 0 -29 42
-35 -32 17 -38 -19 47 16 -47
-6 8 -35 28 -36 4 -49 17
67 43 -8 0 -40 -124 23 93
38 33 1 -55 -26 -33 54 -28
8 34 -30 -22 10 6 26 -1
15 -23 -13 -15 -26 0 2 -9
-18 -35 20 27 -2 4 18 16
9 -1 -39 41 127 -19 -17 -14
-6 -40 4 10 -3 7 -34 -14
-33 -23 23 -21 8 47 -94 -14
-6 -27 -33 -20 -16 48 -11 30
-49 3 15 10 -21 -2 25 19
28 3 25 -12 -15 19 -26 -15
39 7 18 -3 -25 -102 64 -2
2 6 -35 -32 -30 10 -2 -20
-41 -8 17 11 1 -9 46 -5
-11 -2 -16 51 -9 -11 -26 -10
37 -26 -19 -7 -2 4 -31 26
18 -26 39 -127 -17 13 -3 -12
-12 -21 -12 34 -20 8 3 -19
-64 50 5 36 -29 85 1 24
35 10 -15 -4 -13 15 22 7
55 44 39 -26 4 -10 -95 3
30 -77 42 -41 -102 -19 -37 -49
-88 -127 10 93 30 -48 73 -7
-62 50 -96 84 5 -60 -91 -80
19 -95 -19 32 44 -9 -51 -94
00000000: 2ef1 2c1f c97f ee02 11de c702 c404 f4ea
00000010: d1cd 2c05 06b8 1021 ebca c13e cbea dde5
00000020: 5fc9 dfe6 1800 e32a dde0 11da ed2f 10d1
00000030: fa08 dd1c dc04 cf11 432b f800 d884 175d
00000040: 2621 01c9 e6df 36e4 0822 e2ea 0a06 1aff
00000050: 0fe9 f3f1 e600 02f7 eedd 141b fe04 1210
00000060: 09ff d929 7fed eff2 fad8 040a fd07 def2
00000070: dfe9 17eb 082f a2f2 fae5 dfec f030 f51e
00000080: cf03 0f0a ebfe 1913 1c03 19f4 f113 e6f1
00000090: 2707 12fd e79a 40fe 0206 dde0 e20a feec
000000a0: d7f8 110b 01f7 2efb f5fe f033 f7f5 e6f6
000000b0: 25e6 edf9 fe04 e11a 12e6 2781 ef0d fdf4
000000c0: f4eb f422 ec08 03ed c032 0524 e355 0118
000000d0: 230a f1fc f30f 1607 372c 27e6 04f6 a103
000000e0: 1eb3 2ad7 9aed dbcf a881 0a5d 1ed0 49f9
000000f0: c232 a054 05c4 a5b0 13a1 ed20 2cf7 cda2

model/depthwise_conv2d_4/depthwise i1 [1, 3, 3, 72]
50 21 29 -29 26 28 -24 39
20 -1 2 -59 37 -21 -26 86
-28 29 18 20 -25 50 -32 -42
-15 -63 33 27 31 -50 -36 55
-36 -28 23 -53 28 18 3 41
69 9 -18 -34 8 -20 34 -36
24 -42 37 40 52 -32 -29 31
-65 -27 38 46 44 -36 23 35
25 12 -19 36 -56 -16 67 -16
58 63 66 -100 52 56 -55 71
44 33 58 -127 -62 -51 -61 -9
44 -62 48 44 -52 18 -66 -57
-34 -127 -72 52 59 118 -5 -127
-70 3 8 -96 65 63 15 93
-109 12 -41 -58 16 -54 58 -78
50 -63 -4 60 75 -63 -40 67
-127 -61 74 1 65 -62 63 74
54 45 -59 89 -112 -39 107 -56
33 48 43 -64 33 33 -31 46
24 -52 118 -86 45 -27 -42 -127
-31 30 28 23 -30 -116 -47 -38
-16 -66 28 22 36 -84 21 56
-41 65 -58 -69 38 46 1 52
26 7 -27 -30 7 -30 30 -45
29 -45 -63 27 56 -31 -42 44
-78 -30 51 -58 49 -39 38 49
33 29 -32 51 -65 -20 72 -32
88 55 68 -37 56 60 -54 68
61 22 65 42 -59 -51 -60 -17
59 -78 59 67 -60 54 -58 -80
-73 -45 -72 63 64 -2 93 6
-71 68 59 -83 67 57 -56 76
00000000: 3215 1de3 1a1c e827 14ff 02c5 25eb e656
00000010: e41d 1214 e732 e0d6 f1c1 211b 1fce dc37
00000020: dce4 17cb 1c12 0329 4509 eede 08ec 22dc
00000030: 18d6 2528 34e0 e31f bfe5 262e 2cdc 1723
00000040: 190c ed24 c8f0 43f0 3a3f 429c 3438 c947
00000050: 2c21 3a81 c2cd c3f7 2cc2 302c cc12 bec7
00000060: de81 b834 3b76 fb81 ba03 08a0 413f 0f5d
00000070: 930c d7c6 10ca 3ab2 32c1 fc3c 4bc1 d843
00000080: 81c3 4a01 41c2 3f4a 362d c559 90d9 6bc8
00000090: 2130 2bc0 2121 e12e 18cc 76aa 2de5 d681
000000a0: e11e 1c17 e28c d1da f0be 1c16 24ac 1538
000000b0: d741 c6bb 262e 0134 1a07 e5e2 07e2 1ed3
000000c0: 1dd3 c11b 38e1 d62c b2e2 33c6 31d9 2631
000000d0: 211d e033 bfec 48e0 5837 44db 383c ca44
000000e0: 3d16 412a c5cd c4ef 3bb2 3b43 c436 c6b0
000000f0: b7d3 b83f 40fe 5d06 b944 3bad 4339 c84c

model/conv2d_10/Conv2D i1 [72, 1, 1, 24]
-9 3 25 -4 0 -1 52 -9
-14 -42 -59 4 -14 -8 -46 15
2 8 -4 -119 127 14 77 62
14 -2 -10 6 4 6 17 -40
99 -48 5 -8 44 50 0 39
127 7 7 49 42 1 -61 53
0 -76 7 1 -127 -21 1 -20
2 -6 -27 -1 8 10 -13 -4
12 3 8 0 4 -6 7 1
14 -3 2 10 3 -79 -1 -1
2 -3 -12 2 2 13 -1 0
-1 11 -127 -10 5 -8 11 -2
-12 -127 6 -19 43 -106 31 -33
-26 8 0 -1 -2 9 -43 18
7 -7 70 21 -20 12 56 9
-7 127 5 2 15 28 -8 -24
-3 -8 -2 -4 0 -8 -1 9
4 -9 -14 -8 -14 -4 10 -1
-10 -17 -24 -7 -3 -9 -2 30
3 -74 -57 0 28 -8 -12 -45
-31 -24 -38 127 107 -14 -4 75
13 -2 5 -11 -1 2 -3 6
-13 2 14 -2 127 -6 -1 14
-27 -5 9 -8 -13 0 5 -19
19 -1 -23 0 0 -2 -4 10
15 20 -38 9 9 -2 -9 -26
-20 1 -8 54 127 -8 9 -2
3 115 -7 -8 127 -2 -10 -47
-4 28 47 -5 -9 -5 -38 13
5 17 -13 4 6 11 70 8
19 -1 0 -13 -1 2 -4 12
-16 2 13 0 127 -6 0 13
00000000: f703 19fc 00ff 34f7 f2d6 c504 f2f8 d20f
00000010: 0208 fc89 7f0e 4d3e 0efe f606 0406 11d8
00000020: 63d0 05f8 2c32 0027 7f07 0731 2a01 c335
00000030: 00b4 0701 81eb 01ec 02fa e5ff 080a f3fc
00000040: 0c03 0800 04fa 0701 0efd 020a 03b1 ffff
00000050: 02fd f402 020d ff00 ff0b 81f6 05f8 0bfe
00000060: f481 06ed 2b96 1fdf e608 00ff fe09 d512
00000070: 07f9 4615 ec0c 3809 f97f 0502 0f1c f8e8
00000080: fdf8 fefc 00f8 ff09 04f7 f2f8 f2fc 0aff
00000090: f6ef e8f9 fdf7 fe1e 03b6 c700 1cf8 f4d3
000000a0: e1e8 da7f 6bf2 fc4b 0dfe 05f5 ff02 fd06
000000b0: f302 0efe 7ffa ff0e e5fb 09f8 f300 05ed
000000c0: 13ff e900 00fe fc0a 0f14 da09 09fe f7e6
000000d0: ec01 f836 7ff8 09fe 0373 f9f8 7ffe f6d1
000000e0: fc1c 2ffb f7fb da0d 0511 f304 060b 4608
000000f0: 13ff 00f3 ff02 fc0c f002 0d00 7ffa 000d

model/conv2d_9/Conv2D i1 [24, 1, 1, 80]
-23 50 -18 22 -25 -23 24 -16
35 -57 27 -40 8 14 -20 -33
4 0 11 -41 -5 26 -79 14
28 35 -127 -13 -2 20 9 -3
-43 28 12 -38 48 -14 -29 26
-10 58 -23 31 -25 -21 -32 -6
-30 -21 -26 -27 0 -22 -36 7
27 -23 29 -105 -12 15 -50 4
49 -4 9 -7 -39 10 0 -78
33 55 -54 4 -4 -62 17 -23
25 19 4 11 -10 -13 0 33
-3 -9 13 -12 -1 -9 57 13
15 56 -41 -15 16 13 3 12
-15 -1 -1 4 0 -71 14 13
3 -16 9 -6 87 -9 32 8
0 -15 -21 54 6 7 -12 -127
-23 3 -5 14 -47 21 -113 66
-56 9 -6 2 6 12 -1 4
4 49 -78 23 8 -23 6 -1
-15 14 -20 72 -40 24 3 -19
114 -22 47 -32 86 115 50 27
110 -84 -16 -53 5 10 -16 110
-63 -4 -15 38 77 -74 73 -47
39 -12 63 -44 -1 -117 10 3
-7 43 -42 95 -107 -76 4 -61
58 33 100 -118 72 -74 -77 99
107 -30 0 16 -45 68 71 -60
-25 64 127 10 65 -20 -63 36
-106 52 -39 -36 -17 -85 2 15
-1 -7 -56 92 -1 -1 45 50
-42 -21 4 24 -66 20 -29 4
-6 -1 52 -9 16 -5 29 -7
00000000: e932 ee16 e7e9 18f0 23c7 1bd8 080e ecdf
00000010: 0400 0bd7 fb1a b10e 1c23 81f3 fe14 09fd
00000020: d51c 0cda 30f2 e31a f63a e91f e7eb e0fa
00000030: e2eb e6e5 00ea dc07 1be9 1d97 f40f ce04
00000040: 31fc 09f9 d90a 00b2 2137 ca04 fcc2 11e9
00000050: 1913 040b f6f3 0021 fdf7 0df4 fff7 390d
00000060: 0f38 d7f1 100d 030c f1ff ff04 00b9 0e0d
00000070: 03f0 09fa 57f7 2008 00f1 eb36 0607 f481
00000080: e903 fb0e d115 8f42 c809 fa02 060c ff04
00000090: 0431 b217 08e9 06ff f10e ec48 d818 03ed
000000a0: 72ea 2fe0 5673 321b 6eac f0cb 050a f06e
000000b0: c1fc f126 4db6 49d1 27f4 3fd4 ff8b 0a03
000000c0: f92b d65f 95b4 04c3 3a21 648a 48b6 b363
000000d0: 6be2 0010 d344 47c4 e740 7f0a 41ec c124
000000e0: 9634 d9dc efab 020f fff9 c85c ffff 2d32
000000f0: d6eb 0418 be14 e304 faff 34f7 10fb 1df9

model/conv2d_8/Conv2D1 i1 [80, 1, 1, 16]
-3 57 -33 102 -15 -91 115 -43
-63 -114 -127 108 -42 122 -27 -107
-98 -24 -14 -21 -85 -35 -127 -10
-21 30 -22 12 -29 59 80 -44
72 -9 13 -69 0 127 -40 1
16 -33 -47 54 36 -21 -19 -38
-42 -4 -11 -125 -72 -40 -11 125
16 -127 -1 102 87 10 -91 -61
37 -3 -14 69 -74 -29 127 -44
-39 -93 -12 59 -25 23 -1 -80
7 8 13 -109 -23 -52 55 -37
-10 -127 -35 44 16 82 -29 -21
52 -49 81 25 -39 55 59 -65
31 1 -89 -19 -99 59 -127 -77
53 -127 -12 -11 -34 -11 -19 1
4 13 -20 -12 -16 -31 -20 -12
119 56 68 -38 -59 127 37 1
-29 -15 -51 -35 -32 -119 22 -32
63 1 12 19 30 18 127 -117
-49 8 53 -6 37 9 -8 65
-127 -22 25 14 -11 -24 52 -15
-13 10 27 15 -1 -44 3 -37
30 -19 18 -127 23 26 41 19
-57 21 20 62 59 23 -23 -9
51 8 30 10 -102 -101 -95 18
-7 -24 -127 33 -23 -16 29 -59
43 -39 30 123 37 -11 -60 -11
100 -54 -127 5 -7 -25 7 -23
13 -12 -20 4 3 0 -3 3
-127 -25 -6 22 -23 3 -12 -10
-30 43 -17 -127 -21 -86 -11 24
5 -17 -94 -42 -12 71 -63 28
00000000: fd39 df66 f1a5 73d5 c18e 816c d67a e595
00000010: 9ee8 f2eb abdd 81f6 eb1e ea0c e33b 50d4
00000020: 48f7 0dbb 007f d801 10df d136 24eb edda
00000030: d6fc f583 b8d8 f57d 1081 ff66 570a a5c3
00000040: 25fd f245 b6e3 7fd4 d9a3 f43b e717 ffb0
00000050: 0708 0d93 e9cc 37db f681 dd2c 1052 e3eb
00000060: 34cf 5119 d937 3bbf 1f01 a7ed 9d3b 81b3
00000070: 3581 f4f5 def5 ed01 040d ecf4 f0e1 ecf4
00000080: 7738 44da c57f 2501 e3f1 cddd e089 16e0
00000090: 3f01 0c13 1e12 7f8b cf08 35fa 2509 f841
000000a0: 81ea 190e f5e8 34f1 f30a 1b0f ffd4 03db
000000b0: 1eed 1281 171a 2913 c715 143e 3b17 e9f7
000000c0: 3308 1e0a 9a9b a112 f9e8 8121 e9f0 1dc5
000000d0: 2bd9 1e7b 25f5 c4f5 64ca 8105 f9e7 07e9
000000e0: 0df4 ec04 0300 fd03 81e7 fa16 e903 f4f6
000000f0: e22b ef81 ebaa f518 05ef a2d6 f447 c11c

model/conv2d_7/Conv2D i1 [16, 1, 1, 80]
96 12 -3 30 7 -63 -57 -12
60 -13 -27 40 12 -67 -24 2
-4 -16 18 -12 24 -95 -4 -86
56 40 -31 -127 27 49 -5 55
-4 -101 33 -63 -25 -50 14 -6
25 -63 -11 48 -71 -110 -80 -22
-9 12 13 -13 3 12 14 41
-2 -5 -8 -13 -74 -24 -40 -9
61 -24 28 -19 -8 -70 13 -15
7 42 -15 30 51 -66 17 -38
-25 -44 19 60 24 -108 -3 -127
17 3 20 28 32 1 67 -27
11 -24 8 23 2 25 -19 -90
41 -25 66 95 8 63 5 20
64 -122 83 15 25 36 46 51
-35 19 53 -37 39 36 42 6
34 5 -10 45 -55 17 35 -4
8 19 9 114 -11 -36 45 -15
58 -4 -16 -13 32 7 -35 -40
-96 48 5 11 -44 56 22 15
40 -70 -3 -31 16 -13 -1 -3
-37 35 -18 30 -35 14 -42 -34
8 -8 -3 11 3 71 72 -26
-27 -8 40 -5 13 21 19 -13
-49 59 -8 3 7 -24 -63 -59
-5 62 3 31 5 -4 6 -5
0 12 43 38 -3 9 11 20
22 -13 -49 64 -8 0 -66 -8
127 40 -5 -23 -34 43 17 -23
-3 54 31 38 15 13 -19 -9
-21 32 -4 -8 -43 98 8 -22
77 64 27 -82 15 8 9 127
00000000: 600c fd1e 07c1 c7f4 3cf3 e528 0cbd e802
00000010: fcf0 12f4 18a1 fcaa 3828 e181 1b31 fb37
00000020: fc9b 21c1 e7ce 0efa 19c1 f530 b992 b0ea
00000030: f70c 0df3 030c 0e29 fefb f8f3 b6e8 d8f7
00000040: 3de8 1ced f8ba 0df1 072a f11e 33be 11da
00000050: e7d4 133c 1894 fd81 1103 141c 2001 43e5
00000060: 0be8 0817 0219 eda6 29e7 425f 083f 0514
00000070: 4086 530f 1924 2e33 dd13 35db 2724 2a06
00000080: 2205 f62d c911 23fc 0813 0972 f5dc 2df1
00000090: 3afc f0f3 2007 ddd8 a030 050b d438 160f
000000a0: 28ba fde1 10f3 fffd db23 ee1e dd0e d6de
000000b0: 08f8 fd0b 0347 48e6 e5f8 28fb 0d15 13f3
000000c0: cf3b f803 07e8 c1c5 fb3e 031f 05fc 06fb
000000d0: 000c 2b26 fd09 0b14 16f3 cf40 f800 bef8
000000e0: 7f28 fbe9 de2b 11e9 fd36 1f26 0f0d edf7
000000f0: eb20 fcf8 d562 08ea 4d40 1bae 0f08 097f
