03/code/results/exp/save/epoch_19_val_loss_1.8930.ckpt (torch, 520330 bytes, 404 tensors)

state f4 [3, 1, 3, 3]
00000000: 615f 84be 6d54 6e3e 8f1e 3f3e c695 a5be
00000010: 3bd1 9dbe c5c5 7fbe c63e 4bbe 24c0 0f3d
00000020: 9532 963d dae9 7dbd e6b3 aabd 340e 823e
00000030: d17f 613d c9c8 583e 48d8 023e 1e80 073d
00000040: f9a5 6abd 7942 c8bd a4d1 523d 7265 733e
00000050: 1ac1 6d3e d6ff 91be a392 aebe 6fc1 2e3e
00000060: 07b3 a43d f4e9 a7be 1118 c3bd
-0.25854018 0.23274393 0.18664001 -0.3234083 -0.30823693 -0.24977787 -0.19848165 0.03509535
0.073338665 -0.061990596 -0.08335094 0.2540146 0.055053536 0.21170343 0.12777817 0.033081166
-0.05728719 -0.09778304 0.05146946 0.23769167 0.23218194 -0.285155 -0.3409625 0.17065977
0.08041959 -0.3279568 -0.09526075

exp_avg f4 [3, 1, 3, 3]
00000000: b4e9 37bc f056 093c 029a 223c f0c6 34bb
00000010: 2673 bf3c ac4b 0f3d f1f8 3bbc 236f 643c
00000020: 12ee 023d 3095 41bd c037 d0b9 809d 18ba
00000030: 8838 38bc 04a8 0d3d 6388 dd3c e814 693c
00000040: 49f5 893d e59d 313d 12c3 2f3d f40a 773d
00000050: c8ce 5e3d 94d6 2d3d 0ef9 4c3d ba0e 233d
00000060: 6a52 f63c 7747 223d 08a6 173d
-0.011225153 0.008382544 0.009924414 -0.0027584396 0.023370337 0.034984276 -0.0114729265 0.013942513
0.031965323 -0.047261417 -0.0003971439 -0.0005821809 -0.011243947 0.03458406 0.027042573 0.014226176
0.067362376 0.04336347 0.042910643 0.06031318 0.05439642 0.042440966 0.050042205 0.039808966
0.030068595 0.039618935 0.037023574

exp_avg_sq f4 [3, 1, 3, 3]
00000000: acec 0d3c 7b56 263c ab46 4b3c 23ed 053c
00000010: 423e 223c 2fa4 4c3c a348 0c3c 7fa0 2b3c
00000020: 1ce4 523c 9690 a43c 7970 963c 9c4e 8d3c
00000030: 2565 9c3c f9d7 903c 65a1 8f3c 1a56 a33c
00000040: 46b5 9e3c ba33 a23c d359 813c 55d5 7f3c
00000050: 58d8 933c 29f8 563c 9846 413c 4e21 853c
00000060: a77b 5c3c a876 2f3c 4d79 6f3c
0.008662384 0.0101524545 0.012406985 0.008174214 0.009902539 0.012490316 0.00856224 0.010475277
0.012871768 0.020088475 0.018364178 0.017249398 0.019091198 0.017681109 0.017533014 0.019938517
0.019373547 0.019800056 0.015789902 0.015614827 0.018047497 0.013120689 0.011796616 0.016251232
0.013457215 0.010709442 0.014616323

exp_avg_sq f4 [9, 3, 1, 1]
00000000: 72ca 0fbe 9bc8 ca3e 0d4a 02bf 444f b63e
00000010: d1dc 543e 5c9a cbbe 014f 4d3e b708 8e3e
00000020: 9901 b9be 944f 063f e4ed debe 5a80 e8bd
00000030: 6be2 9b3e cc01 0f3f e35c a53c d5c4 16be
00000040: d843 35be 4933 e33e 292c 64be b5e1 813e
00000050: 4682 abbc f22d cc3d 7406 d13e fb1d 82bd
00000060: 7d50 bdbe 4c69 1abd 6fd9 7e3d
-0.1404207 0.39606175 -0.5089424 0.3560735 0.2078736 -0.39766204 0.20049669 0.27741024
-0.3613403 0.52465177 -0.4354087 -0.11352606 0.3044618 0.55862117 0.020185893 -0.14723523
-0.17701662 0.44375065 -0.22282471 0.25367513 -0.020936143 0.09969701 0.40825236 -0.063533746
-0.3697547 -0.037698075 0.06221908

exp_avg f4 [9, 3, 1, 1]
00000000: 83b7 1dbc 35cb d4ba 84d4 b93a fa1d 8fbb
00000010: 72b5 1a3a 2237 39bb d47d 403d 2e57 70bc
00000020: 4461 5b3c 008c 9dba 3fcf bbba b8f5 aa39
00000030: 095a 8dbd e593 123d 7113 21bd f240 21bd
00000040: 66b3 cf3c 2acf 2eba 467d b63a b0b8 3c3a
00000050: e869 d0bb 2d2d 373d b7da 4bbc b827 a13a
00000060: a658 49ba 3af1 aabb 214a 91bc
-0.009626272 -0.0016234877 0.0014177714 -0.004367587 0.0005901671 -0.0028261621 0.046995 -0.014669223
0.013389889 -0.0012019873 -0.0014328732 0.00032608001 -0.069019385 0.035785574 -0.03932518 -0.039368577
0.025354099 -0.0006668443 0.0013922832 0.00071991514 -0.0063602813 0.044720817 -0.012442282 0.0012295162
-0.0007680751 -0.0052167447 -0.017735543

exp_avg_sq f4 [9, 3, 1, 1]
00000000: b02e 9d39 dfca 2239 5daf 1739 701a 163b
00000010: 5d4f 5a3a 1e75 7f3a 7d89 163d d3ab c93b
00000020: cdb1 973b d4cb 9b37 4625 c537 a073 7538
00000030: 32d4 373c 568e 5a3b c907 9e3b 0fb8 183c
00000040: 8b42 1c3b 505b 283a c6a9 793a 50fa 0d3a
00000050: bf0f a93a b6f4 2b3c 6f0f c839 90d2 7e3b
00000060: 1a49 3839 56b3 213b ecc5 483b
0.00029980158 0.000155251 0.0001446581 0.0022903942 0.0008327866 0.000974493 0.036752213 0.0061545162
0.00462935 1.8572355e-05 2.3501587e-05 5.8520236e-05 0.011220025 0.0033349 0.0048227054 0.009321227
0.0023843374 0.0006422298 0.00095238944 0.00054160226 0.001289837 0.010495355 0.00038158472 0.003888283
0.0001757484 0.0024673543 0.0030635549

exp_avg_sq f4 [9]
00000000: 6499 613f e3ea 433f 26f5 813f 8076 723f
00000010: 3d39 5a3f a14e 663f fc06 4d3f 2c83 7c3f
00000020: d19a 8c3f
0.8812468 0.76530284 1.0152938 0.94712067 0.8524359 0.8996373 0.8008878 0.9863765
1.0984746

exp_avg f4 [9]
00000000: c33d 9a3a a816 0abb 644f 2a3b ae48 41bb
00000010: ea31 f0bb d611 b53b 10b9 963a 74ad bdba
00000020: 36b5 1bbc
0.0011767674 -0.0021070633 0.0025987262 -0.0029492783 -0.007330169 0.005525808 0.0011499245 -0.0014471249
-0.009503653

exp_avg_sq f4 [9]
00000000: 025f db37 b301 c237 6b0f b438 0f94 c237
00000010: 4c88 f638 d834 cc38 5d48 fc37 0cb8 1f38
00000020: 97d4 0839
2.6151076e-05 2.3127393e-05 8.585941e-05 2.3195547e-05 0.00011755581 9.737321e-05 3.0074438e-05 3.807996e-05
0.00013049167

exp_avg_sq f4 [9]
00000000: d686 cfbd 1101 043e d3cd a03d c304 22be
00000010: ea24 4d3e 12c3 00be d578 a23c 130d 15be
00000020: 09cb 32be
-0.1013314 0.12891032 0.07851758 -0.15822129 0.20033613 -0.12574413 0.019833008 -0.14555769
-0.17460264

exp_avg f4 [9]
00000000: cf25 513b da23 933b 03e8 44ba fce5 4539
00000010: b02b b2ba f6bd 4b3b be92 a839 b8ef 6cb9
00000020: d893 213b
0.0031913405 0.004490358 -0.0007511379 0.0001887306 -0.0013593342 0.0031088567 0.00032152788 -0.00022596016
0.0024654772

exp_avg_sq f4 [9]
00000000: dae1 2c38 67f4 0f38 7d8e e638 18c9 3038
00000010: dbf2 8538 45e3 8838 b002 9d37 6eaf c338
00000020: 0ef3 2239
4.1218336e-05 3.4321474e-05 0.00010993795 4.2148953e-05 6.3871696e-05 6.5273176e-05 1.871711e-05 9.331001e-05
0.00015540069

exp_avg_sq f4 [9, 1, 3, 3]
00000000: e445 31be e6a9 8d3d 248f 653e 83cc 3f3e
00000010: bffc 423e 97b5 5abe 17c8 fbbd 38ce 67be
00000020: 3c93 ce3e d195 403e ecc0 92bd 9401 10bd
00000030: 19bf c83e 457b bfbd 18c6 933d 9f33 393e
00000040: b3d3 233e db28 893e a522 873e 289f bcbd
00000050: d6f1 fc3d b1c5 98bd a147 b63e e693 0f3e
00000060: 6f94 4cbe 90ae c53e 44b3 653e c03a 6c3e
00000070: bfa9 de3d 5cfa 9d3e d83e d0be f27b 4b3d
00000080: 3886 0d3e 0e97 d63d 4c66 543e 4bf5 063e
00000090: 11ed 643e ba70 aabe 75ab 00be f9f7 433e
000000a0: 5a37 22bd b83c 413e fa26 bd3d 0fb2 ea3d
000000b0: ccaa e43c fec0 213e abda a5be 055f a43d
000000c0: 8105 ab3c f580 f53d 2c42 aebe 185f 773e
000000d0: 4792 5cbe 6701 863c 04c2 8d3e 3a70 89be
000000e0: 7174 3b3e 2a02 bebc 9ce5 42be c462 60bb
000000f0: 4f54 5a3e 596b 27be e64c 363e bc23 8d3e
00000100: 561d 3d3e 432c 593d 3ef6 263e b965 ed3d
00000110: 956c 30be 41bf 57be bf59 8bbc 314c 103d
00000120: af51 8e3c 1cb2 13be 2963 9cbe c222 af3e
00000130: 3d19 4b3e f259 2cbe 9739 7c3d 5197 e4bd
00000140: 67d0 3bbe
-0.17311817 0.06917171 0.22417885 0.18730359 0.19041727 -0.21358334 -0.122940235 -0.2263726
0.40346706 0.1880715 -0.07165703 -0.035157755 0.39208296 -0.09349684 0.07215518 0.18086098
0.15998726 0.26788983 0.2639362 -0.09210044 0.12350814 -0.07459582 0.35601524 0.14021263
-0.19978498 0.38609743 0.22431666 0.23069286 0.1087222 0.30855072 -0.40672946 0.04967875
0.13820732 0.1047803 0.20742148 0.1317951 0.22356059 -0.3328913 -0.12565406 0.19137563
-0.03960357 0.18870819 0.0923595 0.11459743 0.027913474 0.15796277 -0.32393393 0.08025936
0.020876648 0.11987487 -0.3403486 0.24157369 -0.21540175 0.01635809 0.27687085 -0.26843435
0.18306138 -0.023194391 -0.19032902 -0.0034238556 0.21321224 -0.16349544 0.17802772 0.27566326
0.18468222 0.053020727 0.16304871 0.11591668 -0.17228921 -0.21069051 -0.017010568 0.03522891
0.017372934 -0.14423412 -0.30544403 0.34206206 0.19833846 -0.16831186 0.06157836 -0.11161674
-0.18341218

exp_avg f4 [9, 1, 3, 3]
00000000: bad8 e5bb e8fa eebb 20fb fab9 e052 ee3b
00000010: aed8 b8bb 8767 93bc 60f2 1f3a 1c3b 13bb
00000020: 50c1 4ebc d6f3 e5ba 643f 48bb b46f 0b39
00000030: e8c2 d739 ee61 af3a b8ba c7ba 2a0b dc39
00000040: 8210 10bb 6232 bb3a 9ec5 6a3b 7eed 04bb
00000050: 06bb eabb 16a1 81bb f3a7 b63b 6a90 c8bb
00000060: e6c6 483c 3481 f33a 60c4 9bb8 692b 913a
00000070: 5281 663b 67ae 873b e32d 673b 747f 703a
00000080: 98c1 b03a 6716 a03a ba9a 34bb 20c2 69bb
00000090: 4794 aabc 554e a1bb 2024 a8ba 8e79 bebb
000000a0: 840b 98bc 6fe7 063c c326 873c 388e 0a3b
000000b0: a0c8 49ba dacd 39bd a4b2 3cbd ed26 eabc
000000c0: 2297 0fbd 5696 0dbd 3997 dfbb bd92 3bbd
000000d0: 0253 12bd df53 2bbd 1ed1 30bc a69f 84bb
000000e0: c7de 2abc 0697 fe3b d835 b13a 4eb5 f4ba
000000f0: a824 f83b f0d7 1f3a 1874 583c 7d03 3bbc
00000100: a64d bbbb 5c27 debc e067 77ba 9c58 a73b
00000110: e768 a7bc 8bcd 14bc dc97 4ebb cd87 8ebc
00000120: fcd5 debc 2a1a e3bc 64be a9bc 9c7e bcbc
00000130: df68 1abd 3697 75bc bc8a 033b a332 f0bc
00000140: dfdb 9f3b
-0.007014361 -0.007293094 -0.00047870819 0.007273063 -0.0056410646 -0.017993702 0.00061014853 -0.0022465652
-0.0126193315 -0.0017543982 -0.0030555362 0.00013297686 0.00041153212 0.0013380626 -0.0015238142 0.00041969988
-0.0021982496 0.0014281983 0.0035823355 -0.0020283158 -0.007163408 -0.0039559705 0.0055742203 -0.006120731
0.012254452 0.0018577934 -7.427554e-05 0.0011075559 0.0035172296 0.0041406634 0.0035275153 0.00091742654
0.001348543 0.0012213708 -0.0027558045 -0.0035668686 -0.020822657 -0.004922668 -0.0012828149 -0.0058128303
-0.018560179 0.008233889 0.016497975 0.0021141898 -0.0007697437 -0.04536233 -0.046068802 -0.028583014
-0.03505624 -0.0345672 -0.006823447 -0.045794237 -0.035723694 -0.041828033 -0.010792045 -0.004047352
-0.010429091 0.0077694682 0.0013520075 -0.0018669756 0.007572729 0.0006097546 0.013211273 -0.011414406
-0.0057160435 -0.027118377 -0.0009437781 0.0051069986 -0.020435764 -0.009082208 -0.003152362 -0.01739874
-0.027201645 -0.027722437 -0.020720668 -0.02300959 -0.03769767 -0.014989665 0.0020071706 -0.02932102
0.0048785056

exp_avg_sq f4 [9, 1, 3, 3]
00000000: a7df e63a 70da aa3a 70f5 713a 7e36 dd3a
00000010: 9b0f 8a3a 8d58 783a 55ac 033b 1138 c43a
00000020: 62c8 353a ad20 6538 bf19 9938 102f a738
00000030: 504d ec37 dd78 8238 0495 8438 2c21 0838
00000040: 9fdc 4738 ecf8 4938 82d4 a939 a172 9f39
00000050: 727c be39 0f88 a439 21b2 3539 1ed3 8439
00000060: a945 c839 b547 6339 c867 7739 19a0 0a39
00000070: 4e14 8c38 ae57 4738 a8b7 2239 2593 a738
00000080: 9b88 5338 9ce1 2039 eb73 be38 3899 a738
00000090: 6a33 e03a d8ee 063b a57a 243b 4145 8e3a
000000a0: 2841 3c3b 1d1d 523b a57a fe3a 3cdb 2d3b
000000b0: 38fa 513b a187 653b b663 e23a f91c 353b
000000c0: 7f64 883b b3d0 533b 532d d53a 9ac4 863b
000000d0: 81d8 403b 12a0 353b fdf5 3e3b e192 773b
000000e0: 9300 4e3b 6481 613b c7a5 763b c478 483b
000000f0: 9b28 4c3b 4ddb 613b 847a 323b 394e 9539
00000100: 5326 b539 b391 583a d7b0 2a3a bcf3 293a
00000110: 9e5a 8d3a 028c 813a e0b3 7d3a 5f07 8b3a
00000120: 384f c83b 5dda 973b 1ceb ff3a 35db d73b
00000130: b33f b03b d0cc 1e3b f4c5 ca3b b8ed a83b
00000140: d7a1 373b
0.0017614261 0.001303507 0.00092299934 0.0016877202 0.0010533215 0.00094736443 0.0020091732 0.0014970322
0.00069344614 5.4628286e-05 7.300404e-05 7.9719466e-05 2.8169394e-05 6.2213956e-05 6.322007e-05 3.245582e-05
4.7650767e-05 4.815396e-05 0.00032392523 0.00030412248 0.00036332343 0.0003138189 0.00017327863 0.00025334297
0.00038198874 0.0002167512 0.00023594417 0.00013220347 6.679502e-05 4.7526955e-05 0.00015517941 7.990588e-05
5.0433544e-05 0.00015342835 9.0814974e-05 7.99172e-05 0.0017105166 0.002058914 0.0025097516 0.001085438
0.002872536 0.003206081 0.0019415213 0.002652838 0.003204001 0.0035023468 0.0017272148 0.0027635677
0.0041623707 0.003232044 0.0016264118 0.004112792 0.0029425921 0.0027713818 0.002913832 0.0037776756
0.0031433448 0.0034409398 0.0037635432 0.003058956 0.0031152132 0.003446299 0.002723367 0.00028477775
0.00034551564 0.0008261457 0.00065113365 0.00064831576 0.0010784452 0.0009883645 0.00096779875 0.0010607055
0.0061129592 0.004634185 0.0019525024 0.006587411 0.0053786873 0.0024230964 0.0061881486 0.0051552914
0.0028020048

exp_avg_sq f4 [9]
00000000: fd53 723f fff7 623f 3b4b 843f 96fe 663f
00000010: 2d6b 803f e05c 723f 6046 723f f136 733f
00000020: b317 753f
0.94659406 0.8865966 1.0335459 0.9023222 1.0032707 0.94672966 0.94638634 0.9500571
0.9573929

exp_avg f4 [9]
00000000: 1c2e 033c f0bc 9abb 4e3e 143c 74f9 1cbc
00000010: 9551 6a3c 160d 0fbc 2ce2 ccba 5d32 28bb
00000020: 3c17 673b
0.008006599 -0.00472223 0.009048058 -0.009580959 0.014301677 -0.008731147 -0.0015631369 -0.0025664784
0.0035261652

exp_avg_sq f4 [9]
00000000: 231f 8539 f20d f438 7e02 de39 8cf3 f239
00000010: 2279 bc39 5276 ab39 64ce 8c39 a0f2 8439
00000020: 7b0d 4e3a
0.00025390935 0.00011637424 0.00042344996 0.00046339293 0.00035948405 0.00032703817 0.00026856654 0.00025357772
0.0007860285

exp_avg_sq f4 [9]
00000000: 335a 15bd 5c86 963e 70de d13e ae91 01be
00000010: 21b6 333e c71f f43d ef5b bc3d 1cb0 fabb
00000020: 873e a73d
-0.036462974 0.29399383 0.4099002 -0.12653229 0.17549945 0.119201235 0.091972224 -0.0076503884
0.08166223

exp_avg f4 [9]
00000000: c244 223b 5862 6739 22bc 393b 0301 83ba
00000010: f0c5 c63b db9a dcbb e335 b8ba b42e 293b
00000020: 6fa9 e4bb
0.002476022 0.00022066513 0.0028340896 -0.0009994808 0.0060660765 -0.0067323274 -0.0014054145 0.002581519
-0.006978206

exp_avg_sq f4 [9]
00000000: 76c0 9638 d52d e137 a5c0 a138 1bb5 cc38
00000010: 5162 aa38 6bb9 1039 7df1 5b38 d713 b238
00000020: 5e1b c539
7.188406e-05 2.6843432e-05 7.712961e-05 9.7612115e-05 8.1245445e-05 0.00013801984 5.2438572e-05 8.491397e-05
0.00037595158

exp_avg_sq f4 [4, 9, 1, 1]
00000000: 9f61 9f3b d0e7 943e bfce 98bd acd1 3e3e
00000010: 7b15 593e df5c f83d dada 7fbb b24d 413e
00000020: b499 833e c9da 2bbe 810f 74bc aed7 273e
00000030: 7784 9c3e eb6f a1be 8cb7 a13d f5aa 51be
00000040: 665d 12be 64d4 f1bd a7af 5bbe 888b 5abd
00000050: 13c8 e5be f478 7fbe a098 d13d ac38 18be
00000060: d180 92bd b08d 80be f5a7 8bbe a1e1 97bd
00000070: facc 78bd 7d2f 9bbe 3989 46be 77df 38be
00000080: bb07 b2be 6cd3 6d3d e55e 10be 18c3 923e
0.0048639323 0.2908311 -0.07461309 0.18634671 0.211996 0.12127089 -0.0039040358 0.18877295
0.25703204 -0.16782679 -0.014896275 0.16390869 0.30569813 -0.315307 0.07896337 -0.20475371
-0.14293441 -0.118080884 -0.21453725 -0.053355724 -0.44879207 -0.24948484 0.10234189 -0.14865369
-0.07153476 -0.251081 -0.2727658 -0.07416082 -0.060742356 -0.30309668 -0.19388284 -0.18053995
-0.34771523 0.058062956 -0.140987 0.2866447

exp_avg f4 [4, 9, 1, 1]
00000000: b8c1 203c fdcc 96bb 7a2d a1bc 68dd d339
00000010: 68e1 843c 40bd d1b8 1eb9 4fbd 866e dc3b
00000020: 5aa3 adbc 5675 72bc 90aa af3b 80e3 21b9
00000030: 4331 efbc f4a2 03bd 2085 4e3a 2016 a93c
00000040: 385f 513b 4c37 d3bb 08de 30bc 1fe5 d23c
00000050: 9091 4f3b f010 78bc c8dd 7abb 6086 953b
00000060: 44d2 fb3a 0070 b2b9 65ee 0f3c ae0d dbba
00000070: 9e5b 0abc fc8d d4bc ec6a 9439 cec7 adbb
00000080: da35 f03c b423 083c 1e2f 22bb 2414 bcba
0.009811811 -0.004602073 -0.019675005 0.00040410017 0.016220763 -0.00010001147 -0.05071365 0.0067270426
-0.021196056 -0.014798483 0.005360909 -0.00015438907 -0.029198295 -0.032137826 0.00078781135 0.020640433
0.0031947624 -0.006445801 -0.010795124 0.02574402 0.0031672455 -0.015140757 -0.0038279165 0.004563138
0.0019212444 -0.00034034252 0.008784865 -0.0016712451 -0.008444695 -0.02594661 0.00028308423 -0.0053033596
0.029322553 0.008309294 -0.0024747322 -0.0014349264

exp_avg_sq f4 [4, 9, 1, 1]
00000000: db74 063b 59e3 4d3a c290 213b 24d9 323a
00000010: e612 e03a 5b6f d43a b169 5c3b 36e0 f03a
00000020: 5697 c63a dc5b 213b a3c3 f23a 9a5c 583b
00000030: 0241 b93a 3b7a 3a3b cc8a 863b 1c71 473b
00000040: c2f5 013b f8d0 093b c0b8 e63a f06f e23a
00000050: 2c9d 8f3a f317 253b 882c 963b fa83 c33b
00000060: d87f 483b 058d cd3a 68ba 173b e972 213b
00000070: 207d 023b 0983 203b fee4 de3a a89b 493b
00000080: cd72 be3a 2379 bf3b 6461 023b f686 123b
0.0020516429 0.0007854007 0.0024652933 0.00068225176 0.0017095476 0.0016207503 0.0033632333 0.0018377367
0.0015151303 0.0024621403 0.0018521439 0.003301418 0.0014133754 0.0028454203 0.0041059013 0.0030432409
0.001983032 0.0021029096 0.0017602667 0.0017275792 0.0010956875 0.0025191277 0.0045829453 0.0059666606
0.003059378 0.0015682286 0.0023151878 0.0024635142 0.0019911006 0.0024492166 0.0017005501 0.0030762944
0.0014530063 0.005843298 0.0019894475 0.0022358275

exp_avg_sq f4 [4]
00000000: 0a97 7b3f 28cc 693f 2fec 833f 9ef1 863f
0.9827734 0.9132714 1.0306453 1.0542486

exp_avg f4 [4]
00000000: d4f0 253a 0ace 383c 9f2a f9ba 89b2 0abc
0.00063301367 0.011279592 -0.0019009894 -0.008465418

exp_avg_sq f4 [4]
00000000: e67d b639 e654 3f3a 1105 243a 8549 553a
0.00034807547 0.00072987226 0.00062568585 0.00081362604

exp_avg_sq f4 [4]
00000000: 9308 343d 6836 a6bc 9c7e 84bc 18fc 4bbb
0.04395349 -0.020289615 -0.016173653 -0.0031125601

exp_avg f4 [4]
00000000: 6f2c 84b2 9e38 05b3 3c04 84b2 eb90 ac30
-1.5387029e-08 -3.101797e-08 -1.5368748e-08 1.2555835e-09

exp_avg_sq f4 [4]
00000000: f50d e227 a790 be27 b779 5d28 184e 1e28
6.2742733e-15 5.2892426e-15 1.2294357e-14 8.787696e-15

exp_avg_sq f4 [24, 4, 1, 1]
00000000: 6982 363e 10b9 0fbe 0f64 643b ddbb d93e
00000010: 8d75 8abe 7a11 57bc 50e9 9abd ad11 fc3e
00000020: 9c0e 963d 2e99 b1be 521c e93e 64a7 833d
00000030: a854 e6bc f18b 473e 9933 68be 7324 ae3e
00000040: c3bc 2f3d 69f3 b3be 7514 fd3e 5233 833b
00000050: 4c1a cb3e 35b1 83be 7952 b33c 7848 ad3e
00000060: b31a 9fbe 4124 353e d744 5f3e 396e c13e
00000070: 0a9b af3d 6440 0bbf 3301 f03d a71f b7be
00000080: 924f d3bd 45bb c13e 91c5 f53d 2eed 00bf
00000090: 2f5f a7be 3e54 e43d 67b8 91bd 2ed0 8fbe
000000a0: 5f7a 253d 44cb 023f d3e2 4abe 075f 053e
000000b0: 64fd 53be 121e dd3e 579b 003f 5be0 7dbc
000000c0: cd77 94be 880d 27be 5150 85be ec65 683e
000000d0: a6f9 c9be 078f bfbe 50a0 efbc e212 e1be
000000e0: eaeb 473d d7a2 66be 8627 503e 32e9 013f
000000f0: 8e8a 9c3e 5733 5e3d 7e6a 8b3e db07 cd3e
00000100: 7cbd 3dbe 1c16 9cbb e8b3 bc3d de09 ed3d
00000110: 5cab 7b3e b9e8 b3be 1d3c be3e da89 05bf
00000120: bcec fdbd 3b58 fabe dcae 3bbe 7801 a33e
00000130: b7e8 e13e c545 e8bd feaa 57bd 2a82 a13d
00000140: 7e36 bf3e 1e9e 57be 6bc0 193e 5cb4 f7bd
00000150: b824 fa3d 027e ac3e b441 0dbd e74b c23e
00000160: 0fbd 94be 3ef0 8abe 15a5 debe 2816 42bb
00000170: b816 04bd e260 213e 3c49 d63e 128a 16be
0.17823185 -0.1403544 0.0034849679 0.4252614 -0.2704281 -0.013126725 -0.07564032 0.49232236
0.07327005 -0.3468718 0.4552942 0.064284116 -0.02811654 0.19486977 -0.22675933 0.34012184
0.042904627 -0.35146645 0.4942967 0.0040039206 0.396685 -0.25721136 0.021889912 0.33844352
-0.31075057 0.17689611 0.21803604 0.37779406 0.08574493 -0.5439513 0.11718979 -0.35766336
-0.10317911 0.37838188 0.120005734 -0.5036191 -0.32689807 0.111488804 -0.0711525 -0.28088516
0.040399905 0.5109141 -0.19813089 0.13024531 -0.2070213 0.43187004 0.5023703 -0.015495385
-0.2899765 -0.16313756 -0.2603784 0.2269513 -0.3944828 -0.3741381 -0.029251248 -0.4395972
0.04880897 -0.22523056 0.20327577 0.5074645 0.3057446 0.05424818 0.27229685 0.40045056
-0.18529314 -0.004763378 0.09214002 0.11574148 0.24577087 -0.3513849 0.37155238 -0.5216347
-0.12398669 -0.4889544 -0.18328422 0.31837058 0.4412286 -0.113414325 -0.052653305 0.07886155
0.37346262 -0.2105641 0.15014808 -0.12094948 0.12214035 0.33689886 -0.034486488 0.37948534
-0.2905049 -0.27136415 -0.43485323 -0.0029615257 -0.03224823 0.15759614 0.41852748 -0.14701107

exp_avg f4 [24, 4, 1, 1]
00000000: f293 3d3c bacc 06bb f188 f03a de10 bebb
00000010: 5803 0bba 5883 fdbb 5e84 7bbb e0fe 93ba
00000020: d088 7139 5868 433b 7b70 0a3b ac37 333a
00000030: a7a0 6bbc c34e 683b 5ec9 ac3c 8bd5 2c3c
00000040: aae4 713c 0a38 87bc 101d 5abc f644 c3bc
00000050: c114 34bb 5a14 333a a095 24bb 885a 783b
00000060: be38 a33b 5c3e 6fba 3e60 8dbb 0c3e e23b
00000070: 8c30 fd39 72a0 a5ba e079 8b3a eabb 303b
00000080: 5bdd 3bbb e8a8 423b 9b44 dcba 8c24 213b
00000090: 0075 5d37 04f3 553a 30d4 e5bb 0301 103b
000000a0: dbd8 8bbb 9c07 01bb df71 e9bb 1aa9 ffba
000000b0: 3be6 bb3a 8349 523b 60ce 16bb 7083 96ba
000000c0: 36a6 043c 56b4 983b 3250 3f3b 97a3 853c
000000d0: b146 16bc c691 d439 ee40 43bb e2c3 053c
000000e0: 1eed 32bb 007c afb6 175c 053b 8a92 2fba
000000f0: 50a6 90bb 6d21 bf3b 6177 8c3b d85e ccb9
00000100: b482 4dba 2c18 b4bb 8085 2ebc 2d36 e53b
00000110: cc07 6f3b 8cb0 bbba 08b9 df3b e665 f93b
00000120: 7ae0 003c acd1 aabb b048 64bc 3247 5abc
00000130: 6e4e 88ba d281 b73a 3169 d53b 30b6 373c
00000140: 8030 00b7 fc47 2eba 1ed7 caba 457d 3fba
00000150: c8b5 2b3a 3b12 20bb efbf a539 a644 f53a
00000160: 769a b9ba ce74 05bb f76d 1a3b 184b 213a
00000170: f4a0 083b 00ed bcb8 30d5 353c 679e 013d
0.011570917 -0.0020568804 0.0018351359 -0.0058003506 -0.00053029275 -0.0077366047 -0.0038378458 -0.0011291169
0.00023034518 0.0029816832 0.0021124172 0.0006836604 -0.014381564 0.0035447336 0.021092113 0.0105489595
0.01476399 -0.016506214 -0.013312593 -0.023836594 -0.002747819 0.0006831341 -0.0025113598 0.0037895758
0.0049811294 -0.0009126419 -0.0043144515 0.006904369 0.0004829209 -0.0012636317 0.001064118 0.0026967474
-0.0028665874 0.0029702727 -0.0016805114 0.0024588434 1.3199868e-05 0.00081615173 -0.00701382 0.002197326
-0.0042677945 -0.0019688373 -0.00712417 -0.0019505352 0.0014335582 0.0032087273 -0.0023011193 -0.0011483263
0.008096268 0.0046601696 0.0029192087 0.016313357 -0.009172128 0.000405444 -0.002979334 0.008164378
-0.0027301977 -5.229842e-06 0.002034908 -0.0006697556 -0.0044143572 0.005832842 0.004286692 -0.00038980576
-0.00078396057 -0.0054960456 -0.010651946 0.0069949836 0.0036473153 -0.0014319583 0.0068274774 0.007611024
0.007866019 -0.005212983 -0.013933346 -0.013322638 -0.001039935 0.0014000481 0.006512784 0.0112128705
-7.640687e-06 -0.00066483 -0.0015475487 -0.00073047384 0.000655022 -0.0024424929 0.00031614254 0.0018712475
-0.0014160413 -0.002036381 0.002356408 0.00061528524 0.0020847889 -9.008683e-05 0.011098191 0.031645205

exp_avg_sq f4 [24, 4, 1, 1]
00000000: cad6 193a ecfa 453a c9ef eb39 baa0 9439
00000010: 79d8 2d3a 6a38 cc39 c0f3 1f3a 67b9 d738
00000020: 2969 c138 08a2 6638 30a7 d437 f417 ef38
00000030: 691e bd3a f9a1 db39 b10b ba3a d71a 693a
00000040: 4c78 ea39 4533 7b39 124f 0a39 0749 d739
00000050: 1127 d838 ffa1 0b39 e4a3 a438 7e20 8e39
00000060: dff7 f238 fa3f cb39 b9da 1839 ba74 4d39
00000070: f392 7738 5795 1f38 d544 8b39 cac5 ee38
00000080: 7f66 ef38 0729 a538 f35f 1f39 9ecc 0039
00000090: 2d5e 2a39 1f61 4d39 db27 b439 3c75 4f39
000000a0: b565 e838 6891 9b37 5375 de38 7696 2839
000000b0: 6402 0e39 e111 4339 f279 b638 7ae4 a739
000000c0: 1de0 053a 61e7 473a 9fcd e83a a14a d43a
000000d0: 0d80 b439 498b 8839 b78b 9739 4df6 1339
000000e0: 70ff 453a e175 343a 6730 b739 1764 6939
000000f0: 3418 6039 8894 8739 66f0 0439 c499 1339
00000100: c293 403a fa32 833b ffdf 9e3a 5dc5 083b
00000110: 9b18 7638 afae 9638 cdeb 0e39 746e c438
00000120: fbe6 483a 2972 2a3a 6cc2 063a a690 803a
00000130: 8785 c537 d927 2239 3add 5e39 589b 9e39
00000140: f97f b536 5152 bf37 26e9 9b37 0029 6b37
00000150: 84c6 9939 e74a ef38 a85a 5939 b8c0 e238
00000160: 4054 8539 9a3d ad39 2478 fe38 fde0 dd39
00000170: e56b e93b 3afa c33b e206 f13a fdd1 3e3c
0.0005868493 0.0007552344 0.00045001347 0.0002834851 0.0006631683 0.00038951944 0.000610169 0.00010286533
9.222545e-05 5.4987177e-05 2.5350222e-05 0.0001140087 0.0014428619 0.00041891614 0.0014194158 0.0008892244
0.00044721586 0.00023956325 0.00013190162 0.00041062405 0.00010306959 0.00013316421 7.8506564e-05 0.0002710856
0.00011585629 0.00038766843 0.0001457733 0.00019593808 5.9026246e-05 3.8047638e-05 0.0002656343 0.000113855654
0.000114154995 7.875455e-05 0.00015199166 0.00012283257 0.00016247547 0.00019586504 0.0003436197 0.00019784732
0.000110815665 1.854515e-05 0.00010607638 0.0001607778 0.00013543066 0.0001860331 8.70115e-05 0.0003202295
0.0005106943 0.00076257257 0.0017761475 0.0016196558 0.0003442768 0.00026043717 0.0002890506 0.00014110767
0.0007553017 0.00068840204 0.00034940543 0.00022257898 0.00021371321 0.0002585987 0.00012678056 0.00014076295
0.00073462364 0.0040038796 0.0012121199 0.002086959 5.8673886e-05 7.185095e-05 0.00013630018 9.366582e-05
0.00076638133 0.00065019965 0.00051406655 0.0009808734 2.3546409e-05 0.00015464368 0.00021253983 0.00030251849
5.4091183e-06 2.2807306e-05 1.8586008e-05 1.4016638e-05 0.0002933034 0.0001141036 0.00020728505 0.000108124164
0.00025430508 0.00033043028 0.00012134042 0.00042320034 0.0071234577 0.005980757 0.0018388892 0.011646745

exp_avg_sq f4 [24]
00000000: 9c79 713f 9132 683f e6ba 693f b99c 8d3f
00000010: fa60 8b3f 4dae 803f e193 8e3f ebfd 663f
00000020: c26b 813f 6aea 8f3f a27e 913f af4f 833f
00000030: 3467 843f 467c 5c3f f712 573f 1ed6 6e3f
00000040: cbab 943f 0d7d 5e3f 8f31 823f cb02 6a3f
00000050: 4908 873f 1180 843f 4cc1 643f 01f9 813f
0.94326186 0.9070216 0.9130081 1.1063453 1.088897 1.0053192 1.1138879 0.902312
1.011101 1.1243412 1.136677 1.0258693 1.0343995 0.86127126 0.84013313 0.93295467
1.1614927 0.8690956 1.0171374 0.9141051 1.0549403 1.0351583 0.8935745 1.0154115

exp_avg f4 [24]
00000000: 08ea daba ae71 333b cc36 a339 bfd6 153b
00000010: 20af 8138 50bc 91b9 a30a a03a 319e 94ba
00000020: b443 8eba 1fe5 463a f7e2 8b3a 22aa 8fba
00000030: de3c fa3a 9e8f 5cba c19c 91ba 1327 95ba
00000040: 0c49 b43b fd68 b739 a610 74bb b7db 80ba
00000050: 334a 80b8 a81c 48bb 34aa 85ba e02c ef3b
-0.0016701827 0.002738099 0.0003113061 0.0022863594 6.183819e-05 -0.0002779686 0.0012210201 -0.0011338649
-0.0010853917 0.0007587242 0.0010672499 -0.0010960738 0.0019091626 -0.00084137346 -0.0011109338 -0.0011379443
0.005501872 0.00034982702 -0.0037241369 -0.0009831105 -6.117336e-05 -0.0030534659 -0.0010197819 0.0072990507

exp_avg_sq f4 [24]
00000000: 80dd 8e37 49b6 b537 4d12 1236 a627 a937
00000010: 2fac 9b37 94d0 3a36 1978 6638 2993 2b37
00000020: 88a3 e736 6703 f835 cc7f af36 7086 2738
00000030: 6331 a538 e85a 7637 d023 0839 9254 0837
00000040: 1647 7738 9cd4 f136 2721 cc37 cc08 8e36
00000050: f247 c434 d0e2 0238 a772 0737 9401 0239
1.7030863e-05 2.1661765e-05 2.1766348e-06 2.0164833e-05 1.855762e-05 2.7837568e-06 5.4948123e-05 1.0226658e-05
6.903374e-06 1.847843e-06 5.230284e-06 3.9941107e-05 7.877012e-05 1.4683908e-05 0.00012983312 8.125922e-06
5.8955593e-05 7.2071107e-06 2.4334133e-05 4.232954e-06 3.6560192e-07 3.120565e-05 8.073322e-06 0.00012398354

exp_avg_sq f4 [24]
00000000: b01f 333e 76e3 83be 7a68 5b3d 75e7 22bd
00000010: e655 56bc 3112 023e 46d8 00bd 5c8b 5dbd
00000020: 39a2 1f3d cbaf 59bd 11b2 babd 4066 df3d
00000030: d43e 08be ff90 bbbb bfbe d23d b494 b7bc
00000040: 845c 43bd 1730 28be 3807 263e bd81 403e
00000050: 50a8 c33d a9d1 443c 0318 673d b74b ccbe
0.17492557 -0.25759476 0.053566433 -0.039771516 -0.013082003 0.12702252 -0.031456254 -0.05408798
0.038973067 -0.053146165 -0.09115995 0.109081745 -0.13305217 -0.005724072 0.10290288 -0.022409774
-0.04769565 -0.16424595 0.16213691 0.18799491 0.095535874 0.0120128775 0.056419384 -0.39901516

exp_avg f4 [24]
00000000: f44b fa39 b0f4 2838 f317 0839 4c66 b5ba
00000010: 08b3 a0ba b04e 2c37 bce1 deba 17ef aeb9
00000020: 76de fb3a b43c 1fb9 cf2a 35ba 94a7 aeb8
00000030: 6f4e 32bb 82d5 fc3a 3ca1 ceba ad70 4c3a
00000040: b59e 0abc c104 83ba 6446 103a a004 ee39
00000050: 78df b638 e45e 27b9 1d49 a439 e022 02b9
0.00047740305 4.0282204e-05 0.00012978892 -0.0013839691 -0.0012260387 1.027032e-05 -0.001700453 -0.00033366002
0.0019216079 -0.00015186035 -0.0006910981 -8.3281804e-05 -0.0027207395 0.0019289705 -0.0015764604 0.00077987724
-0.00846069 -0.0009995924 0.0005503653 0.00045398343 8.7200606e-05 -0.0001596171 0.0003133499 -0.00012410758

exp_avg_sq f4 [24]
00000000: 5715 7037 ecc1 9937 6653 0536 a8c5 7a38
00000010: 0045 e837 4a12 2536 5b44 db37 35bd 1d37
00000020: bfe0 be36 fef8 2536 2ec3 bf36 8d8a bd37
00000030: b2f8 9138 1404 4c37 096d 8c38 e905 6536
00000040: 0534 ab38 9001 fa36 7f0d ac37 3d34 1537
00000050: 1fc9 ed34 72cf ba37 1726 ee36 836e 1739
1.4310083e-05 1.8329323e-05 1.9867089e-06 5.9788727e-05 2.7688686e-05 2.4597562e-06 2.6138665e-05 9.401982e-06
5.688605e-06 2.4731848e-06 5.7149655e-06 2.2595073e-05 6.960462e-05 1.2160297e-05 6.6960296e-05 3.41271e-06
8.163605e-05 7.4507625e-06 2.0510282e-05 8.893255e-06 4.4291025e-07 2.2269527e-05 7.097387e-06 0.00014441651

exp_avg_sq f4 [24, 1, 3, 3]
00000000: 3406 a9be 3568 b7be a030 9c3d 78c6 a43e
00000010: 57d8 a73e 2fd3 243c 2432 a5bd 2190 013e
00000020: 0b1d 0abd 41fd a9bd 5e97 523e 9c4c 693e
00000030: 5f46 093e 4112 cbbd 4903 11be ab5a 763e
00000040: 7589 6a3e 1f16 bc3d f1de dcbd f57d 82be
00000050: f791 f83c 7896 febc d75c 8c3e a716 913e
00000060: 8c0b b3be b5cd 1a3e eb96 9a3c 45d3 e7bd
00000070: 1922 853d dfa2 a7be 7926 2dbe 6a06 3fbe
00000080: 16cd aebe a3ad 9fbe 0f61 c5bd b67d 8a3d
00000090: e15f 1ebc 738a 6d3e a577 a73d 1421 3cbe
000000a0: 4880 f33d a23a 92be eaeb 3bbe 7ee9 0bbd
000000b0: 2737 b7be 2eb2 d7bd d347 193e 3ea7 c5bc
000000c0: c365 983e a669 7cbe 71a4 073e 1356 84bd
000000d0: eeef bcbe eb41 4a3e c004 f53d 516c b5be
000000e0: cd0b 4c3e 8254 9c3e 91a1 28be 3818 2f3d
000000f0: ee45 1abe 4b4e 043e 8a9e 9d3d 7787 8b3d
00000100: 3b8f de3b 55d9 79bd 9f93 c9bd b2ee 3d3e
00000110: 4e6b 133e 92ac 7cbe d177 53bd 39fe 843e
00000120: 1de0 64be 47c9 abbe 948c 843e fcde 2ebe
00000130: 4e92 163e 7937 8abe c10f afbe 9e3f b33d
00000140: bb3c 8c3d 9955 eabd eb6b 633e 3bff 5e3d
00000150: 54d7 19be cd4f 143e e2ed a63e 13c7 783e
00000160: db45 a3bd 7b4f 583e b78c 603e bc77 aebc
00000170: fd3e bcbe f918 7d3d 5c9e 473e 0f4e 88be
00000180: 84b6 f4bd dca2 5dbe 883f acbe e0d1 fcbd
00000190: e1fc 653e 00cf d83e 0a2e 43be b346 473d
000001a0: 4dcb 0d3e b7bb 0bbe 2506 52be c24c abbc
000001b0: 2bf1 43be 485f 0b3e 2010 6cbd a7b1 52be
000001c0: 6cf4 7c3e c220 bfbd 3cae 9f3d c151 e4be
000001d0: ba7b 49be 95a1 43be 1fb8 f3bd 9337 71be
000001e0: 96da 14bd 1d2d 753e fda7 e13d f433 b13e
000001f0: 0847 1ab9 ce58 57be ab9d 113e 00e3 f8bd
00000200: 3c7b 353d 7d00 4dbd cf71 13be 1351 1e3d
00000210: 0441 cabe ebfb 7cbe 7f68 5c3e 9249 b13d
00000220: 0b50 423e 606f 30be ecbe d8bd e013 803d
00000230: f35e c73e f754 6b3e 5adb 1dbe 4a77 70bd
00000240: 046f 71be 8266 6ebe 028f 3bbe a8ac b43d
00000250: 920f 433c d2f7 de3e d598 b33e fb69 493d
00000260: 2bcb 2fbd 93e3 6f3e 77fc 2d3d 4b93 9c3e
00000270: b4ef a73b f933 f1bc 1eaa d0bd eeec ac3d
00000280: f3ff babe d058 843e cf60 673e 9ac6 173d
00000290: da19 1c3e 234d 113e cab0 6bbe 2bef 04be
000002a0: b28a 0cbe 3ef0 5dbd 6499 1abe 9490 db3d
000002b0: 8cc1 89be 3373 8d3d 86b0 31be 47fb 323e
000002c0: 173f 7cbe f014 24be 7686 50be df58 153e
000002d0: c6b9 033e 4926 34be e525 a33e 46dc 363e
000002e0: 9f04 973e 42cf fcbd cf88 7dbd 866a 61be
000002f0: 4efd c7bc e551 ca3d 9cd3 3ebe 3d53 463e
00000300: 3cc3 32be e3cb 223d e451 13be d822 8ebe
00000310: 6a15 94be be67 8f3d ccc0 553d 07a1 cbbd
00000320: a7bd a2be 5750 6c3e ae07 35be a1a7 25be
00000330: cf61 90bd 64ea 543e 2426 413e 42e5 d43e
00000340: 69c5 a23e 6b8b f2bd 4994 9c3e 450d 653d
00000350: 2ace 9b3d 6eab 4cbd 67eb 27be edbc 10be
-0.33012545 -0.3582169 0.07626462 0.3218267 0.32782242 0.010060116 -0.08066204 0.12652637
-0.033719104 -0.083002575 0.20565554 0.2278313 0.1340575 -0.09915591 -0.1416141 0.24058025
0.22903998 0.09183907 -0.1078471 -0.25486723 0.030343039 -0.031077608 0.2741458 0.28337595
-0.34969747 0.15117534 0.018870791 -0.11319593 0.06500644 -0.32741448 -0.16909207 -0.1865479
-0.34140843 -0.31187162 -0.09637653 0.06762259 -0.009666414 0.23197345 0.08177117 -0.18371993
0.11889702 -0.28560358 -0.18351713 -0.034158222 -0.35784265 -0.10532032 0.14968805 -0.024127599
0.29765138 -0.24649677 0.13246323 -0.0646173 -0.36901802 0.19751708 0.119637966 -0.354342
0.19926377 0.30533224 -0.16467883 0.042747706 -0.15065739 0.12920491 0.076962546 0.06812947
0.0067919767 -0.06099828 -0.098426096 0.18548086 0.14396402 -0.24675205 -0.051627938 0.25975206
-0.22351117 -0.33552 0.25888503 -0.1707725 0.14704248 -0.26995447 -0.34191707 0.087523684
0.06847521 -0.11442108 0.22209136 0.054442625 -0.15023547 0.14483567 0.32603365 0.24294691
-0.07972308 0.2112407 0.21928678 -0.021297328 -0.36766806 0.061791394 0.19494003 -0.26622054
-0.119488746 -0.21644157 -0.3364222 -0.12344718 0.22459747 0.42345428 -0.19060531 0.04865141
0.13847084 -0.13645826 -0.20510156 -0.020910624 -0.19134967 0.13610566 -0.057632565 -0.20575581
0.24702615 -0.0933242 0.077969044 -0.44593623 -0.19676104 -0.19104607 -0.11900353 -0.23556356
-0.036341272 0.2394299 0.11018369 0.3460995 -0.00014713046 -0.2102997 0.14220302 -0.12152672
0.04430698 -0.050049294 -0.14398883 0.038651537 -0.39502728 -0.24705474 0.21524237 0.086566105
0.18975846 -0.17229986 -0.105832905 0.06253791 0.38939628 0.2298163 -0.15415707 -0.058707513
-0.23577505 -0.23281291 -0.18316272 0.08821994 0.011905568 0.43548447 0.3507754 0.049173336
-0.042918365 0.23426656 0.042477097 0.30581126 0.0051250104 -0.029443728 -0.10188697 0.08443628
-0.365234 0.2584901 0.22595523 0.037054636 0.15244237 0.14189582 -0.23016658 -0.1298186
-0.13724783 -0.05418419 -0.15097576 0.107209355 -0.26905477 0.06906738 -0.17352495 0.17478667
-0.24633442 -0.16023612 -0.20363793 0.14584683 0.12863836 -0.1759273 0.3186485 0.17857465
0.29495713 -0.12344219 -0.06189805 -0.22013292 -0.024412777 0.098789014 -0.1863541 0.1936769
-0.17457289 0.039745223 -0.14386708 -0.2776096 -0.28922588 0.07002209 0.05218582 -0.09942823
-0.31785318 0.23077522 -0.17678711 -0.16177227 -0.070499055 0.20792538 0.18862206 0.4158116
0.31791237 -0.11842998 0.30581883 0.055920858 0.07607682 -0.049968176 -0.16398393 -0.1413457

exp_avg f4 [24, 1, 3, 3]
00000000: bee3 4ebb 92c3 7cbb 6efe 09bb 503a a8bb
00000010: 3ac2 1cbb cafa 383c da7d cfbb 6ef0 1fbb
00000020: 6d12 313c 1c73 8eba 0d34 0cbb 94c0 d7bb
00000030: 5096 593b 832a ea3a 69b0 44bc ac81 323a
00000040: 4452 823b 2b9d 50bc 2995 2cbb bcbf 173b
00000050: 7090 08bb b918 20bb 1627 e6ba bc13 d939
00000060: 4409 b0ba c0bc a538 b221 683b 9c66 d6ba
00000070: 4368 2abb 24f3 9f3a 68d9 8239 340d 2bbb
00000080: 58f4 fb39 ce65 3c3a d49c 23bb a393 7d3a
00000090: c01d 3939 2ea1 0f3c c3bf 2dba 10ed 883b
000000a0: 8d99 113c 465f 183b a6d8 263b 016f 2a3c
000000b0: 1ce5 283b 2881 e4ba ba90 45bb d446 64b9
000000c0: 761b 69bb be35 18bb 2163 5f3b 3d04 13bb
000000d0: 1ba0 533b 5a00 cc3b 7e38 03bc a378 eebb
000000e0: 0270 3a3b ba09 18bb 563f 2dbc 0c6b a2bc
000000f0: a074 4d3c c08a c03a cafe 0fbc de8a b43b
00000100: 51c6 7dbc f276 a83b e4d9 4b3b 1f48 31bc
00000110: 0768 0f3c 40e9 973a 688f 48bc 5949 0e3b
00000120: 515b 38bb eff0 14bb 1e9e f6bb 1ba2 31bb
00000130: c20c cbbb 0092 f5b7 0690 c4bb 6d87 65bb
00000140: d34d 45bc 6be2 763b dcc7 113b 56cb 57bb
00000150: eee2 ac3b d5d1 013b ac44 6f3a 5138 9d3b
00000160: 2b95 283a b281 84bb 38e9 913b 4ac2 903a
00000170: 828d 7bb9 6716 503a 87b3 e539 3522 813a
00000180: e710 743b 6226 a93a f615 263a 9d53 1b3c
00000190: 8287 4b3b 80c6 95b8 dc9a 8e3b cf41 d63b
000001a0: 02f9 833b a054 6c3a 3223 daba c64d 743a
000001b0: 9676 99ba a287 013b 9b8e 0fbb b8e9 29b9
000001c0: 5a37 97bb 04d7 173b 929d dabb b89b dcb8
000001d0: b0c1 b2bb 3c21 2ebc 00bd 70ba c245 8ebc
000001e0: 92ea 82bc 988e 3f3b d0b3 49bc c485 cebc
000001f0: 90fb 86bb ce29 31bc 194d 1fbb 646f 5a3a
00000200: 00ac dd3b c01b 15b8 d883 5bb9 1826 0f3a
00000210: 202e 1d3a 2e21 253b 3475 833b 349b 573b
00000220: d2f0 d9ba 4b59 5dbb 145b 603b 8c13 4bbb
00000230: 6120 92bb 97ad 963b 3d49 bfba 9807 c4bb
00000240: aa68 1a3c 7fb6 c03b d550 633c e423 6fba
00000250: bbb1 9c3b bcec f1ba d3d4 a03c 3da9 203c
00000260: 6120 6c3c 6c3b 5d3b 3825 16bc 094f dabb
00000270: 4b3b 5a3b c8ab 88bb 5e06 a0bb b0e8 41b9
00000280: b4fb 143a f8cb 923b e156 acbc 3a03 abbc
00000290: 999f 2ebc ee9e 51bc 6029 dabc dc3c 683b
000002a0: 7003 4ebb bcf8 33bc 30c9 22bc 5b7c 26bb
000002b0: 004f 5abb f8ae 33bc bbc4 023b 56ee 89ba
000002c0: 8448 b3ba 19d9 aaba 2c14 0dbb 6ae2 32bb
000002d0: 3f2d 203a 70b6 683b 900d 063a 3fac fb39
000002e0: 009d 513b 1914 e43a f682 c4ba 02ab 243b
000002f0: b0bb da39 9753 cdba 54b2 be39 d92c 193c
00000300: c9d6 f4ba 50d4 13b9 1cee a43b 4ab4 353b
00000310: 6407 3f3b 014b a83b 7ab3 56bc 5ca5 07bc
00000320: e2e9 17bb ef08 0dbc 0a52 5ebc 5e67 1bbb
00000330: e695 28bc 0e36 32bb be42 25bc abd7 91bb
00000340: 19e4 c43b aaf5 153c 67f3 d33a 688f d8bc
00000350: d62e 903b e464 933c b043 c2bb ebfe 48bc
-0.003156885 -0.0038568717 -0.0021056193 -0.0051339045 -0.002391948 0.0112902615 -0.0063321413 -0.0024404782
0.010807616 -0.0010868046 -0.002139333 -0.0065842364 0.0033201165 0.0017865453 -0.01200495 0.0006809484
0.003977092 -0.012732784 -0.0026334024 0.0023155054 -0.0020838045 -0.0024428798 -0.0017559256 0.0004140417
-0.0013430496 7.9029705e-05 0.0035420475 -0.0016357484 -0.0026002086 0.0012203199 0.00024957513 -0.00261004
0.000480565 0.0007186801 -0.0024965303 0.00096731837 0.00017654058 0.008766456 -0.0006628001 0.0041786507
0.008886707 0.0023250147 0.0025458722 0.010402442 0.0025771325 -0.0017433511 -0.0030146078 -0.0002177016
-0.0035569347 -0.0023225392 0.0034086185 -0.0022432946 0.0032291475 0.006225628 -0.008009074 -0.0072775646
0.002844811 -0.0023199157 -0.0105741825 -0.019826435 0.012540013 0.0014689788 -0.008788774 0.0055097183
-0.015489177 0.0051411325 0.0031105215 -0.010820418 0.008752829 0.00115899 -0.012241222 0.00217112
-0.00281306 -0.0022726615 -0.0075261733 -0.002710468 -0.006196589 -2.9274262e-05 -0.0059986142 -0.0035023347
-0.0120424805 0.0037671577 0.002224437 -0.0032927594 0.0052760756 0.0019808908 0.00091273594 0.004797973
0.0006430919 -0.004043781 0.0044528507 0.0011044231 -0.00023989941 0.00079379085 0.00043812042 0.0009852113
0.003724152 0.0012905116 0.000633567 0.009480384 0.003105611 -7.141847e-05 0.004351957 0.0065386067
0.004027487 0.00090152957 -0.0016642569 0.00093194505 -0.0011708315 0.0019764681 -0.0021905068 -0.00016204163
-0.0046147527 0.002316893 -0.006671616 -0.00010519422 -0.0054552183 -0.010628041 -0.00091834366 -0.017367247
-0.015980992 0.002922928 -0.012310937 -0.025210269 -0.004119344 -0.01081319 -0.0024307428 0.00083326385
0.0067648888 -3.5550212e-05 -0.00020934583 0.00054606935 0.0005995948 0.0025196779 0.0040117744 0.0032898905
-0.0016627556 -0.0033775147 0.0034233974 -0.0030986993 -0.0044594263 0.0045983302 -0.001459397 -0.0059823506
0.009424368 0.00588113 0.013874252 -0.00091224746 0.0047819293 -0.0018457393 0.019632732 0.009805975
0.014412017 0.0033757342 -0.009164147 -0.0066622538 0.0033299502 -0.0041708685 -0.0048835715 -0.00018492597
0.00056832586 0.0044798814 -0.02103752 -0.020875562 -0.010658168 -0.012794239 -0.026631057 0.0035436666
-0.0031435154 -0.010984596 -0.009935662 -0.0025403711 -0.0033311248 -0.010967009 0.0019953686 -0.00105233
-0.0013678228 -0.0013034671 -0.0021526916 -0.0027295598 0.0006110258 0.0035509132 0.00051137153 0.00048002784
0.0031984448 0.0017401009 -0.0014992643 0.0025126343 0.00041720038 -0.001566517 0.0003637249 0.009349071
-0.0018679734 -0.00014098105 0.0050332677 0.002772587 0.0029148692 0.0051358943 -0.013104314 -0.008279171
-0.0023180177 -0.008608087 -0.013569364 -0.0023712735 -0.010289645 -0.0027192864 -0.010086713 -0.0044507585
0.0060086367 0.009152809 0.0016170562 -0.026435569 0.0044001145 0.017992444 -0.005928479 -0.012267808

exp_avg_sq f4 [24, 1, 3, 3]
00000000: 5e6f ed39 5019 443a 81e4 913a 638a 083a
00000010: 8f3a 323a 3e7f 8b3a ceb0 0e3a bfc1 473a
00000020: 6f68 853a 0b57 8c39 b292 3039 143f 7239
00000030: 642a 5439 d21d 5b39 5b5c 9e39 1e78 7439
00000040: 5170 1f39 c008 8839 2726 5738 5dd5 bd38
00000050: 0a0a 7038 6fd6 3438 a946 b138 7e05 4838
00000060: dd23 f037 fa0d de38 8942 7638 7e43 bf37
00000070: 0fd5 0e38 8390 f037 2b2c a737 bd69 e437
00000080: fce1 ca37 177f b637 32d6 f437 d99e 2e38
00000090: 1696 8739 0543 6e3a f65c b739 967c 1139
000000a0: 8023 723a 6d28 4139 07ff 2339 b3a2 5c3a
000000b0: aac1 3039 10f0 1739 0fd1 0439 f4f1 3039
000000c0: edee 3739 07e2 d038 61e3 1d39 2c38 2539
000000d0: e69d a338 49f2 1939 a5d5 913a 469a b13a
000000e0: a5d4 8d3a 60c1 5e3a 31b9 c13a 949e aa3a
000000f0: 63c9 993a 2a3f a83a 752e ab3a 61ba 1f3a
00000100: 2e9b 8e3a 0dcb 463a c45b f739 9d48 9d3a
00000110: 7201 063a 5279 cc39 7487 973a b986 b439
00000120: ac4f 3e38 f97e 4538 e00f 6f39 95be 1938
00000130: 2a2d 0b39 d0bd b138 28b6 2038 3c82 f238
00000140: eb88 2139 c2bc 1538 fa98 f237 410b b337
00000150: e5c2 1738 b4d0 e737 9c68 2737 6a03 2438
00000160: 0073 0138 9f80 9b37 1b47 9438 e3a9 3738
00000170: cb3c 9b37 d663 6b38 a379 5b38 3e98 a937
00000180: 2a97 3638 6025 fb37 594c 8c37 9286 f339
00000190: 0894 cf39 d391 8839 c713 dd39 0921 e139
000001a0: 6439 aa39 21e9 d439 c0c9 f739 fa1e d939
000001b0: 9768 d838 0f81 8139 ea15 1239 a3dc 9838
000001c0: 6df5 7e39 c804 0739 7d58 0c39 a822 b438
000001d0: 15e9 c938 ae30 603a 3fc1 813a aa14 0d3a
000001e0: c7b7 753a 9aaf 863a 43dd 2b3a 6150 6d3a
000001f0: 73d1 883a 6b0b 383a 5ef1 ef39 6bc4 ed39
00000200: 0d46 9f3a aa8d 9839 bf87 c339 e9c9 b63a
00000210: 5a79 4139 00e8 9c39 e54b b03a dbfb 0b39
00000220: 9e33 cc38 5b2f f338 7316 2039 a779 eb38
00000230: 3377 d238 b627 1939 ecab 0239 6354 1039
00000240: 9117 a63a 3781 943a b80a aa3a f4b9 7d3a
00000250: ae37 9c3a 1a12 813a bbcf 323a a5f6 8f3a
00000260: 8aef 993a 1cd7 de39 b907 9d39 2d5a 9239
00000270: d87d f539 6e00 8839 544e 9e39 3a81 033a
00000280: de5e 4c39 c651 ab39 d8f8 233b f725 c33a
00000290: bba0 d03a fd1f 223b e73d 8f3a 0ae8 883a
000002a0: 2ec6 0a3b 4b3d a23a 3bd6 8a3a ba28 8839
000002b0: 1c1e b438 e388 8e39 fb08 b838 e4ef 7d39
000002c0: 60e2 3c39 847d 7b38 fcbf b038 4fa4 d439
000002d0: 277b 2c38 f671 fe37 bd48 2d38 2595 4138
000002e0: c892 2538 dde6 3c38 e1b4 4338 1c4a 1938
000002f0: 3ddc 3d38 a5a4 a038 4754 b438 2791 7e39
00000300: ccb4 1538 ecce 7c38 b9cf 3e39 e271 1038
00000310: 6ad3 0a38 ea14 3539 b516 933a 862c 583a
00000320: a38c 2d3a 3941 bb3a 94ab 803a 997a 3d3a
00000330: 7c2a a83a d0cc b33a 017d 963a 7055 7d39
00000340: dfdf 523a f4f0 cb3a 9585 ce39 1694 7b3a
00000350: d161 d33a 5a09 313a 70a2 953a 024c be3a
0.00045287138 0.00074805785 0.0011130722 0.00052086095 0.0006798887 0.001064278 0.0005443216 0.0007620118
0.0010178218 0.00026767733 0.00016839316 0.00023102417 0.00020233687 0.00020896576 0.0003020492 0.000233144
0.00015205263 0.0002594646 5.1295527e-05 9.051964e-05 5.722981e-05 4.311505e-05 8.453179e-05 4.768883e-05
2.862693e-05 0.00010588388 5.8712936e-05 2.2800403e-05 3.4053865e-05 2.8677523e-05 1.9928519e-05 2.7228956e-05
2.4185509e-05 2.1755272e-05 2.918681e-05 4.163277e-05 0.0002586103 0.0009088966 0.0003497374 0.0001387469
0.00092368573 0.00018420974 0.00015639896 0.0008416578 0.00016856813 0.00014489912 0.00012666381 0.00016874803
0.00017541247 9.960314e-05 0.00015057392 0.00015756552 7.8018566e-05 0.00014681475 0.0011126293 0.0013550005
0.0010820819 0.0008497443 0.0014779923 0.0013017231 0.0011732992 0.0012836207 0.001306011 0.0006093141
0.0010879987 0.00075833575 0.00047179882 0.001199979 0.00051119097 0.00039000303 0.0011560754 0.00034432652
4.537373e-05 4.7086713e-05 0.0002279873 3.6655536e-05 0.00013272898 8.475373e-05 3.831662e-05 0.00011563717
0.00015405162 3.5700163e-05 2.8919883e-05 2.1343703e-05 3.6182715e-05 2.763453e-05 9.978332e-06 3.9103827e-05
3.08631e-05 1.8537334e-05 7.0704344e-05 4.378882e-05 1.8505749e-05 5.6121346e-05 5.2326952e-05 2.0217263e-05
4.3532964e-05 2.9938936e-05 1.6724853e-05 0.00046448834 0.0003959241 0.0002604859 0.0004216714 0.00042939957
0.00032467686 0.00040609486 0.00047261827 0.00041412545 0.00010319164 0.00024700954 0.00013931809 7.2890216e-05
0.00024314756 0.00012876384 0.00013384405 8.589524e-05 9.627842e-05 0.0008552176 0.0009899511 0.00053818023
0.0009373393 0.0010275722 0.0006556103 0.000905281 0.0010438397 0.00070207444 0.00045765465 0.00045350505
0.0012151614 0.00029097247 0.00037294437 0.0013945672 0.00018451121 0.00029927492 0.0013450353 0.00013349896
9.7370925e-05 0.000115959636 0.00015267152 0.00011228333 0.00010035783 0.0001460601 0.00012461812 0.00013764347
0.0012671818 0.0011330013 0.0012973165 0.0009678893 0.0011918449 0.0009847314 0.00068211154 0.001098354
0.0011744362 0.0004250341 0.00029951127 0.00027914476 0.00046823802 0.00025940262 0.00030194467 0.00050165097
0.00019490297 0.00032676588 0.0025020149 0.0014888634 0.0015917042 0.0024738305 0.0010928483 0.001044513
0.0021175253 0.0012377886 0.001059241 0.00025970285 8.588677e-05 0.0002718634 8.7754765e-05 0.00024217326
0.00018013408 5.995996e-05 8.428094e-05 0.0004055821 4.112269e-05 3.0332227e-05 4.1314157e-05 4.6153687e-05
3.9475766e-05 4.50377e-05 4.666008e-05 3.6547062e-05 4.5266224e-05 7.660062e-05 8.598767e-05 0.00024277401
3.569275e-05 6.0274193e-05 0.00018197195 3.4438337e-05 3.309866e-05 0.00017269296 0.0011221977 0.00082463806
0.0006620383 0.0014286406 0.0009816759 0.00072280463 0.0012830044 0.0013717655 0.0011481346 0.00024159788
0.00080442237 0.001555948 0.00039390908 0.00095969567 0.0016127174 0.00067534077 0.0011416208 0.0014518502

exp_avg_sq f4 [24]
00000000: 848c 803f 00c0 763f 9017 763f b95a 873f
00000010: 76f9 833f 9812 743f 112b 8b3f 3468 7c3f
00000020: 1df9 6d3f cd3a 843f 8bbb 753f 9f7c 753f
00000030: 9b01 883f 8426 793f ab09 843f ce86 753f
00000040: 0c9d 883f 916d 6a3f 3be1 843f df93 933f
00000050: 56ac 643f b4e7 893f 001a 7f3f b6e0 843f
1.0042882 0.9638672 0.96129704 1.0574561 1.0310504 0.9534087 1.0872518 0.985965
0.9295824 1.0330445 0.9598929 0.9589328 1.062549 0.97324395 1.031545 0.9590882
1.0672927 0.91573435 1.0381235 1.1529502 0.89325464 1.0773835 0.9964905 1.0381076

exp_avg f4 [24]
00000000: b5a4 65bb 8a4a d33b 395a 0abb 024f 093b
00000010: 5d29 d13a d914 cd3a 3e5b 0b3b 5ee2 c23a
00000020: 0b73 16bb 5cc5 d7b9 55f1 80ba 2eb0 3fbb
00000030: 1003 02ba f4e3 6dbb 0633 e5ba 8924 6aba
00000040: e5c2 cc3b ea40 e83b 5f09 29bc 8bba 963a
00000050: 72bf 4eba 5082 02b9 1869 ca3a 1da5 223c
-0.00350408 0.0064480947 -0.0021110906 0.0020951633 0.0015957762 0.0015646472 0.0021264101 0.0014868488
-0.0022956755 -0.0004115504 -0.0009837548 -0.0029249298 -0.0004959563 -0.00362992 -0.001748652 -0.0008931836
0.006248819 0.0070878165 -0.010317176 0.0011499686 -0.0007886804 -0.00012446311 0.0015442697 0.009927061

exp_avg_sq f4 [24]
00000000: 6023 bc38 cfa8 1b39 4588 d537 fd80 8e38
00000010: ed5e c538 ba56 2238 5b98 3239 593e 6f39
00000020: 74bc 0c38 1b6a 1838 36d4 9b37 a713 2139
00000030: e82d c438 3e1e a138 38e3 0739 5099 eb37
00000040: 241d 8339 740b 3039 79af 0b39 e501 ef37
00000050: 91ab 5e37 d3c9 2638 9db0 9838 e0f8 f339
8.971128e-05 0.00014844838 2.5455034e-05 6.7951136e-05 9.411373e-05 3.870458e-05 0.0001703216 0.00022816042
3.355411e-05 3.6338442e-05 1.8576258e-05 0.00015361478 9.354559e-05 7.682711e-05 0.00012959249 2.8085575e-05
0.0002500798 0.00016788935 0.00013321442 2.8491902e-05 1.3272177e-05 3.9765448e-05 7.2808216e-05 0.00046533998

exp_avg_sq f4 [24]
00000000: 7d4e babd c319 393d c421 1fbd 0107 763e
00000010: ce19 5f3e 5571 e9bc 27f5 543d 8f0d 2e3c
00000020: c2ea 2a3c a731 283d e428 babc fccf 873d
00000030: 7afe 963d d60c 86bd 0d39 a4bb 3fff cf3d
00000040: d626 8a3d 3e4a 0abd 0227 a73d d0f5 9cbc
00000050: e4ee bbbd 7360 873e ad99 3a3e 0d49 e3bb
-0.09097002 0.045190584 -0.03885056 0.2402611 0.21787187 -0.028496424 0.051991608 0.01062335
0.010431947 0.041062977 -0.022724576 0.06631467 0.07372756 -0.06545417 -0.005011684 0.10156106
0.067456886 -0.03376221 0.08161737 -0.019160181 -0.09176424 0.26440772 0.18222685 -0.0069361986

exp_avg f4 [24]
00000000: 66e4 d8b9 8a8e a33a 54b1 8fb8 8066 25ba
00000010: af14 cbba 1060 cb3a 91ab 7aba ec0b 62ba
00000020: 4a27 10bb e2f3 ab38 aebf ecba 6da5 26bb
00000030: 0881 9b3a d198 113b f20a 633b 34b5 44ba
00000040: c488 b33a a9e3 1eba 6b6c 3dbb 8139 e4ba
00000050: ebd2 1a3a b0b8 65b9 609e 2fb7 8885 b6b8
-0.000413689 0.0012478393 -6.851801e-05 -0.0006309524 -0.0015493835 0.00155163 -0.00095623086 -0.00086229923
-0.0021996074 8.199342e-05 -0.0018062496 -0.0025428191 0.0011864016 0.002221633 0.0034643975 -0.0007503808
0.0013697376 -0.00060611457 -0.0028903733 -0.0017412157 0.0005906063 -0.00021907943 -1.0467687e-05 -8.7033084e-05

exp_avg_sq f4 [24]
00000000: 6e27 1037 5eb2 9137 d7c4 5836 3729 ee37
00000010: bf65 b337 a585 a336 3bdb ba37 f8d0 3d37
00000020: 2575 3037 c820 5636 463a 2137 1f83 ba37
00000030: 6601 4c38 5b5c 4f37 2f89 1438 2699 bd36
00000040: f0af 0e38 3d05 2537 694f ea37 8a8a 9e37
00000050: d95c 9135 923b 8537 eff9 3237 d7bd 8638
8.592249e-06 1.7368406e-05 3.2301084e-06 2.8391003e-05 2.1385842e-05 4.873337e-06 2.2275015e-05 1.1313932e-05
1.0517692e-05 3.1907566e-06 9.609916e-06 2.2233986e-05 4.8638693e-05 1.2359665e-05 3.5413712e-05 5.6504678e-06
3.4019293e-05 9.835986e-06 2.7931952e-05 1.889958e-05 1.0830364e-06 1.5882575e-05 1.0667819e-05 6.424978e-05

exp_avg_sq f4 [4, 24, 1, 1]
00000000: eab1 b1be 2a27 90be 1b9e 10be 2cb0 b5bc
00000010: e3b6 44be 7dd5 2b3e 6b42 28be 2c71 b7bd
00000020: 7892 503d d27a 93bd f8bb ecbc 1803 40be
00000030: 654e 333e 5b82 9e3e 8432 833e 4ee2 88bd
00000040: 3934 573d 9b1a 5bbd ff2b 02be a5be 3c3e
00000050: 98b7 bb3d 4089 313e 0b9a 273e 0a5f 503d
00000060: b056 a33d d9f3 83be 9725 10bd 0b56 583e
00000070: 14c3 ffbd d35e c43d caa4 36bd 44a1 0f3e
00000080: aa33 cf3c de75 5d3b ed74 f5bc d4a6 44be
00000090: 14af 64be 247b a03e 54f9 9c3d e170 a5bd
000000a0: 8256 953b da2a 8f3e 0ec3 4c3c 8d25 193e
000000b0: 3958 dcbd 68ad bc3e 1c0a 08be 1247 f5be
000000c0: 4db2 0e3e 2d3f 453c ad00 9fbe 2bf5 0bbe
000000d0: d9bc bf3d 9ecd b6bd 8867 b1bd d74f 95bd
000000e0: 7d92 b4be 5638 babd dafa 693d acdd 123d
000000f0: ccdd 843e 70e6 acbe 44ec 473d 9472 e63d
00000100: 91bd 953d 6684 a4be 3a3e f3bc b8e3 88bd
00000110: cbf1 b83c 9f71 52be 6b9a 153e 276a a63e
00000120: 85aa 253c 13be 483e 3ab0 cfbd e937 7a3c
00000130: 20cf 383e 3b44 5abe 60ff 743e e64b a0bd
00000140: 3a0c 1ebe 6fd8 16be a7e7 51bd d9d4 28be
00000150: d650 96bc c544 96be e704 ddbd 07c8 cf3d
00000160: 49e3 6c3e f7f0 7abd 6ccb aebd f411 b33d
00000170: 897e abbe 29e5 94be 44ac 463e 765a c53e
-0.3470605 -0.2815488 -0.14122812 -0.022178732 -0.19210391 0.16780658 -0.16431586 -0.08957133
0.050920933 -0.072011605 -0.028898224 -0.1875118 0.17510374 0.30958828 0.25624478 -0.06683789
0.052540038 -0.05349217 -0.12712096 0.184321 0.09165877 0.17337513 0.16367356 0.050871886
0.07975519 -0.25771978 -0.0351921 0.21126573 -0.1248838 0.09588399 -0.04459075 0.14026362
0.02529319 0.0033792178 -0.029962981 -0.19204265 -0.22332412 0.3134395 0.07664743 -0.080781706
0.0045574317 0.2796238 0.012497677 0.1495573 -0.10759015 0.36851048 -0.13285106 -0.47905785
0.13935204 0.012038988 -0.31055203 -0.13667743 0.09362192 -0.08925937 -0.08662325 -0.07290619
-0.35268012 -0.090927765 0.057123996 0.035855934 0.25950468 -0.3376956 0.048809305 0.11252323
0.073115475 -0.32132262 -0.029692758 -0.06684059 0.022576233 -0.20551156 0.14609687 0.32502863
0.010111456 0.19603758 -0.101410344 0.015272119 0.18047762 -0.2131509 0.23925543 -0.078269765
-0.15434352 -0.14731 -0.05124631 -0.16487445 -0.018349092 -0.29349342 -0.10791951 0.10145574
0.23133577 -0.06126496 -0.085348934 0.08743659 -0.33494976 -0.29081085 0.19401652 0.3854558
